results/BallJumpNN/BallAgent/BallAgent-1499989.onnx (onnx, 143300 bytes, 12 tensors)

82 f4 [9]
000000 91 c8 12 40 fd 13 5e 3f 17 b9 38 40 08 00 0a 41
       2.2934916 0.8674925 2.886297 8.625008
000010 14 6d 95 3f c6 f9 ae 3f 37 f9 a4 40 79 c5 18 40
       1.1673913 1.3669975 5.1554217 2.3870528
000020 d0 64 04 40
       2.068653

distribution.branches.0.bias f4 [2]
000000 61 75 ed bd 61 75 ed 3d
       -0.11594654 0.11594654

distribution.branches.0.weight f4 [2, 128]
000000 ce f6 53 bc 4d fe 48 be ce 49 b2 3d 45 9f 2f 3c
       -0.012937261 -0.19628258 0.087054834 0.010719125
000010 6c 9b 32 bd c2 91 da 3d 41 00 cd 3d e2 bb 9c bd
       -0.043605253 0.10672332 0.10009814 -0.07653023
000020 54 b5 8e bd aa 0d b2 3c d4 f2 b8 3d d1 d3 70 3d
       -0.06968179 0.021735031 0.09030691 0.058795754
000030 2b 03 d5 bd 35 ab 02 3c 45 b5 01 3d b1 4c 6e 3d
       -0.10400995 0.007975389 0.031667013 0.058178607
000040 3e 40 e4 bc 19 d5 a2 3d 02 99 c2 bc 79 4f 9a 3c
       -0.027862664 0.079508014 -0.0237546 0.018836724
000050 8f 2d 29 be 11 cf ee 3c 9a c3 27 3e ea 22 2f bd
       -0.16521285 0.029151471 0.1638321 -0.042757906
000060 12 6a c2 3c af 21 8f 3b f0 8b 40 bd 55 55 49 be
       0.023732219 0.004368029 -0.047008455 -0.19661458
000070 81 c3 a7 3d bd f7 80 3d 80 55 be 3c 46 e7 c3 3c
       0.08191586 0.06297252 0.023234129 0.02391399
000080 68 60 9b 3c b6 55 05 be 40 63 19 bd 44 75 f2 3a
       0.018966869 -0.13020977 -0.037448168 0.0018498083
000090 36 87 d9 3d 95 bc 75 39 4c 9b 2f 3d 90 89 3b bb
       0.106214926 0.00023435273 0.042872712 -0.002861593
0000a0 8f fb 48 3c 7a 1e b8 3d f2 32 ee bb b5 1a 6a bc
       0.0122670075 0.08990188 -0.0072692567 -0.014288594
0000b0 47 6b d8 bd d7 80 8d bd 02 b5 84 bd ef fb 57 bc
       -0.105673365 -0.0690934 -0.06479837 -0.013182624
0000c0 38 78 49 3d 4e 89 a0 bd 87 e0 a0 3b f9 54 e1 ba
       0.049186915 -0.07838689 0.0049095782 -0.0017191462
0000d0 67 8d 7c 3d ef d3 1f bc ee be 6b 3c ac d1 88 bd
       0.06165829 -0.009755119 0.014388783 -0.06680617
0000e0 38 73 29 3e db a5 0f bd 49 b7 1b bd 62 02 80 3c
       0.16547859 -0.03507028 -0.03801659 0.015626136
0000f0 ee e1 6b 3d 3c 70 ea 3d fd 08 0f bd 97 7d 05 bc
       0.05758851 0.11447188 -0.03492068 -0.008147619
000100 76 3c 48 3b 1b f3 bd 3d 13 7f c2 3d 2d 76 44 bd
       0.0030553616 0.09274884 0.09496894 -0.047964264
000110 06 ca 9f 3d d0 f0 c1 3c 08 5b 60 3c 15 92 69 3d
       0.07802205 0.023674399 0.013693579 0.05702408
000120 c3 0d e4 3c ca 96 0a be ff 28 d5 ba 1f 87 72 bc
       0.027838593 -0.13534084 -0.0016262828 -0.014802723
000130 d4 18 05 be 1e a1 3d 3d e0 83 e7 3d 9d 04 47 bb
       -0.12997752 0.04629623 0.1130445 -0.003036774
000140 4d 16 40 be 31 c6 3e 3d c3 8a 86 3d 06 d8 24 bd
       -0.18758507 0.04657573 0.065694354 -0.04024508
000150 7b 76 36 3d ca 72 a4 bc ab 0c 08 bd fa 00 c4 3d
       0.044546586 -0.020074267 -0.033215206 0.09570499
000160 36 33 82 bd 26 b8 8b 3b 28 c0 42 bd e6 35 26 3d
       -0.06357424 0.0042638956 -0.047546536 0.040578745
000170 6f 75 13 3c 0f 57 c4 3d 07 55 7f be fd 73 6a 3d
       0.009000166 0.095869176 -0.24934779 0.05723952
000180 fa 37 5b be 26 b5 d3 bc 83 8b 9b 3c f3 60 04 3d
       -0.21408072 -0.025843214 0.018987423 0.03231902
000190 f2 e7 bb bd 8f 46 ce 3d 68 fe 77 bd 8b 17 e0 3c
       -0.091750994 0.10072052 -0.060545355 0.027354976
0001a0 86 24 aa bd e7 12 d3 ba e9 bb 1f 3e a6 7e c1 bd
       -0.083077475 -0.0016103656 0.15599026 -0.094479844
0001b0 71 55 bd 3c c5 3f 99 3d b5 68 3b bd b9 4a 78 3d
       0.02311203 0.07482866 -0.045754153 0.060618136
0001c0 4c 41 b3 3c 67 75 ab 3d f7 20 05 bd ac e3 62 3d
       0.021881722 0.08372002 -0.03250214 0.055392906
0001d0 41 dc 6b bc fe e1 b6 bd 16 1d f7 bd 1c 03 ec 3d
       -0.014395774 -0.08929823 -0.120660946 0.115240306
0001e0 ef a0 ce 3c 48 e3 31 3d 04 6c 71 39 39 7e 46 bc
       0.025223223 0.043429643 0.0002302379 -0.012115055
0001f0 49 b1 3d 3b c6 00 5b 3d bf fd f3 bb c4 94 cd 3d
       0.0028944782 0.053467534 -0.0074460204 0.100381404
000200 f6 5c c7 3c da 8a 55 3e 6c ae bc bd 7e 6e 01 3c
       0.02433632 0.20853749 -0.09212956 0.007899879
000210 6d 42 eb 3c ae 13 d5 bd 09 ac b6 bd 48 ff 93 3d
       0.028718198 -0.10404144 -0.08919532 0.072264254
000220 18 b3 34 3d 5e f7 a8 bc 94 7c b4 bd d2 56 69 bd
       0.04411611 -0.020625766 -0.08812824 -0.056967564
000230 74 b8 c1 3d 89 6a 12 bc ae 43 c5 bc 26 ae 4a bd
       0.0945901 -0.008936533 -0.024080124 -0.049482487
000240 78 2e 0b 3d 49 d1 7d bd 1a 1e dc 3c 2b c0 96 bc
       0.033979863 -0.061967168 0.026869822 -0.01840218
000250 5d 73 23 3e e7 89 02 bd e1 59 31 be d7 9f 18 3d
       0.15961976 -0.031869795 -0.17319442 0.03726181
000260 60 4f 34 bd 74 3f b7 bb 2a f5 1b 3d ef 6c 50 3e
       -0.04402101 -0.005592281 0.038075604 0.20354055
000270 94 94 b1 bd e4 96 88 bd d4 e9 e1 bc 28 76 dd bc
       -0.08670917 -0.06669405 -0.027577318 -0.02703388
000280 ff ac 02 bd 36 4c 15 3e 67 1f 31 3d 4c b8 08 3c
       -0.031903263 0.14579853 0.04324284 0.008344721
000290 ee bb e9 bd 7a 8b a1 ba 9e 35 5d bd ff f1 37 bc
       -0.11412798 -0.0012324892 -0.05400621 -0.01122713
0002a0 ff f2 c8 3b f9 7d d3 bd da 32 47 3c 04 78 92 3c
       0.006132483 -0.10326762 0.01215812 0.017879494
0002b0 3e 16 fc 3d 3e 95 75 3d 09 86 77 3d 3e 4c 5f 3c
       0.1230893 0.05995678 0.06043056 0.013629017
0002c0 9f 24 20 bd 3c e3 99 3d 07 9c af 3b 5c f8 df 3c
       -0.039097425 0.07514045 0.005359176 0.027340107
0002d0 2a c0 98 bd 57 41 3d bb 4e 7f 04 bc e9 da 32 3d
       -0.074585274 -0.0028878057 -0.008086992 0.0436658
0002e0 a3 d1 2f be 4b f5 36 3d 3f d2 f0 3c 21 c5 bd bc
       -0.17169814 0.044667523 0.029397128 -0.023165287
0002f0 cf 4c 7a bd 3a 37 e1 bd 29 3c 00 3d 4b d3 99 3c
       -0.061108407 -0.10996862 0.031307373 0.01877751
000300 eb 3e 7a 3a 93 23 d1 bd b0 f1 a7 bd f2 70 12 3d
       0.00095461187 -0.10211863 -0.08200395 0.035752244
000310 b7 65 b6 bd 37 e0 3a bb 33 11 26 bd 4d 2c 9c bd
       -0.08906119 -0.002851499 -0.040543746 -0.07625637
000320 96 e2 bf bc f7 2d d5 3d 34 c3 a6 3b 37 2a 4d bb
       -0.023423474 0.10409158 0.005089188 -0.003130568
000330 03 a0 fe 3d 2c da ea bc 85 e9 c7 bd 2a 60 a0 bc
       0.124328636 -0.028668486 -0.09761337 -0.019577105
000340 c1 ba 3a 3e 76 9a 5c bd e8 7a e9 bc 17 f1 65 3d
       0.18235303 -0.053858243 -0.02850099 0.056138124
000350 58 2c 53 bd 5f 2b 05 3c 60 0f 74 3d 58 1a ae bd
       -0.05155596 0.008128016 0.059584975 -0.085011184
000360 f5 53 9d 3d 08 b7 50 bc 9e 3f 38 3d c3 86 07 bd
       0.07682029 -0.012738951 0.044982545 -0.033087503
000370 ef 79 08 3c 1e a8 ba bd c7 56 8a 3e 3d 32 a1 bd
       0.0083298525 -0.09114097 0.2701933 -0.0787091
000380 02 47 4a 3e f9 2c 1e 3d 22 06 55 39 78 17 b6 bc
       0.1975365 0.038617108 0.00020315548 -0.022227988
000390 09 ee ac 3d b8 e4 ca bd 8a ef 21 3d 6d 14 33 bd
       0.08443839 -0.09906906 0.039535083 -0.04372065
0003a0 a6 dc ad 3d b0 e7 75 3c 68 82 2e be 78 9e b9 3d
       0.08489351 0.015008852 -0.17041934 0.09063429
0003b0 ff 01 c7 bc 5c e6 9e bd 7a 64 21 3d 06 b0 4d bd
       -0.024292944 -0.07758781 0.039402463 -0.050216697
0003c0 66 c7 f1 bc 26 fa b9 bd a0 cd dd 3c c8 69 2a bd
       -0.029514026 -0.09080915 0.027075589 -0.041604787
0003d0 7c df 09 3d 7a 66 ed 3d 90 d1 fe 3d f6 c7 f0 bd
       0.033660397 0.115918115 0.124423146 -0.117568895
0003e0 f1 89 09 bd b9 36 45 bd f2 38 b4 3b 1a 60 8e 3c
       -0.033578817 -0.04814789 0.0054999525 0.01737981
0003f0 31 6d d1 3b 0a 6c 86 bd b0 ff 64 bc 27 9d b9 bd
       0.0063911905 -0.065635756 -0.013976976 -0.090631776

distribution.branches.1.bias f4 [3]
000000 e5 fb d2 3c 96 95 0a bd 3c b1 a3 3b
       0.025754878 -0.033834063 0.004995493

distribution.branches.1.weight f4 [3, 128]
000000 a1 80 0f 3c 3c 5c b7 bb 72 d9 bd 3b 05 79 36 bd
       0.008758695 -0.005595712 0.0057937438 -0.044549007
000010 eb 70 26 bd 99 cc a2 3b 89 09 9e 3c 5d 28 6b bb
       -0.04063503 0.0049682376 0.019291656 -0.0035882213
000020 28 89 3a bd ed dd 5a 3c 75 bc 65 3d ca 23 7d bd
       -0.04554096 0.013358575 0.05608793 -0.06180171
000030 a7 ad 6b bb 37 5a 74 3c 43 94 1d bc 43 d4 7e 3d
       -0.003596166 0.014914087 -0.009617868 0.062214147
000040 21 40 0f 3d b9 59 ad bc 8b 44 8c bc c1 1f 93 bc
       0.034973267 -0.021160947 -0.017122528 -0.017959477
000050 fa 08 2c bc a2 cc 6c 3c 9a e6 50 3d fc 8e 19 3c
       -0.010500187 0.014453085 0.05100117 0.009372469
000060 6d 17 cc ba 1d 69 e0 3a 0b e7 f4 3c d2 eb 45 3c
       -0.0015570946 0.001712117 0.029895326 0.01208015
000070 11 4f b0 ba 9b 35 bb 3c af d1 60 3c 33 32 e6 3b
       -0.0013451298 0.02285271 0.013721867 0.007025027
000080 2e 0b 07 bc 25 22 9d 3c 02 a4 4a 3d 78 e1 80 bc
       -0.008242412 0.01918132 0.049472816 -0.015732512
000090 4f 29 4a 3d 31 b0 97 bd b4 12 e3 bc 57 e8 22 bc
       0.0493558 -0.07406653 -0.02771888 -0.009943089
0000a0 dd 77 9c 3a a9 60 74 3c 05 bc 17 bd 39 d2 74 3b
       0.0011937578 0.014915624 -0.037044544 0.0037356748
0000b0 f5 41 f1 3c 8d 71 6f 3d 49 99 ac bc 2f 1c 76 bd
       0.029450396 0.0584579 -0.021069186 -0.06008547
0000c0 81 ff 06 3b 6e 50 f2 bc 2a 24 5b bc 79 8e 1f 3d
       0.002059907 -0.029579367 -0.013375321 0.038954232
0000d0 b1 1d 99 bc 05 71 c4 bc bc d8 b5 bc ae ae be b8
       -0.018690916 -0.023979673 -0.022198074 -9.0924426e-05
0000e0 c0 2d 15 3d f8 a8 07 3d a7 6a 1b bb 40 21 23 3c
       0.036420584 0.033120126 -0.0023714693 0.009956658
0000f0 53 52 07 bc 6f 6c da bb f5 5e 19 3c df e8 32 bc
       -0.008259374 -0.0066657583 0.009361018 -0.010919779
000100 ec e1 11 bc f6 a7 02 3d b2 78 7e 3d 06 af 54 3a
       -0.008903962 0.03189846 0.062126823 0.0008113239
000110 29 3e 04 3d 42 44 42 bd a5 48 31 bd cf 4a e0 bd
       0.032285843 -0.047428377 -0.04328217 -0.109517686
000120 bd 6c 76 bd ae de cd 3c 10 68 09 3d bd 8c b5 bc
       -0.060162295 0.025130596 0.033546507 -0.022161836
000130 ea c4 f9 bc 24 d3 02 3d f0 c9 65 3d af 35 b3 bb
       -0.030489404 0.03193964 0.056100786 -0.005469046
000140 dc 18 9a bc 9e 6b e8 3a b8 f0 2a 3c 06 c6 25 3b
       -0.018810682 0.0017732268 0.010433368 0.0025295033
000150 ec a0 95 3c 81 38 23 3d b7 ea 4b bd d0 a6 37 3c
       0.01826521 0.03984881 -0.04978439 0.011209205
000160 15 cf 92 3d 84 8d 52 bb ab d3 93 3b 43 91 f0 3c
       0.07168404 -0.0032127807 0.004511317 0.029366141
000170 05 ed 5a 3d 71 cd 9f 3d 2f ef 14 3c 6c 95 50 3b
       0.053448696 0.07802857 0.009090229 0.0031827344
000180 fb 4f 77 bc 65 cf 5f bc db 31 d1 bb 58 71 87 3c
       -0.015094752 -0.013660287 -0.006384117 0.016533539
000190 24 69 d1 bc 48 39 9f 3d c1 15 5f bd 77 0f d1 bd
       -0.02556283 0.077745974 -0.054464106 -0.10208028
0001a0 06 71 38 3d 65 d6 08 bd b8 dc 55 3d 0a 5c ef ba
       0.045029663 -0.033407588 0.052212447 -0.0018261683
0001b0 fa 9d 06 bd dc 33 e8 bc e1 1f 3f bc 3c a5 73 bc
       -0.032865502 -0.028345041 -0.011665315 -0.014870938
0001c0 97 ad 9c 3c 45 a6 d9 3c 7d 9d 63 bd 2d f2 c9 3b
       0.019125743 0.026568541 -0.055570114 0.006162903
0001d0 97 bc 36 3d d9 df 3f bd 4f d6 de bc 6b 47 b6 3c
       0.044613447 -0.046844337 -0.0272018 0.022250852
0001e0 62 da 4d 3d 81 53 e1 bb 1f 50 dc ba 8a c7 f0 3a
       0.050257094 -0.0068764095 -0.0016808546 0.0018370014
0001f0 ad f2 0f 3d 6b f8 16 bd 37 c5 88 bd c2 4e 9f 3d
       0.035143543 -0.036858004 -0.06678241 0.07778694
000200 b0 8b 1e 3e 1f 16 1b bb b7 b1 b9 bd 09 53 d4 bc
       0.15482974 -0.0023664308 -0.090670995 -0.0259185
000210 34 87 f2 bc 88 2d 27 3d d2 d0 fe 3c 26 6b 2c be
       -0.029605485 0.040814906 0.031105433 -0.16837749
000220 d6 ea 09 bc c5 29 24 3c 83 74 4a bb 9b f8 88 3c
       -0.008417806 0.010019724 -0.00308922 0.016720107
000230 ab a7 9e 3d 0e 4b 40 bd a5 08 c0 bd a2 b1 ca 3d
       0.07746824 -0.046946578 -0.09376649 0.09897162
000240 89 4f 51 be 06 6b 4d be 21 72 7d be 13 eb f0 3d
       -0.20440497 -0.20060357 -0.24750568 0.11763587
000250 41 ae 86 3d 01 0b 2c be 4e 03 08 bd 82 e3 d7 3d
       0.06576205 -0.16801073 -0.033206277 0.105414405
000260 03 82 62 bd bd b1 2e be cf 16 b6 3d f0 e9 75 3d
       -0.05529977 -0.1705999 0.08891069 0.060037553
000270 ab 04 f1 3d 7e a5 96 3d 17 05 05 be 4b 3a 0b be
       0.117684685 0.07355784 -0.12990223 -0.13596456
000280 33 53 e3 bd a0 b1 e8 3d f9 35 1e be 4d 49 89 bd
       -0.11099853 0.11362004 -0.15450276 -0.06703434
000290 a8 1e 48 3d c6 57 d3 3d ba ce a7 3d f5 fc 00 be
       0.04885736 0.10319476 0.08193727 -0.12596495
0002a0 92 dc 18 be 08 05 59 bd 97 9f 8f bd e5 d0 04 be
       -0.14927891 -0.052983314 -0.07012861 -0.12970312
0002b0 17 5a 71 bd d4 8e 9a 3d f0 5d b7 bd ee 17 63 3d
       -0.058923807 0.075467736 -0.08953464 0.055442743
0002c0 2e 79 44 bc 0b 3c 5d 3c 54 ee 2f be 7d 22 1b 3e
       -0.011991782 0.013503085 -0.17180759 0.15149875
0002d0 9d 62 d0 3c 88 ef 08 be f5 fc 6d be c0 25 ed 3d
       0.025437647 -0.13372624 -0.23241027 0.11579466
0002e0 0f c1 64 3c 30 e9 e5 3d 71 50 8e 3d 8f f1 1a be
       0.013962044 0.112261176 0.06948937 -0.1513121
0002f0 63 75 d1 bd fd 6f 32 3d 20 48 26 be b5 10 d2 bd
       -0.10227468 0.04356383 -0.16238451 -0.10257093
000300 19 77 00 3e f4 ff 21 3d a0 d9 7c bd 9a 29 37 be
       0.12545432 0.039550737 -0.06173098 -0.17886963
000310 f1 ce 2d bd 70 90 1e be 0e 25 a7 bd 71 5e a2 3d
       -0.042433683 -0.15484786 -0.081613645 0.079281695
000320 19 bc d3 b9 d8 62 03 3e 00 f1 24 be 8f 8e b1 bd
       -0.000403852 0.12830675 -0.16107559 -0.08669769
000330 5a 56 fa 3d 5e 4d a0 bd d2 07 27 3d bf 45 87 be
       0.122235015 -0.078272566 0.040778942 -0.264204
000340 4f 46 a4 3d 75 a8 2f 3e c0 69 eb bd 4f 27 d5 bd
       0.08021223 0.17154105 -0.114947796 -0.10407888
000350 60 c4 d4 3d 1c b2 4a be b3 a9 20 be aa 96 24 bd
       0.10389018 -0.19794506 -0.15689735 -0.040182747
000360 9a 5c cb 3d c5 17 04 be de 50 0d be fd 7a b2 3d
       0.09929772 -0.12899692 -0.1380038 0.087148644
000370 41 d9 05 3e 88 60 36 3c 83 9f 59 3d 61 d2 d3 3c
       0.13071157 0.011131413 0.053130638 0.025857152
000380 31 20 22 3c 9e 0b 02 be 77 c4 64 be 50 8b 3c be
       0.00989537 -0.12699744 -0.2234057 -0.18412519
000390 3f 97 4e bd 32 74 a5 bd da cf 7f 3d da 88 e6 3c
       -0.05043721 -0.08078803 0.062454082 0.028141428
0003a0 4b 83 7d 3d f4 45 8e 3c 96 28 46 3c db eb e8 3d
       0.06189279 0.01736734 0.012094637 0.11373111
0003b0 51 6a 6e bd 21 00 d5 3d 93 a4 f6 bd 07 66 2b be
       -0.05820686 0.10400415 -0.12043109 -0.16738139
0003c0 c4 0d 46 be c8 50 b4 3c 12 af b0 3d 8a ad 23 3e
       -0.19341189 0.022011176 0.08627142 0.15984169
0003d0 c4 3a 27 be 4d 7b d3 bc 6e 50 93 bb 46 47 5e 3d
       -0.16331011 -0.02581563 -0.004495672 0.05426719
0003e0 29 46 44 be cb d7 29 3e 1d 7c cd bd 9a f0 05 3e
       -0.19167389 0.16586225 -0.10033438 0.13080063
0003f0 93 cf db bc 76 1c e4 3d 14 a9 8b 3d 9f 77 46 bd
       -0.026832378 0.11138241 0.068193585 -0.048453923

network_body.linear_encoder.seq_layers.0.bias f4 [128]
000000 02 3b 24 bd 5f e1 bb 3d 55 83 0d 3e 23 e0 06 3c
       -0.040095337 0.091738455 0.1381963 0.008232149
000010 29 b8 f3 3d 25 4b ad bd 86 5d 42 bb 52 a9 0b 3e
       0.1190036 -0.08461598 -0.0029657795 0.1363881
000020 cc b6 0a 3d 90 7d 3d 3e b6 08 97 bc b7 4d d0 3d
       0.033865735 0.1850493 -0.01843677 0.10171073
000030 c7 7f 97 bd b9 15 c4 bd 10 53 d6 bc 62 0a d6 3d
       -0.073974185 -0.09574456 -0.026162654 0.10451199
000040 31 c9 ad bd 5d 64 34 3d 5e 0d 58 3d 6d 60 00 bd
       -0.0848564 0.044041026 0.052747123 -0.03134196
000050 74 a5 24 bd 99 88 8d bd fb 58 bd 3d 4a 19 78 bd
       -0.04019685 -0.069108196 0.09245487 -0.060570993
000060 4e ea 31 bd b5 1e 0b 3e 0d b3 f0 bc f9 93 65 bd
       -0.04343634 0.13585933 -0.029382253 -0.05604932
000070 c2 f6 98 3d 1a f1 9d bd aa f0 a6 bc 84 ff 1c 3e
       0.0746894 -0.07712002 -0.02037843 0.15331846
000080 81 6d 90 3d 0e 85 45 3d 7a 99 2b bc a7 23 13 bd
       0.07052136 0.048222594 -0.010473603 -0.035922673
000090 9f a9 60 bc 14 88 26 bd f9 d0 23 3d 76 ee 2e 3c
       -0.013712316 -0.040657118 0.039994214 0.010676971
0000a0 70 74 06 bd 10 a8 fc 3d 72 f3 f6 bd 43 65 a6 3d
       -0.032825887 0.12336743 -0.12058152 0.08124783
0000b0 88 67 d9 bc ad 8b b1 3d f5 48 04 3e a3 22 08 bd
       -0.026538625 0.08669219 0.12918456 -0.033236157
0000c0 c3 3d 4d bd 40 4b d3 bd 2e 32 0f be 0b 37 e2 3d
       -0.05010773 -0.10317087 -0.13983986 0.11045655
0000d0 c5 cb 68 3d b5 3b 47 3e 98 3e fd 3c fe 05 28 3e
       0.056834955 0.1945637 0.030913636 0.16408536
0000e0 e1 79 a6 bd 79 0d a3 3c 56 3b 14 bc c8 ec 1f 3d
       -0.08128715 0.019903885 -0.00904735 0.03904417
0000f0 f7 c2 34 bb 9a 54 69 bd c0 43 cd 3d 57 5e 11 3d
       -0.0027582028 -0.056965448 0.10022688 0.03549036
000100 e8 87 9a bc b3 7a 47 bd 64 10 b3 bc db 21 1c be
       -0.018863633 -0.048701 -0.021858402 -0.1524729
000110 46 f1 d0 bc 9d 37 1f 3e 7c ac 3c 3e 89 52 b8 bd
       -0.025505673 0.15548559 0.18425173 -0.09000117
000120 e0 62 d1 bd eb 7b a5 ba 85 a3 8c bd 33 3a 03 be
       -0.10223937 -0.0012625431 -0.068671264 -0.1281517
000130 89 77 e6 bb ea 6e 90 bd ec 6b 94 3c 3c 96 1c bd
       -0.0070332927 -0.07052405 0.018117867 -0.038229212
000140 51 73 4e 3a 88 93 ae bc 71 03 9c 3c 90 04 a1 3d
       0.000787546 -0.021310583 0.01904461 0.07862198
000150 7f 37 0b 3e c1 50 6b bd 30 f3 12 bd 67 24 0f bd
       0.13595389 -0.05745006 -0.035876453 -0.034946825
000160 c8 59 0a 3e fc fd 64 3c ad 58 83 3d 1d 0b 9c bc
       0.13510811 0.01397657 0.06413398 -0.019048268
000170 60 8e 51 3e 64 f3 69 bd e3 e7 bb bd 4a 84 f1 bc
       0.20464468 -0.05711688 -0.09175088 -0.029482026
000180 b7 d0 07 3e 27 1e 6a bc 51 9b bd 3d 1a 5d d3 3c
       0.13263212 -0.014289415 0.0925814 0.02580123
000190 06 1e a4 3d 1f fb 6a 3c 3c 1a 06 be 09 51 f2 3a
       0.08013539 0.0143420985 -0.13095945 0.0018487285
0001a0 9b 5b 32 3e 84 b3 c1 3d fb 06 40 3d 63 ce 5f bd
       0.17417757 0.09458068 0.046881657 -0.054640185
0001b0 dd c6 1a be 35 2c e8 bd 28 06 9e 3e 8d 2e 7f bc
       -0.15114923 -0.11336557 0.30864072 -0.015575063
0001c0 83 9d c0 3d 1d 9b dd bc 7c fd a9 bd 37 81 a2 bc
       0.09405043 -0.027051503 -0.083003014 -0.019837005
0001d0 64 8f 9b 3d e9 e6 97 bb 61 ff 89 3c cb b2 de ba
       0.07595709 -0.004635681 0.016845407 -0.001699054
0001e0 ad 2e 6d 3d 8a 35 eb 3b f1 af e3 bc 3b d7 37 3e
       0.05790584 0.007178013 -0.027793856 0.17953198
0001f0 ec 73 89 3e 74 cd 3e bc db d7 b2 3d 06 c3 2e 3e
       0.26846254 -0.0116456635 0.087325774 0.17066583

network_body.linear_encoder.seq_layers.0.weight f4 [128, 9]
000000 a1 47 37 3f b7 c9 08 bf a5 da bb 3e b5 22 c8 3e
       0.7159367 -0.5343279 0.3669025 0.3908898
000010 67 d0 57 3e 5d f3 b3 bd 4a c1 ca 3a 0d e6 02 3f
       0.21075593 -0.08786652 0.0015468982 0.5113228
000020 a0 90 a2 bd fd dd 03 3f cf 25 93 3e 11 3b 22 3d
       -0.07937741 0.515106 0.28739783 0.03960711
000030 34 f7 95 be ac e4 07 be a0 1e 9e bd b5 73 27 3f
       -0.29290164 -0.13270825 -0.07720685 0.6541093
000040 b9 98 d2 3d bc d2 15 be 4f c8 51 3f 18 02 fd be
       0.10283036 -0.1463117 0.8194627 -0.4941566
000050 c8 62 e5 be a2 01 8c be 7f d5 23 be 8e c5 5c bf
       -0.44801927 -0.27344996 -0.15999411 -0.86238945
000060 71 aa 46 bd 2a 0a cc 3e af af 2e 3e 59 33 25 bf
       -0.04850239 0.39851505 0.17059205 -0.64531475
000070 05 2b 99 3e f0 ee 70 bd 12 e2 1a bf 7f 8d 82 3c
       0.29915634 -0.05882162 -0.60501206 0.015936611
000080 08 27 e5 3d a3 87 f8 3e 09 db 7e be 99 b1 66 bf
       0.11189085 0.48540983 -0.24888243 -0.9011474
000090 09 22 9a be 8e b1 c6 be c9 f1 96 3e a1 07 c9 bd
       -0.30104092 -0.38807338 0.29481342 -0.09815908
0000a0 94 96 f1 be 9f e6 63 3d a0 9e 96 be 88 d5 07 3f
       -0.47185194 0.05563986 -0.29417896 0.530602
0000b0 17 a3 f7 3e 3c 05 a9 be 7d 82 38 be fb f7 bd 3d
       0.48366615 -0.33011806 -0.18018527 0.09275814
0000c0 af 07 f3 3e b0 83 80 be 5f 0a d4 bd b2 ff fc 3e
       0.474668 -0.2510047 -0.10353541 0.4941383
0000d0 9a c9 46 be fc a4 05 3f 82 52 ca be 94 17 a8 3e
       -0.19412842 0.5220487 -0.39516073 0.3283049
0000e0 be f5 07 3f f5 dc b9 3d ca 24 44 3d 10 47 e7 3c
       0.5310935 0.09075347 0.047886647 0.028232127
0000f0 27 be c8 3e 72 72 0d be cd 99 26 3f 94 1e 8c 3e
       0.39207575 -0.13813189 0.6507843 0.2736708
000100 f7 dd a4 be ad 12 fb 3e 33 d0 ea be 84 3b 9b be
       -0.32200596 0.49037686 -0.45861968 -0.30318844
000110 b4 ea 09 bc d7 09 0d bf 7f 36 91 be 1a d0 21 3f
       -0.008417774 -0.5509314 -0.2836189 0.6320816
000120 c1 66 84 bd 72 08 24 3e 55 af 05 be 8c 38 1e be
       -0.06464911 0.16018847 -0.13055165 -0.15451258
000130 68 df c0 be 95 63 2e bf ea 74 21 be ea f1 a9 be
       -0.37670445 -0.681207 -0.15767255 -0.33192378
000140 41 74 00 bf 1d e0 fd 3e 14 b6 7e 3e 78 62 03 3f
       -0.5017739 0.49585047 0.24874145 0.51322126
000150 99 47 f4 be 63 60 3f be 6e 7b 44 3e d2 aa 6f 3e
       -0.47710875 -0.18689112 0.1918771 0.23405007
000160 4f 3f 8d be 22 b3 93 3e fe a4 0a 3f 50 28 14 3f
       -0.27587363 0.28847605 0.5415801 0.5787401
000170 5a b5 1f be 2f 65 fc bc ad fe 8a 3e c3 b8 af 3e
       -0.15596524 -0.030809967 0.27147427 0.3432065
000180 22 ec a9 be 8f 97 5e be 56 8f fc bd 5d ec d5 3e
       -0.33187968 -0.21737503 -0.12332027 0.41781893
000190 67 94 aa 3e 45 33 b7 be ec d8 30 3e fc c4 e6 3d
       0.33316347 -0.35781303 0.17270249 0.112680405
0001a0 b3 70 47 3f 0b c6 b3 be a9 79 34 3f 71 28 a1 bb
       0.7790634 -0.35112032 0.7049814 -0.004918151
0001b0 0d 12 34 bd 15 f1 c1 3d 54 62 1d be 92 e9 0c 3f
       -0.043962527 0.09469811 -0.1536954 0.550439
0001c0 3b fe 1c be 1f f1 84 3e 81 31 42 be e4 cf f4 be
       -0.15331356 0.2596521 -0.18964197 -0.47814858
0001d0 8d 52 f2 be 7d 89 e4 bb 10 cb 35 be d4 dd a8 be
       -0.47328606 -0.0069743977 -0.17753243 -0.3298174
0001e0 80 0f d3 3d f7 8d b8 3e e8 13 7d bf b0 22 8b 3e
       0.10305691 0.3604581 -0.988585 0.27174902
0001f0 21 bc b5 bc 99 77 8d bb 74 21 05 bf fa aa 72 bd
       -0.022184433 -0.0043172357 -0.5200417 -0.059245087
000200 df 2a fa be 03 bf d2 3e 80 37 86 be a0 69 12 bf
       -0.48860833 0.41161355 -0.26214218 -0.5719242
000210 85 1b 11 bf d3 08 5c bf 71 1d f8 ba 2e 74 95 3e
       -0.56682616 -0.85950965 -0.0018929673 0.291902
000220 0a bc d4 3e a4 b8 61 3f dc c0 56 3f e5 d8 df be
       0.41549712 0.88172364 0.8388803 -0.43720165
000230 1f 35 48 be 2d 14 5c be ed b8 50 3e 94 80 aa be
       -0.19551514 -0.21492071 0.20383044 -0.33301222
000240 2e fc b1 3d c5 0e 11 bf e8 64 50 3e aa 14 bf 3e
       0.086906776 -0.5666316 0.20350993 0.37320453
000250 3f 2e d5 3e 59 bc 59 bd 39 80 33 3e 01 f1 57 bf
       0.41636845 -0.053158138 0.17529382 -0.8435212
000260 72 1a 2e 3c 6f b4 fa bd 03 5c 90 bd a2 35 ed be
       0.010626422 -0.12241446 -0.070488 -0.4632998
000270 20 54 09 bf 3d cc 09 3f 0a 7e a1 3d a6 f0 dd be
       -0.5364399 0.5382727 0.07885368 -0.43347663
000280 8e 88 a1 bb a1 29 8f be e8 8d cc be ef 64 05 be
       -0.0049296087 -0.27961448 -0.39952016 -0.13026784
000290 e2 fd b8 3e e4 f6 7c be 44 e0 39 bd 65 7c c4 be
       0.36131197 -0.24703556 -0.045379892 -0.38376155
0002a0 b5 f4 97 be 8b e0 bc 3e 53 3f ed be 1f 4f 9d 3e
       -0.29678884 0.36890063 -0.46337375 0.30724427
0002b0 eb ab d1 3d 50 85 e3 bd b6 c4 ba be 59 b3 ef bd
       0.10237869 -0.11109412 -0.36478204 -0.1170413
0002c0 26 fa ca be ef 0e 20 be 01 9e c6 be f9 e7 ac be
       -0.39643973 -0.15630697 -0.38792422 -0.3377073
0002d0 0f 56 86 bd 16 d9 bf 3d 71 67 c3 3d db 35 18 3f
       -0.06559383 0.09367578 0.09541214 0.59457177
0002e0 60 98 55 be 42 07 f2 bd 96 b1 29 be af 85 0c 3f
       -0.20858908 -0.118177906 -0.1657165 0.54891485
0002f0 78 27 53 be 9f 73 0c bf c4 4c fd bd 57 5e ae be
       -0.20620525 -0.54863924 -0.123681575 -0.3405635
000300 29 9b 44 3e c9 ad 00 be 15 24 07 3e 80 52 39 3f
       0.19199814 -0.12566294 0.13197358 0.7239151
000310 e7 fa 09 bd 7a 44 a1 be 5d 6b b5 be 57 56 1c 3e
       -0.033686545 -0.31497556 -0.35433474 0.15267311
000320 ef 28 2c bf 0d c0 4c be 53 4f 41 3e d4 ab cb bd
       -0.6724996 -0.19995137 0.18877916 -0.09944883
000330 5e 91 95 3e b4 63 8a 3e ff a2 49 3e 11 b4 dd 3e
       0.2921247 0.27029192 0.19691084 0.43301442
000340 10 4a 73 ba 57 fe 76 be 79 ea 65 be 56 94 0c 3e
       -0.00092807505 -0.2412046 -0.22452725 0.1372846
000350 1a f8 39 bd ae ae 06 bf da a5 11 be 80 b3 2d 3e
       -0.045402624 -0.5261029 -0.14223424 0.16963005
000360 f2 84 14 3e db 2c f6 3e 1b 2e 9e be 3c f1 28 3e
       0.1450384 0.48081097 -0.3089455 0.16498274
000370 53 42 f8 3c a6 80 72 3d 76 75 36 bd 29 c0 ec 3e
       0.030305063 0.05920472 -0.044545613 0.46240357
000380 25 de 2b bf fd 59 58 3e 82 79 06 3e 9c 8e ad 3e
       -0.6713584 0.21128078 0.13132289 0.33897865
000390 89 dd c6 3d 80 99 fd bd c2 01 84 3e 56 39 f7 be
       0.09710223 -0.123827934 0.2578259 -0.4828593
0003a0 73 3c f3 be a9 e6 44 3e 9d 8f 0c 3f 79 ff 1a 3f
       -0.47507057 0.19228615 0.54906636 0.6054607
0003b0 ce d5 d9 be 04 cf cd 3e dc 22 0c be 04 66 e6 bd
       -0.42545933 0.40197003 -0.13685173 -0.11249927
0003c0 31 05 a3 be 6d c7 17 3e bc cb bd be 1e 4f de bc
       -0.31839898 0.14822169 -0.370695 -0.027137335
0003d0 b2 71 c6 3e 9e 81 67 3e 40 7f f5 3b c0 52 54 bd
       0.38758618 0.22608039 0.007491976 -0.05183673
0003e0 76 63 9b 3e a8 ce 2a be bb 90 d7 be d3 c2 3a 3f
       0.3034932 -0.16680396 -0.42102608 0.7295353
0003f0 c5 5c 3c be fb f5 33 3e e8 ea ac 3e eb 6d 54 bf
       -0.18394764 0.17574303 0.3377297 -0.8298022

network_body.linear_encoder.seq_layers.2.bias f4 [128]
000000 92 0d b9 3d eb df 67 3e 07 86 8e bd 63 f6 85 bc
       0.090357915 0.22644012 -0.069591574 -0.016352838
000010 c4 64 f6 bd 31 5a a9 bb 42 fa b8 3d 42 20 ba bd
       -0.12030938 -0.0051682224 0.09032108 -0.09088184
000020 cf 29 6f bd 38 c5 09 bb b5 ec ad bd 9d b4 57 bd
       -0.05838948 -0.0021022093 -0.08492414 -0.05266248
000030 30 6c 3e bd 8a 7f 37 ba ac ba 97 3d 01 07 0b bd
       -0.046489894 -0.0006999901 0.07408652 -0.033942226
000040 6b c1 0d 3e d6 be 95 3d fa 42 53 3d 58 18 09 be
       0.13843314 0.0731179 0.051577546 -0.13388193
000050 d3 ef fa bd d0 74 59 bd 65 6f 57 bc 93 3c 33 bd
       -0.12252774 -0.053089917 -0.013149117 -0.04375894
000060 74 23 c8 bd 68 f9 8d bd 1d 23 1e be 51 79 0d bd
       -0.09772387 -0.06932336 -0.15443082 -0.034539524
000070 90 7e 95 3e e6 5e 9a 3d 01 e8 dd bc 01 ad 8e bd
       0.29198122 0.07537632 -0.027088167 -0.069665916
000080 fe a7 d7 3d 66 87 93 bd ce c5 ce bd 1a e6 03 be
       0.10530089 -0.072035596 -0.10096322 -0.12880746
000090 5b 2a 2c 3e b9 37 d2 bd 2a 52 63 bd dd 46 01 be
       0.16813032 -0.102645345 -0.05549828 -0.12624688
0000a0 07 6f 5c bd 40 5e 9a bc 20 04 49 3d bb b4 85 bd
       -0.05381682 -0.01884377 0.0490762 -0.06528612
0000b0 61 8e bc 3c a5 12 bf bd 11 36 e1 3d 2d 66 d5 3d
       0.02301711 -0.09329728 0.109966405 0.10419879
0000c0 35 16 fe 3d bd f9 b0 bc ef 3f af bd 59 6e 54 3e
       0.124065794 -0.02160346 -0.08557116 0.2074522
0000d0 97 a3 5b 3e ca bb 22 3e de 3f b6 3d 09 0c 08 bd
       0.21449123 0.15891948 0.088989004 -0.033214603
0000e0 75 6b c5 bd 20 0d a3 bc 9d d4 45 bd fd d6 f9 3b
       -0.096396364 -0.01990372 -0.048298467 0.0076245056
0000f0 2a 2b 62 3d b4 ba 91 3d 46 e9 20 3d ca 00 78 bd
       0.055216946 0.07115689 0.039284967 -0.060547628
000100 b3 65 1b bc 25 98 91 bd 11 5a 77 3d 79 47 28 bd
       -0.009484696 -0.071090974 0.06038863 -0.041083787
000110 3d ee 17 3e 84 41 f4 bd 75 4a 50 3d ff 80 cf bd
       0.14836974 -0.119265586 0.050852258 -0.10132026
000120 04 f7 c5 bc 79 83 3a 3e 8a 22 30 bd d8 21 4f 3d
       -0.024165638 0.18214215 -0.04300169 0.050569385
000130 72 57 22 be e4 68 2d 3e b5 8c 2d 3d ba bb a8 bd
       -0.1585367 0.16934544 0.042370517 -0.08238931
000140 cc 9a e8 bd 82 91 2b bd ae e3 bd bd d8 26 16 bc
       -0.1135765 -0.041886814 -0.09271942 -0.0091645345
000150 14 58 99 3d 68 14 21 3b 4a 19 05 bb 95 76 26 3e
       0.07487503 0.0024578813 -0.0020309263 0.16256173
000160 58 91 b3 bd 47 e3 7a 3d fe 71 7b bd 90 34 f8 bc
       -0.087679565 0.061251905 -0.06138801 -0.030298501
000170 2f 7a a3 bd 8d 63 13 be 4a 3e eb bd 1f 19 72 bd
       -0.07982289 -0.14393444 -0.1148649 -0.05910599
000180 09 c4 c8 3d 51 14 a6 3d 6e 74 b2 bd 33 92 a3 3d
       0.09803016 0.08109344 -0.087136135 0.0798687
000190 9a 39 97 bd 5c 54 9c 3d 85 9b ef bd 33 e7 c1 3d
       -0.073840335 0.07633278 -0.11699585 0.09467926
0001a0 2b 65 bf bd bf 52 0f bd 88 bf 0f be 92 cb af 3d
       -0.09345468 -0.034991022 -0.14037907 0.0858375
0001b0 9a 7d 4c bd 89 f0 21 be 8b 9a 52 3d fd 79 66 bd
       -0.04992447 -0.15814413 0.051416915 -0.05626868
0001c0 81 b1 d1 bd 5a 0f 9c bc ac b5 b2 3c b5 98 64 bd
       -0.10238934 -0.019050289 0.021815144 -0.055809695
0001d0 1c b2 52 3e 64 36 95 bb f1 4a 30 be 5c a3 41 3d
       0.20575756 -0.004553603 -0.17216088 0.047274932
0001e0 71 93 0e 3e 04 41 d3 bc 73 c2 01 3e 4f 41 81 3c
       0.13923432 -0.025787838 0.12671833 0.015778212
0001f0 6b 1b 88 3b 48 e0 52 3c bf 2c e4 bc 99 5b 23 be
       0.004153659 0.012870856 -0.027853368 -0.1595291

network_body.linear_encoder.seq_layers.2.weight f4 [128, 128]
000000 5a 92 3d 3d 4e b8 4b 3e bc c5 21 3e 7e 9a dc bd
       0.04628215 0.19894525 0.15798086 -0.107716545
000010 ab 2e 68 bd 51 d3 ab bd d6 21 53 be 93 78 d5 3d
       -0.05668513 -0.08389915 -0.20618376 0.10423388
000020 bd 9b b3 bd c9 46 da 3d 77 21 e6 3d c8 85 fc 3c
       -0.08769939 0.106580324 0.11236852 0.03082551
000030 41 f3 a6 bd cd 37 ce bd 0e fe a8 bd 25 7a 9f bc
       -0.08151866 -0.10069237 -0.08251582 -0.019467423
000040 83 fe aa bd f8 7a 49 3d c5 b2 cd 3b c6 d4 01 3e
       -0.083493255 0.049189538 0.0062774145 0.12678823
000050 f3 31 a7 bd 2a 51 1a 3e f6 07 e9 bd be 9a 14 3d
       -0.08163824 0.15070024 -0.113784716 0.036280386
000060 75 b6 6a bb c7 64 41 bb 16 ac 13 3e 63 7b 46 bd
       -0.003581432 -0.002950953 0.14421114 -0.048457514
000070 0e 67 dc 3d 7e 8c 3c bb af 18 0e 3e d6 e3 a8 bd
       0.107618436 -0.0028770263 0.13876604 -0.08246581
000080 e1 20 57 3e ab ba b8 3d 79 25 7a bc 6c 6c e3 bd
       0.21008636 0.09019979 -0.015267723 -0.11104664
000090 f5 36 97 3c f7 ca c3 bd 5d 93 2c bd c6 2b 25 bd
       0.018458823 -0.09560197 -0.042132724 -0.04032495
0000a0 33 4b 1d be 88 c6 60 bd 06 8e 76 3d 7b 94 39 be
       -0.15360717 -0.054876834 0.060194038 -0.18123047
0000b0 ec 8b 41 bd 5d 07 8d bc a1 97 d4 bb c4 69 2a bd
       -0.04725258 -0.017215425 -0.006487802 -0.041604772
0000c0 3f 4f d0 bc 0c 48 dc 3d a3 1b 52 bc 8d dc 29 3e
       -0.025428412 0.10755929 -0.012823972 0.1658804
0000d0 7d bc 2d 3e 4d 4a b0 3c 26 d4 ec bd ae ca 23 3e
       0.16966434 0.021519804 -0.115639016 0.15995285
0000e0 c7 f3 1e be de ac e7 3b aa b2 07 be 07 40 fb bd
       -0.15522681 0.007070168 -0.13251749 -0.122680716
0000f0 a8 6c 15 bd 82 72 8f bd 37 58 fc 3c 10 64 48 3e
       -0.036480576 -0.070042625 0.030803783 0.19569421
000100 cb e7 77 3c aa a3 ac bd 57 2a 0c be 7d e5 3c bd
       0.015130947 -0.08429654 -0.13688026 -0.046117295
000110 05 7a 0b 3d 9b 0c 62 bc dc 10 31 3d 84 8e 74 bd
       0.034051914 -0.013796951 0.04322897 -0.059706226
000120 42 26 ab 3d cf e9 fb bd dd 08 cd bd 13 63 96 3d
       0.083569065 -0.12300455 -0.10011456 0.07343116
000130 ad 2b 14 bd 86 8b 12 be 2e a4 db bc 18 fc f2 bd
       -0.036174465 -0.14311036 -0.026811685 -0.11864489
000140 b2 08 1c be 9f cd 4b bc 48 49 9a bc 0a b7 5e 3e
       -0.15237692 -0.012439161 -0.018833771 0.21749511
000150 28 c0 42 3d 84 df 09 be bb 90 91 bd 2a 72 6e bd
       0.047546536 -0.1346417 -0.07107683 -0.058214344
000160 5c 7e 1a be c5 e9 8e bd 0e 60 19 be 3b 8e 01 3d
       -0.15087265 -0.06978182 -0.14978048 0.031629782
000170 7b c0 95 3d 8e 48 1d bd 4c b9 43 bd 87 41 d1 3d
       0.07312103 -0.03839927 -0.047784135 0.102175765
000180 27 ec 8a bd 5a dc 13 bb 77 39 a3 3d 27 2e 4f bd
       -0.06783324 -0.002256176 0.07969945 -0.050581124
000190 b0 67 ba 3c 5f 30 27 3e ea eb ca 3c 4a 1a f3 3d
       0.02275452 0.16327046 0.024770696 0.118702486
0001a0 b2 0a 13 be d5 b1 a6 3c 6a eb 9e 3b d2 64 e1 3c
       -0.14359549 0.020348469 0.004849841 0.027513895
0001b0 23 cb 2f bd 64 7c 85 be 09 fb 36 3e 19 9e 0f bc
       -0.042918336 -0.26071465 0.178692 -0.008765721
0001c0 b3 aa e2 3d 63 42 dc bc 32 d0 ac bb 2c 72 3d 3e
       0.110677145 -0.026887124 -0.0052738423 0.18500584
0001d0 70 ad d3 3c 1f 1e fd 3d ce 3e 10 3e 52 05 67 3d
       0.025839537 0.12359261 0.14086458 0.05640156
0001e0 e5 33 5e bc 86 6c a5 3d c5 b4 0d 3d a2 2a 61 3e
       -0.013562177 0.0807734 0.034596223 0.2198892
0001f0 93 03 28 3e d3 07 44 be 9b 4b 9d 3c 45 b5 9e bc
       0.16407613 -0.1914361 0.01920109 -0.019373545
000200 12 36 72 bd 4b f3 0b 3e e6 5e f6 bd 28 e9 a1 3d
       -0.059133597 0.13667028 -0.12029819 0.07905799
000210 2e fe 36 3a 04 a5 cd bd 10 3d e3 bc d7 41 79 bd
       0.0006980625 -0.1004124 -0.027739078 -0.060853805
000220 b8 93 35 be ab 31 ca 3d 1a 29 18 bc b7 1e b3 bd
       -0.17732131 0.09872755 -0.009287143 -0.08746093
000230 18 bd de bd c2 cb 9c bd e0 f6 b0 3c 94 a9 cb 3d
       -0.108759105 -0.07656051 0.021602094 0.09944454
000240 e2 27 e6 3d 5f 72 93 be ff 9f b2 3d 5d 2d a3 bd
       0.11238076 -0.28798196 0.08721923 -0.07967637
000250 1a e1 bf bd e8 2f 8c 3d d2 43 57 3d 9f 1c 51 be
       -0.093691066 0.06845075 0.052554913 -0.20421074
000260 af bb 97 bd c6 cd 96 bd ec 6d 00 3e b0 2b e5 bd
       -0.07408845 -0.07363467 0.12541932 -0.11189973
000270 19 e9 f9 3d 69 d0 24 bd 8c 1a e6 bc 38 59 de 3d
       0.12202663 -0.040237818 -0.02808883 0.10856861
000280 66 4b fa bc 07 7b 4b 3d 31 5a b0 3b 91 0e 6f 3d
       -0.03055353 0.049677875 0.0053818454 0.0583635
000290 83 eb e0 bd 2f 0e d0 bd d1 9b 4b bc c2 7a 29 be
       -0.1098242 -0.10158955 -0.012427286 -0.16550735
0002a0 12 93 a5 bd c6 34 7b bc fa 8f b4 bb 4b 4b 33 3e
       -0.08084692 -0.015332406 -0.0055103274 0.1750919
0002b0 df d2 6d be 80 4f 87 3d b2 74 f6 3b 25 ea c9 3d
       -0.23224972 0.0660696 0.0075212354 0.09859113
0002c0 64 32 2f bd 11 8a 8d 3d 1a de 7d be 82 a3 25 3d
       -0.042772666 0.069111 -0.24791756 0.040439136
0002d0 e9 9a 74 3e 44 51 e0 3c 09 24 70 bd 13 11 0e bc
       0.23887219 0.0273825 -0.058628116 -0.008671063
0002e0 0a 1c b1 3c 78 26 78 3d a6 80 b2 bd 2d 8d ba bd
       0.021619815 0.06058356 -0.08715944 -0.091089584
0002f0 88 d9 c1 3d f9 79 6b bd cd 71 0d 3e 75 cb 9c 3d
       0.09465319 -0.05748937 0.13812943 0.07655994
000300 8a 8a 65 be 44 15 c8 3d d1 be de bd 60 61 96 bd
       -0.2241613 0.09769681 -0.10876239 -0.073427916
000310 89 01 0a be bc 4e 02 3e 73 66 a8 3d c2 7e 0c 3c
       -0.13477148 0.12725347 0.08222666 0.008575143
000320 33 62 5d be 32 7d 1f bd a5 db 59 bd f7 9a 28 be
       -0.21619491 -0.038937755 -0.053187985 -0.16465364
000330 98 55 2b bd c7 1e 4f bd c6 a4 26 3e af a9 4d bb
       -0.041829675 -0.05056646 0.16273794 -0.0031381657
000340 9d 9a ad bd 0c 68 f2 bc 72 ce 5c 3d 24 78 07 be
       -0.08476756 -0.029590629 0.05390782 -0.13229424
000350 b9 1e ff 3d b6 e9 4d bd fb 6d 92 be ee 85 04 bc
       0.12457032 -0.050271712 -0.28599533 -0.008088572
000360 21 97 d4 3d d0 04 c9 bd e0 9c ca 3c 34 e1 45 3d
       0.10380388 -0.09815371 0.024733007 0.048310474
000370 e6 55 ac 3d 59 84 2c 3d 13 9f 94 bd 03 5b 68 ba
       0.08414821 0.042118404 -0.072569035 -0.00088636595
000380 a1 02 02 bd bc 93 3b be 1c 8a 1f 3d f9 1a e7 bd
       -0.03174079 -0.18318075 0.03895007 -0.112844415
000390 0c 7f 13 3c 49 b6 28 bd 5a ff cf bd 84 c3 73 3d
       0.009002458 -0.041189466 -0.10156126 0.05951263
0003a0 87 45 92 bd 7c 85 dc bb dc 1b 20 bd f8 92 40 be
       -0.071421675 -0.0067297798 -0.03908907 -0.18806064
0003b0 14 c7 b7 be cd ae 78 3c a2 60 28 3e 84 66 91 b9
       -0.35894072 0.0151783945 0.16443112 -0.00027732935
0003c0 0c 06 e3 bd a6 bb 59 3c 9e 7f 93 3b 58 51 29 be
       -0.11085138 0.013289368 0.004501297 -0.16534936
0003d0 80 6b d4 bc 9a 1c 0c 3d db f1 de 3c df 8d ae bd
       -0.025930166 0.034206964 0.027214935 -0.085231535
0003e0 7e 4d f8 3d ff 2c 1a 3d ac 78 fc bd 65 fc 0a 3e
       0.121241555 0.037640568 -0.12327704 0.13572843
0003f0 ff 1d 39 3e 6c 96 a9 bb 9c 79 03 3c fb 84 9b 3e
       0.18077849 -0.0051754024 0.008024599 0.30374894

network_body.linear_encoder.seq_layers.4.bias f4 [128]
000000 05 1e 4f 3d 62 8b 2c 3e d4 39 15 be 53 74 2f 3d
       0.05056574 0.16850045 -0.14572841 0.042835545
000010 ed a7 9c 3d 07 0f b6 bd 5b aa a2 bd 66 7f da 3d
       0.07649217 -0.08889585 -0.07942649 0.106688306
000020 83 93 c9 3d 4d 14 dd bc f9 a9 cb bd f7 27 63 b9
       0.09842589 -0.02698722 -0.09944529 -0.00021663295
000030 6c 87 ba 3d ae 81 b5 bd 4b 0d e5 bd 0e 6e e7 bc
       0.09107861 -0.08862625 -0.11184176 -0.02825072
000040 39 45 03 3d a0 14 c7 bd 8c 62 5d bc 5d d1 ad bb
       0.032048438 -0.09720731 -0.013512265 -0.005304499
000050 b8 99 2d 3e 59 33 84 bd e7 72 15 be 70 43 35 3d
       0.1695317 -0.06455106 -0.14594613 0.044253767
000060 c3 8f c9 bd c4 71 85 3c 93 24 c4 3d ce d9 88 3e
       -0.098418735 0.0162896 0.095772885 0.26728672
000070 04 08 f1 bc 00 99 3a bd 76 e9 84 bb f0 f6 a6 bd
       -0.029422767 -0.04555607 -0.004056151 -0.08152568
000080 46 cc d5 bd d0 ab 0d 3e 41 be bf 3d bf 87 88 3d
       -0.10439353 0.13835073 0.0936246 0.066665165
000090 28 fd d1 bd d5 14 95 bb f0 9f 9e bc 99 35 55 bd
       -0.10253364 -0.0045496025 -0.019363374 -0.052053068
0000a0 12 09 0c 3d 70 76 fc bd 72 f3 8e 3d 75 03 ca 3c
       0.034188338 -0.12327278 0.06980027 0.024659852
0000b0 12 36 22 3e 87 11 97 3d fb 33 ca 3d 50 1f 14 3d
       0.15840939 0.0737639 0.09873196 0.036162674
0000c0 15 c8 ef bd cf 05 01 3e 74 d7 b1 bc f1 7b a2 3d
       -0.117080845 0.12599872 -0.021709181 0.07933796
0000d0 19 55 b5 bd bb 4e 6f 3d 0a 2d 15 bd e7 f3 98 3d
       -0.08854122 0.058424693 -0.036419906 0.07468396
0000e0 ab ec f2 bd 8c 80 7d 3d 93 57 3c 3d a1 90 f0 3b
       -0.11861547 0.06189017 0.045981955 0.00734146
0000f0 1c 03 19 bd 4d 00 cb bd 7e 18 9d 3d 8f a2 07 3d
       -0.03735648 -0.09912167 0.07670687 0.033114012
000100 47 9b 46 3c f2 e2 bc bd aa 83 b7 bd 23 3d d2 3d
       0.012121982 -0.09222974 -0.0896066 0.10265567
000110 46 89 ff bd f1 ca 4c bd 75 3f a7 3d 1c e4 15 bd
       -0.12477355 -0.049998228 0.081664 -0.036594495
000120 db 9f d6 3c 48 9c 19 3e eb 70 86 3c b4 44 1e bd
       0.026199272 0.15001023 0.016411265 -0.03863974
000130 d4 d7 04 3e e7 cf 9c bd a5 2b a8 bd 60 94 82 3b
       0.12972957 -0.07656842 -0.082114495 0.003984973
000140 a7 ff 34 3e 6c fb 4c bd b7 b6 ab bd b8 28 c0 3d
       0.17675649 -0.050044462 -0.083844595 0.093827665
000150 a8 6b 58 bd be ec 97 3d a4 10 6e 3d 5c 21 f5 bd
       -0.052837044 0.07418202 0.05812134 -0.119692534
000160 a8 23 f8 3d 4d 38 c4 bc 1e 91 01 3e ee 8d f1 bc
       0.12116176 -0.023952628 0.12653014 -0.029486623
000170 e4 51 26 3d 13 d4 8e bd ae cd 8b 3e 3e 9d c6 bd
       0.04060544 -0.06974044 0.2730536 -0.0969796
000180 bd 72 44 3e 2f 4e 8d 3d 9d ba 59 3c fa e7 40 bc
       0.19184394 0.06899678 0.013289121 -0.0117740575
000190 94 fe 0c 3e 0a ef 41 bd d0 2a b1 3d 95 94 20 3d
       0.13768989 -0.047347106 0.08650744 0.0392042
0001a0 eb 03 e9 3d 89 e9 1d 3d a0 46 e7 bd c3 a3 ed 3d
       0.113777004 0.038552795 -0.112927675 0.11603501
0001b0 09 98 9c bd 0f 7c ee bd a7 9e ac 3d e7 c4 02 be
       -0.07646186 -0.11644756 0.08428698 -0.12770425
0001c0 5d 3f 57 bd e5 b7 cc bd 84 a7 64 3d 3f 53 ff bb
       -0.052550662 -0.099960126 0.055823818 -0.007791906
0001d0 01 21 9e 3d 41 cb e8 3d 9d 50 ea 3d 56 90 e1 bd
       0.07721139 0.113668926 0.11441157 -0.11013858
0001e0 5c 02 53 bd f7 73 96 bc 23 0e 0f 3c d8 a1 1f 3d
       -0.051515922 -0.018365843 0.008731398 0.038972706
0001f0 0f a3 a1 bc 0c c7 54 bd 30 c3 59 3d 7d 9e cb bd
       -0.019731073 -0.05194764 0.05316466 -0.099423386

network_body.linear_encoder.seq_layers.4.weight f4 [128, 128]
000000 81 9c 0e be c5 61 24 3d a8 e5 1b be d2 d7 3a 3c
       -0.13926889 0.040132303 -0.15224326 0.011403995
000010 e4 6d 13 3d b3 f8 0b 3d 9b 37 99 3d d1 5e b4 bd
       0.03599347 0.034172725 0.07481309 -0.08807147
000020 89 4a a5 bb 4b 1a 45 be e4 3d 41 bd 5b 79 de bd
       -0.0050442857 -0.19248311 -0.047178164 -0.108629905
000030 ce 8e 7e 3e 2a 96 d8 3c d5 c3 1a 3e 2e 76 bb be
       0.24859163 0.026438791 0.15113766 -0.366136
000040 f5 88 bd 3d b8 8d 9c 3d 2a a6 36 be be 2e 04 3d
       0.09254638 0.07644218 -0.17836824 0.03227114
000050 6e 3a f2 ba cd ef 29 bd 31 ba 04 3d 9d fa dd bd
       -0.0018480548 -0.041488457 0.03240413 -0.10838816
000060 78 eb 4d 3d 7d 49 31 be 4d a9 45 3c 49 96 15 bd
       0.05027339 -0.1731319 0.01206429 -0.036520276
000070 02 93 75 3c 15 14 a8 bd b1 bd 8a be 55 1f c2 3d
       0.014988663 -0.08206955 -0.27097848 0.09478632
000080 f0 d9 d7 3c 3b 71 24 bc 34 33 39 3d c0 94 25 3e
       0.026349038 -0.010036762 0.045214847 0.16170025
000090 0d 43 f0 bc 46 85 af 3d 03 96 5c 3c 87 37 17 bd
       -0.029328847 0.08570342 0.0134635 -0.03691819
0000a0 9c 33 8f be 2a 0f 8d bd d6 b1 ab 3e 9a 4a e4 bd
       -0.27969062 -0.06887658 0.33534116 -0.111470416
0000b0 24 26 ea bd 90 eb 27 bd df c9 ec bc ed 30 92 3d
       -0.11433056 -0.040996134 -0.028904853 0.07138238
0000c0 97 13 84 3e cb 26 2a 3e ff db 1d 3e cb fb 1e 3d
       0.25796196 0.16616361 0.15415953 0.038814347
0000d0 9d 67 23 bd 7b 3a 4a 3e 9d 87 35 bd d1 b4 08 bd
       -0.039893735 0.19748871 -0.044318784 -0.033375565
0000e0 63 fb 2c be a3 f8 50 3e 26 cf 3c be a3 09 aa be
       -0.16892771 0.20407347 -0.18438396 -0.33210477
0000f0 f4 9c 78 3e 83 5b d9 bd 6e 48 af bd 62 78 22 be
       0.24278623 -0.106131576 -0.08558737 -0.15866235
000100 22 85 26 be 6b 12 27 bd 51 29 53 3e d2 14 e2 3c
       -0.16261724 -0.04078905 0.2062123 0.027597819
000110 c6 1a 0c 3e ed a0 0d bd e1 97 a1 3b 14 7f c1 3d
       0.13682088 -0.0345773 0.0049314355 0.09448066
000120 7a 04 26 be 77 a2 99 3d ca e9 06 be dd c4 42 3e
       -0.16212645 0.07501691 -0.13175121 0.1902041
000130 d7 57 27 bc 25 6d 60 3d b9 75 bf 3d 8d 53 82 3c
       -0.010213814 0.05479159 0.09348626 0.01590898
000140 ff f4 8c be 4c 9b ba bc 35 28 79 bd 50 83 72 3e
       -0.27530667 -0.02277913 -0.06082936 0.23682904
000150 f4 fc cb bc 31 d5 48 be 67 d4 b1 bd 64 6a 0a be
       -0.02490089 -0.19612576 -0.08683091 -0.13517147
000160 a9 c4 19 3b 3b a9 29 bd 0c 79 a8 be be b1 88 3d
       0.0023463166 -0.041421156 -0.3290485 0.06674527
000170 75 96 2c be 72 6b 5a 3a 9c 0c 2e be 97 33 80 3d
       -0.1685427 0.00083320506 -0.16996998 0.0625984
000180 c6 4f 60 be b2 1e 05 3d 47 4d 95 bc e3 d3 33 bd
       -0.21905431 0.032499976 -0.018225325 -0.043903243
000190 99 62 9f 3d a7 b3 cd bd 6c 91 0d be bc 02 a4 3d
       0.07782478 -0.100440316 -0.13825005 0.08008334
0001a0 e1 54 44 be a9 44 a4 3d ea a3 a9 bd c2 ed 60 3e
       -0.19173004 0.080209084 -0.08283217 0.21965697
0001b0 ae 38 f1 3d 95 e0 2b be 49 ef f6 bd c0 bf c4 3c
       0.11778389 -0.1678489 -0.12057359 0.024017215
0001c0 22 c6 f0 bd bc ec ca 3d df 04 ce bd b6 f5 6d bd
       -0.11756541 0.09908435 -0.10059523 -0.058095656
0001d0 62 0a b5 bc 4e 96 b2 3d 00 5b cc 3c db 4a 0b 3d
       -0.022099677 0.087200746 0.024945736 0.034006935
0001e0 8a 1f f3 3d 6b 4f 36 bc 18 22 ce 3d db 9f 54 3e
       0.1187125 -0.011127333 0.100650966 0.20764105
0001f0 56 85 07 bd bc 23 a6 3d fd cb fd 3d 97 ed 37 bd
       -0.033086143 0.081122845 0.12392423 -0.044904318
000200 73 17 34 bd 6f aa 42 3e 74 c2 ae ba 7f 78 01 be
       -0.043967675 0.19010328 -0.0013333098 -0.12643622
000210 71 33 ca 3d 58 66 17 3d 7a 35 af 3d 30 23 89 be
       0.09873093 0.036962837 0.08555122 -0.26784658
000220 67 10 1b be 79 7d c6 3d eb eb 06 be ab b4 9a bc
       -0.15142976 0.09691901 -0.13175933 -0.018884977
000230 42 20 33 be c4 b9 db 3d c1 1e 48 3d 96 33 f3 bd
       -0.17492774 0.10728791 0.048857454 -0.118750736
000240 a4 0b 03 3e 73 95 f0 3d 59 e6 48 bd 06 77 52 bd
       0.1279741 0.11747255 -0.0490478 -0.05138304
000250 bb fe 1c be 14 03 04 bd fb 20 79 be 6b 50 0f be
       -0.15331547 -0.032229498 -0.24328987 -0.13995521
000260 05 fa fb bd d8 3e 62 3c f9 06 7d 3d c4 0b cc bc
       -0.12303547 0.013808928 0.061774228 -0.024907954
000270 cb 37 c6 3d ad 5a c9 3d c3 f3 0e be d2 d1 bf 3c
       0.096786104 0.09831748 -0.13960175 0.02341548
000280 6c ec 7c 3d 11 c6 1e bd 74 88 9a bd f8 93 29 be
       0.061748907 -0.03876311 -0.075455576 -0.16560352
000290 e8 f8 0e 3e 97 1a b3 bd 2c c8 db bc 09 53 4a be
       0.13962138 -0.08745306 -0.026828848 -0.19758238
0002a0 76 a5 1a bd 71 8f 8f bd 2f 64 da 3a 8f bd 2e bc
       -0.037755452 -0.07009781 0.0016661937 -0.0106653115
0002b0 58 0e c3 bd f3 38 8b 3d 8d 94 19 3e 61 14 06 3d
       -0.0952422 0.067979716 0.14998074 0.03273428
0002c0 d1 59 97 3e d8 45 22 be b7 45 30 be ea d9 3c 3e
       0.29560712 -0.15846956 -0.17214094 0.18442503
0002d0 6b a4 0b bd 2c 45 1b 3e eb db 44 3e 0d d2 9e bd
       -0.034092348 0.15163106 0.19224517 -0.07754908
0002e0 cc f5 1c be b7 7f 10 be 6e 30 8d bd b8 9d 20 be
       -0.15328139 -0.1411122 -0.06894003 -0.15685165
0002f0 76 c9 2e 3e de a4 73 bd 87 6a 7b bd c1 78 09 bd
       0.17069039 -0.0594834 -0.06138089 -0.033562426
000300 52 ef 9f bc 6e d6 39 be 52 fe 9e 3d 8a 4f 46 3c
       -0.019523297 -0.18148205 0.077633515 0.0121039245
000310 6d 3d 86 3d 0a 07 e8 bb ff 38 ba 3a 74 55 d4 bd
       0.06554685 -0.0070809172 0.001420766 -0.103678614
000320 e1 e9 bc be 7b 76 1a 3e 71 05 b3 be 2a ab 01 3e
       -0.36897185 0.15084259 -0.3496509 0.1266295
000330 1e ea 5f bd e1 1b 70 3e b4 a9 82 bd c3 9f 01 be
       -0.05466663 0.23448135 -0.063800246 -0.126586
000340 23 13 6a bd 70 b5 a4 3c 15 f6 3e be 10 2d 3d 3e
       -0.057147156 0.020106047 -0.1864856 0.18474221
000350 39 f0 12 3e b0 b7 1e be fa d1 66 3e d4 05 29 3e
       0.1434945 -0.15499759 0.22541037 0.1650613
000360 12 f0 24 3d 11 4c d4 3d e2 90 86 3c 19 a1 26 bd
       0.04026801 0.10366071 0.016426507 -0.04068098
000370 5f 52 fb bc d1 05 7a bd b7 41 7c bd de 93 00 bb
       -0.030678926 -0.061040703 -0.061586108 -0.0019619386
000380 17 f5 65 3e 9c 4c dc 3d 66 dd 2c 3e 83 60 0b 3e
       0.22456776 0.107567996 0.16881332 0.13611035
000390 b5 fb 0c be 36 22 00 be 5f 82 53 be ed 83 0f 3d
       -0.13767894 -0.1251305 -0.20655201 0.035037924
0003a0 27 54 40 be 51 f0 ba bd 19 ab 02 be 64 66 c5 3d
       -0.18782102 -0.09127868 -0.12760581 0.0963867
0003b0 e9 d6 06 bd 80 d1 82 be 22 b7 66 3d 9c c9 5d be
       -0.032919798 -0.2555046 0.056326993 -0.21658939
0003c0 3e 66 e1 bd 2d 94 6d 3d 99 58 95 bd 66 d6 11 be
       -0.11005829 0.05800264 -0.07292289 -0.14241943
0003d0 4f 56 99 3e 00 ea e9 3d 9f 9b e0 be ed 55 d2 3c
       0.2994866 0.11421585 -0.4386873 0.025675738
0003e0 5b 45 ff 3c c1 e3 ee 3d de 59 62 3d 2c 73 96 bc
       0.031161001 0.11664534 0.055261485 -0.018365465
0003f0 02 c4 85 bd a3 77 82 bd eb b4 3a bc 74 d3 06 be
       -0.06531526 -0.06370475 -0.011395673 -0.131666

network_body.vector_processors.0.normalizer.running_mean f4 [9]
000000 d9 c1 80 41 52 f2 bb 3f 13 a0 41 bc 27 d8 39 40
       16.094652 1.4683325 -0.01181795 2.903818
000010 5d 07 a3 3f 12 bc 68 3e 4e a2 09 41 01 17 dc 3e
       1.2736622 0.22727993 8.602125 0.429863
000020 6c e2 cd 3d
       0.10052952
