results/BallJumpNN/BallAgent/BallAgent-499995.pt (torch, 855727 bytes, 55 tensors)

network_body.vector_processors.0.normalizer.running_mean f4 [9]
0	0x417fe48a	15.993296
1	0x3fbdecb4	1.4837861
2	0xbd04c9d4	-0.03241904
3	0x4024b130	2.5733147
4	0x3f88b1ac	1.0679221
5	0x3eae37f7	0.34027073
6	0x4104700f	8.277358
7	0x3de3afd2	0.111175194
8	0x3e8ee9fc	0.2791289

network_body.vector_processors.0.normalizer.running_variance f4 [9]
0	0x4a21653e	2.6443035e+06
1	0x48b8ba9d	378324.9
2	0x4a7dc382	4.1576645e+06
3	0x4c0f0f40	3.750221e+07
4	0x4909e89e	564873.9
5	0x49be1301	1.5570881e+06
6	0x4b560dbb	1.4028219e+07
7	0x4a1fbac0	2.617008e+06
8	0x4a24478a	2.6915545e+06

network_body.linear_encoder.seq_layers.0.weight f4 [128, 9]
0	0x3f42ddb5	0.7611955
1	0xbf0958ae	-0.5365094
2	0x3eb9c0ce	0.3627991
3	0x3ec9a808	0.3938601
4	0x3e7e3d06	0.24827966
5	0xbd953773	-0.07285967
6	0x3a963726	0.0011460527
7	0x3effcb92	0.4996
8	0xbd67dd1e	-0.05660736
9	0x3f02e4d7	0.5113043
10	0x3e945b40	0.28975868
11	0x3ccbf628	0.02489765
12	0xbe760d76	-0.24028572
13	0xbdbb2db8	-0.091395795
14	0xbd86eb31	-0.06587828
15	0x3f241953	0.6410114
16	0x3d87e291	0.06635011
17	0xbe0f3632	-0.13985518
18	0x3f571210	0.84011936
19	0xbeffb173	-0.4994007
20	0xbee4edc6	-0.44712657
21	0xbe83cb79	-0.25741175
22	0xbe0ae582	-0.13564113
23	0xbf5fef96	-0.87474954
24	0xbd2eb52c	-0.042653248
25	0x3ed018c0	0.40643883
26	0x3e088483	0.13331799
27	0xbf2a8d3b	-0.6662175
28	0x3ea4e273	0.32204017
29	0xbd6ed1e1	-0.058305625
30	0xbf05b4ed	-0.52229196
31	0x3c80e100	0.015732288
32	0x3da149b9	0.078753896
33	0x3ef76117	0.4831626
34	0xbe5d8951	-0.21634413
35	0xbf68445f	-0.90729326
36	0xbea0f79c	-0.3143891
37	0xbec41151	-0.3829446
38	0x3ea47d00	0.32126617
39	0xbd8ede6c	-0.06976017
40	0xbedf5de9	-0.43626335
41	0x3d6684cd	0.056278992
42	0xbe8d6bef	-0.2762141
43	0x3efdb26c	0.49550188
44	0x3efcc9ea	0.49372798
45	0xbea79456	-0.3273036
46	0xbe3bcec3	-0.18340592
47	0x3daaee6c	0.083462566
48	0x3ed97321	0.4247065
49	0xbe75bdd3	-0.23998193
50	0xbdb6c81d	-0.08924887
51	0x3efaf39c	0.49013984
52	0xbe4d0a15	-0.20023377
53	0x3f040d6f	0.51583
54	0xbeace53a	-0.33768636
55	0x3eb4061d	0.35160914
56	0x3f08b96d	0.5340794
57	0x3daf4266	0.08557586
58	0x3d8bd2d8	0.06827325
59	0x3d15e49b	0.03659497
60	0x3ec10a04	0.37702954
61	0xbdc6266b	-0.096752964
62	0x3f2a7363	0.66582316
63	0x3e8edf81	0.27904895
64	0xbea2dfef	-0.31811473
65	0x3ef3b97c	0.4760245
66	0xbedb7e8b	-0.42869982
67	0xbeac948e	-0.33707088
68	0xbcd42179	-0.025894867
69	0xbf0cc5a7	-0.54989094
70	0xbe994e33	-0.29942474
71	0x3f213d21	0.629839
72	0xbda9d3ce	-0.08292352
73	0x3e2bb837	0.16769491
74	0xbde73366	-0.112891
75	0xbdfe718d	-0.12424002
76	0xbec574c1	-0.3856564
77	0xbf31af51	-0.69408137
78	0xbe198e43	-0.14995675
79	0xbea721b6	-0.32642907
80	0xbefbc47b	-0.4917334
81	0x3f05064c	0.51962733
82	0x3e80b6ae	0.25139374
83	0x3f00ef99	0.50365597
84	0xbed4625a	-0.41481286
85	0xbe1ebc95	-0.15501626
86	0x3e382d13	0.17985944
87	0x3e609358	0.21931207
88	0xbe9d882d	-0.30767956
89	0x3e8e05b7	0.27738735
90	0x3f0a50bd	0.54029447
91	0x3f08fecb	0.53513783
92	0xbe041b70	-0.12901092
93	0xbca0ae75	-0.019614438
94	0x3e78fe4d	0.24315758
95	0x3eab1419	0.3341377
96	0xbea2a0fc	-0.31763446
97	0xbe83bab8	-0.25728393
98	0xbdc5aa2a	-0.09651597
99	0x3ed41d85	0.41428772
100	0x3eadfc65	0.33981624
101	0xbeb90ce3	-0.36142644
102	0x3e16660c	0.14687365
103	0x3dc6dd00	0.09710121
104	0x3f3e8c5a	0.7443291
105	0xbeb4dc68	-0.35324407
106	0x3f3686a6	0.7129921
107	0xbd536207	-0.051607158
108	0xbcc6c4ea	-0.024263818
109	0x3db516ed	0.08842263
110	0xbe19f0fe	-0.15033337
111	0x3ef4bb78	0.47799277
112	0xbe227137	-0.158635
113	0x3e9d4690	0.30717897
114	0xbe3d5e01	-0.18492891
115	0xbefb7108	-0.49109674
116	0xbee57ad7	-0.44820282
117	0xb9c8da5d	-0.00038309666
118	0xbe30135e	-0.17194888
119	0xbe972fe8	-0.29528737
120	0x3d6123ef	0.05496591
121	0x3ea724cb	0.32645258
122	0xbf77ada5	-0.96749336
123	0x3e8c74ab	0.2743276
124	0xb98b220a	-0.00026537507
125	0x3cf9f5f7	0.030512793
126	0xbf04be7d	-0.5185316
127	0xbdc5c102	-0.09655954
128	0xbeecb840	-0.46234322
129	0x3eb2332d	0.3480467
130	0xbe9387e2	-0.28814608
131	0xbf0ccf0b	-0.5500342
132	0xbf0ee3f9	-0.5581661
133	0xbf5f0075	-0.8711007
134	0x3d21b247	0.03947666
135	0x3e995617	0.29948494
136	0x3ed58e0e	0.41709942
137	0x3f5d8ac7	0.8653988
138	0x3f4bdc57	0.79633087
139	0xbed75f9d	-0.42065135
140	0xbe3549f5	-0.17703994
141	0xbe69eea4	-0.2284494
142	0x3e4f2c6f	0.20231794
143	0xbea62073	-0.32446632
144	0x3dad9057	0.08474796
145	0xbf19040d	-0.59771806
146	0x3e48e781	0.19619562
147	0x3ead4d06	0.33847827
148	0x3ee1df08	0.44115472
149	0xbd629dec	-0.055326387
150	0x3e26043c	0.16212553
151	0xbf5cdc42	-0.86273587
152	0xbc0221c0	-0.007942617
153	0xbe05c719	-0.13064231
154	0xbd8d9211	-0.069126256
155	0xbee88804	-0.45416272
156	0xbf01f629	-0.50766236
157	0x3efe2111	0.49634603
158	0x3da1df8c	0.07903966
159	0xbee5465c	-0.44780242
160	0xbbb65713	-0.0055645793
161	0xbe8bc011	-0.27294973
162	0xbed2dafb	-0.41182694
163	0xbdd9ac9c	-0.10628626
164	0x3eb51171	0.3536487
165	0xbe6c6b8c	-0.23087901
166	0xbd621dbe	-0.055204146
167	0xbecaadba	-0.39585668
168	0xbea1412d	-0.31495038
169	0x3ebe40eb	0.37158903
170	0xbeee7d02	-0.46579748
171	0x3e98b0e6	0.29822463
172	0x3dbeccb2	0.09316386
173	0xbdcc1625	-0.09965161
174	0xbea9b05d	-0.33142367
175	0xbdf78c9b	-0.12087365
176	0xbed8561a	-0.4225319
177	0xbe1dd2a4	-0.15412384
178	0xbed5d269	-0.41762093
179	0xbea70393	-0.32619914
180	0xbcbd09a5	-0.023075888
181	0x3decb032	0.11557044
182	0x3dd9fac1	0.10643531
183	0x3f0b8f52	0.54515564
184	0xbddd8e9b	-0.108182155
185	0xbde7acd9	-0.11312265
186	0xbe51e951	-0.2049916
187	0x3f0725e0	0.5279217
188	0xbe474fc3	-0.1946402
189	0xbf104452	-0.5635425
190	0xbde8c532	-0.11365737
191	0xbeaf060b	-0.34184298
192	0x3e1e755d	0.15474458
193	0xbe139f3d	-0.14416213
194	0x3e11c759	0.14236201
195	0x3f39df55	0.726064
196	0xbd856f15	-0.06515328
197	0xbe9f00b4	-0.31055224
198	0xbebaf0aa	-0.36511737
199	0x3e25198b	0.16123025
200	0xbf28f517	-0.6599898
201	0xbe5c2533	-0.21498565
202	0x3e5e7ebb	0.21728031
203	0xbdcec384	-0.100958854
204	0x3e96b6e7	0.29436418
205	0x3e8b44e9	0.27201012
206	0x3e3ff094	0.18744117
207	0x3eeb65bd	0.45976058
208	0xbcea8fe3	-0.028633064
209	0xbe72f5f7	-0.2372664
210	0xbe613ad4	-0.21995097
211	0x3dd2e03b	0.10296675
212	0xbd3bf24f	-0.04588538
213	0xbf00907d	-0.5022047
214	0xbe331b54	-0.17490894
215	0x3e412361	0.18861152
216	0x3e2e44fd	0.17018504
217	0x3f00ff58	0.50389624
218	0xbe9d2068	-0.30688787
219	0x3e1a7601	0.15084077
220	0x3daf534f	0.08560812
221	0x3d907d4b	0.07055148
222	0xbd815014	-0.06314102
223	0x3ee8dcaf	0.45480868
224	0xbf27fb7b	-0.65618104
225	0x3e808c3f	0.25107
226	0x3e25eb69	0.16203083
227	0x3e969d11	0.29416707
228	0x3d41523d	0.04719757
229	0xbe2617d6	-0.1622003
230	0x3e754181	0.23950769
231	0xbf010f31	-0.50413805
232	0xbefe2587	-0.49638006
233	0x3e3df4e9	0.18550457
234	0x3f14baf1	0.5809775
235	0x3f18042e	0.5938138
236	0xbed62a47	-0.4182913
237	0x3ec264b3	0.37967452
238	0xbdf90e87	-0.12160974
239	0xbdf063bc	-0.11737773
240	0xbea98596	-0.3310973
241	0x3e274bf9	0.16337575
242	0xbebebd0c	-0.37253606
243	0x3d11016a	0.03540174
244	0x3ecd61a4	0.40113556
245	0x3e4f1a7a	0.20224944
246	0xbd1c123a	-0.03810332
247	0xbd32edf1	-0.04368395
248	0x3e94e3c2	0.29080015
249	0xbe29eea1	-0.16594936
250	0xbed20ff1	-0.41027787
251	0x3f34a92e	0.7057065
252	0xbe511f5e	-0.20422122
253	0x3e627698	0.22115552
254	0x3eaa9d2f	0.33323047
255	0xbf424307	-0.75883526

network_body.linear_encoder.seq_layers.0.bias f4 [128]
0	0xbd14dd2b	-0.036343735
1	0x3dcb606b	0.099305
2	0x3dc3ff8b	0.09570225
3	0x3c5d754e	0.013516737
4	0x3e00c90f	0.12576698
5	0xbd5d562b	-0.054037254
6	0x3c0c0f5b	0.008548583
7	0x3e09b69f	0.1344857
8	0x3ca1b2e8	0.01973863
9	0x3e148aa1	0.14506008
10	0xbd18e924	-0.037331715
11	0x3dbc40fb	0.091920815
12	0xbda7cdc4	-0.081935436
13	0xbdbca055	-0.092102684
14	0xbd0c13d0	-0.034198582
15	0x3da7bb41	0.08190013
16	0xbd672357	-0.056430187
17	0x3d3fab97	0.0467945
18	0x3d61638a	0.05502657
19	0xbd3b54c2	-0.04573513
20	0xbd2d0287	-0.04223874
21	0xbc8fafac	-0.017539822
22	0x3dbb9342	0.091589466
23	0xbd3a1d55	-0.04543813
24	0xbc3e1e99	-0.011603975
25	0x3dd5729b	0.1042225
26	0xbd196069	-0.03744546
27	0xbccde947	-0.02513565
28	0x3d8bb846	0.06822257
29	0xbd718e1e	-0.058973424
30	0xbc805cf1	-0.015669318
31	0x3e0cb86b	0.13742225
32	0x3d813c64	0.06310347
33	0x3cefa726	0.029254507
34	0xbc0ff703	-0.0087869195
35	0xbd4d2910	-0.05008799
36	0x3c185880	0.009298444
37	0x3b482e35	0.003054512
38	0x3d0d90a1	0.034561757
39	0xbcb39631	-0.021922203
40	0xbd9d4c37	-0.076805525
41	0x3de7acbf	0.113122456
42	0xbdb78d9a	-0.08962555
43	0x3d4c5064	0.049881354
44	0xbce15f93	-0.027511394
45	0x3d90fbc1	0.07079268
46	0x3dbc6464	0.091988355
47	0xbbb4ef03	-0.0055216565
48	0xbc86de42	-0.016463403
49	0xbdad06aa	-0.08448537
50	0xbdd2b5d2	-0.10288586
51	0x3db67cbb	0.08910509
52	0x3d1ff72d	0.039054085
53	0x3e2bd74c	0.16781348
54	0x3d2c260d	0.042028476
55	0x3e00d7f2	0.12582377
56	0xbd99d5bf	-0.07511472
57	0xbb84fc92	-0.004058429
58	0x3cdacccb	0.026708981
59	0x3d4fe2fa	0.05075357
60	0xbc5619ce	-0.013067676
61	0xbd0b3936	-0.033990107
62	0x3d53c4b2	0.051701255
63	0x3c5494f5	0.012974967
64	0xbcf71e52	-0.030165825
65	0xbc9894b8	-0.018625602
66	0xbd49a463	-0.049229037
67	0xbdfdcb0b	-0.12392243
68	0xbc06359c	-0.008191492
69	0x3e06882b	0.13137881
70	0x3e31b2fc	0.17353433
71	0xbd891b3a	-0.06694646
72	0xbdcae5d4	-0.099071175
73	0x3d0b2760	0.033973098
74	0xbd5bb1d5	-0.05363639
75	0xbdde2bac	-0.108481735
76	0xbc35491d	-0.011064795
77	0xbd8e9d6d	-0.0696362
78	0x3c7b2629	0.015328922
79	0xbd512457	-0.051060047
80	0x3b27feec	0.0025634123
81	0xbb776ca7	-0.003775397
82	0x3c0049d3	0.007830101
83	0x3d310c42	0.04322458
84	0x3da72d5c	0.081629485
85	0xbd85e646	-0.06538062
86	0xbd4a35e0	-0.049367785
87	0xbb1051ee	-0.002202149
88	0x3df340c6	0.11877589
89	0x3b5f4ee2	0.0034074117
90	0x3d68a0a4	0.056793824
91	0xbcbc78eb	-0.023006877
92	0x3e297369	0.16547932
93	0xbd2d4acf	-0.04230767
94	0xbda3daea	-0.08000739
95	0x3b7da21e	0.0038701366
96	0x3db565a8	0.0885728
97	0xbc1905ec	-0.009339791
98	0x3d80eb31	0.06294859
99	0x3cd2869c	0.025698952
100	0x3d4c43b3	0.04986925
101	0x3c7ba82d	0.01535992
102	0xbdc0a36e	-0.09406172
103	0xbc57d44b	-0.013173173
104	0x3e03ed00	0.12883377
105	0x3d3ec114	0.046570852
106	0x3d3e98f4	0.046532586
107	0xbda8d157	-0.082430534
108	0xbdf17ce0	-0.11791396
109	0xbdb440c7	-0.08801418
110	0x3e867ec4	0.2626859
111	0xbd21df05	-0.03951933
112	0x3d8725a1	0.06598974
113	0xbbbff368	-0.0058578737
114	0xbd65c630	-0.05609721
115	0xbc507c2a	-0.0127249155
116	0x3d201641	0.039083723
117	0xbd319e75	-0.043364007
118	0xbc8c544a	-0.017130036
119	0x3b88c25e	0.004173561
120	0x3d823348	0.06357437
121	0x3c9ef567	0.019404126
122	0x3a91656f	0.0011092852
123	0x3e07dcf9	0.13267888
124	0x3e5c9685	0.21541794
125	0xbcc30081	-0.023803951
126	0x3d76b5bf	0.06023192
127	0x3e0133a9	0.12617363

network_body.linear_encoder.seq_layers.2.weight f4 [128, 128]
0	0x3cc8a88f	0.024494438
1	0x3e3c7201	0.18402864
2	0x3e1b4b1a	0.15165368
3	0xbdd69879	-0.104783006
4	0xbd639e62	-0.055570967
5	0xbdb84b01	-0.08998681
6	0xbe47bab4	-0.19504815
7	0x3dbe4a53	0.0929152
8	0xbd6d5f6f	-0.05795234
9	0x3dc92793	0.09822001
10	0x3dc413db	0.095741
11	0x3ccbc491	0.024874004
12	0xbd380a7f	-0.044931885
13	0xbda51136	-0.08059923
14	0xbd585b03	-0.05282117
15	0xbd306486	-0.043064617
16	0xbd8e9b58	-0.06963223
17	0x3d0e62aa	0.034762062
18	0x3c91af66	0.017783832
19	0x3e15f445	0.14643963
20	0xbd8956ce	-0.0670601
21	0x3e257e8e	0.16161558
22	0xbdc9338e	-0.098242864
23	0x3d5100d3	0.051026177
24	0x3b587c72	0.003303316
25	0x3d022741	0.031775717
26	0x3e0f1fd5	0.13976987
27	0xba1c6f65	-0.0005967527
28	0x3dcbad68	0.09945184
29	0x3b81c1da	0.0039598765
30	0x3de802a9	0.113286324
31	0xbd61fab1	-0.05517072
32	0x3e441c19	0.19151343
33	0x3d9aa76c	0.075514644
34	0xbd40036c	-0.046878263
35	0xbd353e9e	-0.04424917
36	0x3b557131	0.0032568688
37	0xbde6be36	-0.112667486
38	0xbd40aa34	-0.04703732
39	0xbcf698d6	-0.030102175
40	0xbe13ab25	-0.14420755
41	0xbd36002a	-0.04443375
42	0x3db0a48d	0.086251356
43	0xbe4de2e4	-0.20106083
44	0xbd91364e	-0.07090436
45	0x3bb13ada	0.005408627
46	0xbc8bb6bb	-0.017054906
47	0xbc662c6a	-0.014048675
48	0xbc3ba021	-0.011451752
49	0x3dc9c88f	0.09852707
50	0xbc6d922c	-0.014500182
51	0x3e33fab2	0.17576101
52	0x3e262ae1	0.16227295
53	0x3bb73098	0.0055905096
54	0xbdd25b95	-0.10271374
55	0x3e03afc7	0.12860022
56	0xbdb75c6e	-0.089531764
57	0xbb4f0106	-0.0031586303
58	0xbe0f21d2	-0.13977745
59	0xbe132c2e	-0.14372322
60	0xbd16ee1b	-0.03684817
61	0xbd84f431	-0.06491888
62	0x3d0f021b	0.034914117
63	0x3e553a95	0.20823129
64	0x3d31b6c4	0.04338719
65	0xbdb8113e	-0.08987664
66	0xbdd46452	-0.10370697
67	0xbd8376e1	-0.06419159
68	0x3d4b6f58	0.049666733
69	0xbca43553	-0.020044958
70	0x3d280848	0.041023523
71	0xbd6ddb8b	-0.0580707
72	0x3db7b556	0.08970134
73	0xbe17c403	-0.14820866
74	0xbdac0758	-0.08399838
75	0x3d32dc3e	0.04366707
76	0x3b8b65bf	0.0042540724
77	0xbe0db4b5	-0.13838466
78	0x3caf5a07	0.021405233
79	0xbdfacf70	-0.12246597
80	0xbdfb3f59	-0.12267942
81	0xbc60c9a7	-0.013719953
82	0xbd345a79	-0.044031594
83	0x3e49e2eb	0.19715469
84	0x3d3b7d98	0.045774072
85	0xbda197cd	-0.07890282
86	0xbdbc1dcb	-0.0918537
87	0xbd7a3318	-0.061083883
88	0xbdd47dc9	-0.10375554
89	0xbd30362e	-0.04302042
90	0xbdeb2bf0	-0.1148299
91	0x3daed79e	0.085372195
92	0x3d79a727	0.060950425
93	0xbd468ab3	-0.048472118
94	0xbd453daf	-0.04815453
95	0x3e0d85dd	0.13820596
96	0xbd71b993	-0.059014868
97	0x3d0213bb	0.031757098
98	0x3d94ca47	0.07265144
99	0xbd2dd436	-0.04243871
100	0x3d3dae8d	0.046309043
101	0x3e334a03	0.17508702
102	0x3c9a5413	0.018838918
103	0x3db11dea	0.08648284
104	0xbdf190d7	-0.11795204
105	0x3ca9918a	0.020699281
106	0xbb81b299	-0.003958058
107	0x3c604223	0.013687643
108	0xbd340798	-0.043952554
109	0xbe6582c1	-0.2241316
110	0x3e2eb03e	0.17059419
111	0x3d0418c5	0.032250185
112	0x3dd58de7	0.10427456
113	0xbce6224f	-0.028092531
114	0xbcb0df6e	-0.021590915
115	0x3e3b7c1a	0.1830906
116	0x3bdde88f	0.006772108
117	0x3e07333f	0.13203143
118	0x3df82304	0.12116054
119	0x3e00b252	0.12568024
120	0xbc84bdf0	-0.01620385
121	0x3dda2919	0.1065237
122	0x3d0d4073	0.03448529
123	0x3e50c8c8	0.20389092
124	0x3e0cda9c	0.13755268
125	0xbe25089e	-0.16116568
126	0x3d032826	0.03202071
127	0xbca9012a	-0.020630438
128	0xbd432990	-0.04764706
129	0x3e07157a	0.13191786
130	0xbe029713	-0.12752943
131	0x3d964130	0.07336652
132	0xbd00d526	-0.031453274
133	0xbdf0c57d	-0.11756418
134	0xbd66aebd	-0.056318987
135	0xbd8097b0	-0.06278932
136	0xbe3a8e49	-0.1821834
137	0x3d9feb49	0.07808549
138	0x3cf07780	0.029353857
139	0xbdb0ed60	-0.08639026
140	0xbdc93e71	-0.09826363
141	0xbcc1b505	-0.023645887
142	0x3c97f9d4	0.018551745
143	0x3d8223ab	0.063544594
144	0x3e03ed82	0.12883571
145	0xbe69202b	-0.22766177
146	0x3d9d53e2	0.07682015
147	0xbd5f67a6	-0.054542206
148	0xbdcad1b4	-0.09903279
149	0x3d725ad7	0.059168663
150	0x3d3dd37e	0.046344273
151	0xbe253df2	-0.16136912
152	0xbd626c64	-0.05527915
153	0xbd3b3380	-0.04570341
154	0x3e1507cb	0.14553754
155	0xbddba2d7	-0.107244186
156	0x3dd4e461	0.10395122
157	0xbd0d5624	-0.03450598
158	0xbceda5b3	-0.029009676
159	0x3da4bace	0.08043443
160	0xbcdf7c88	-0.02728106
161	0x3d2c2743	0.04202963
162	0x3d02d93a	0.031945445
163	0x3cef136d	0.029184068
164	0xbdeb7e0a	-0.114986494
165	0xbde71442	-0.11283161
166	0x3bff4389	0.0077900332
167	0xbe370d5b	-0.17876188
168	0xbd3e87f2	-0.046516366
169	0xbc3655d3	-0.0111288605
170	0xbcc651ed	-0.024208987
171	0x3e25c21a	0.16187325
172	0xbe5086cc	-0.20363921
173	0x3caea7d9	0.02132027
174	0xbd00bb55	-0.031428654
175	0x3dc5aa21	0.0965159
176	0xbd1801fc	-0.037111267
177	0x3d903224	0.070408136
178	0xbe5c5387	-0.21516238
179	0x3ccdc162	0.025116626
180	0x3e64d0ac	0.22345227
181	0x3cec3f53	0.02883879
182	0xbd9f1dce	-0.07769357
183	0xbd372c81	-0.044720177
184	0x39fc0a7b	0.00048072994
185	0x3d22eb34	0.03977509
186	0xbdd07d9a	-0.101802066
187	0xbde99e79	-0.114071794
188	0x3d91846e	0.07105337
189	0xbd29bb31	-0.041438285
190	0x3e13dd98	0.1444
191	0x3db6caf8	0.08925432
192	0xbe30226a	-0.17200628
193	0x3d9924df	0.07477736
194	0xbdb2897e	-0.08717631
195	0xbc8bb3ab	-0.017053446
196	0xbdb36821	-0.087600954
197	0x3dc5e063	0.09661939
198	0x3d97d250	0.07413161
199	0x3d921d10	0.071344495
200	0xbe261e29	-0.16222443
201	0xbbe561e1	-0.0070001935
202	0xbd7873a1	-0.060657147
203	0xbdc750aa	-0.09732182
204	0xbb78f42e	-0.003798734
205	0xbd1c26dd	-0.038123
206	0x3e07e324	0.13270241
207	0x3d55de78	0.052214116
208	0xbdc32fd1	-0.09530605
209	0xbd5ee678	-0.05441901
210	0x3d8f8f13	0.07009711
211	0xbe226f38	-0.15862739
212	0x3dc47188	0.09591967
213	0xbbef5d3f	-0.007304817
214	0xbe89cb16	-0.26912755
215	0xbc88ce7c	-0.016700022
216	0x3d8d8347	0.06909805
217	0xbd95a840	-0.07307482
218	0x3ce22da5	0.027609656
219	0x3d3de4d6	0.046360813
220	0x3d7e386d	0.06206553
221	0x3d8b686e	0.06807028
222	0xbc401f5f	-0.011726229
223	0x3ca94d6f	0.020666806
224	0xbd211ecc	-0.03933601
225	0xbe0202a0	-0.12696314
226	0x3d29d06d	0.041458536
227	0xbdeb669b	-0.1149418
228	0xbcf257b8	-0.029582843
229	0xbd08dbb8	-0.033412665
230	0xbdaec97f	-0.08534526
231	0x3d946b77	0.0724706
232	0xbdb9fdb0	-0.0908159
233	0xbca1b8a9	-0.019741373
234	0xbd03686a	-0.032082
235	0xbe04dfd9	-0.12976016
236	0xbea867cd	-0.32891694
237	0x3c3a06a4	0.011354122
238	0x3ddee42a	0.108833626
239	0xbc2b76ff	-0.010465383
240	0xbe06aab9	-0.13151063
241	0x3ccff803	0.025386816
242	0xbc3a7f6c	-0.011382919
243	0xbe0394ec	-0.12849778
244	0xbd2d9150	-0.04237491
245	0x3d28b415	0.041187365
246	0x3c9e1f11	0.019301923
247	0xbe04325f	-0.1290984
248	0x3dab368b	0.083600126
249	0x3cf06aea	0.029347856
250	0xbe0c73db	-0.1371607
251	0x3dbf5c2d	0.09343753
252	0x3e0193eb	0.12654082
253	0xbb8a0751	-0.004212298
254	0x3c16d996	0.00920715
255	0x3e8958ac	0.26825464

network_body.linear_encoder.seq_layers.2.bias f4 [128]
0	0x3d4c1dae	0.049832992
1	0x3e2408cb	0.16018979
2	0xbd617011	-0.055038515
3	0x3bc10b53	0.0058912425
4	0xbd8cbcf3	-0.06871977
5	0xbc5b0116	-0.013366958
6	0x3db84977	0.08998387
7	0xbdae5c5d	-0.08513711
8	0xbdaf1f92	-0.085509434
9	0x3c5e72d7	0.013577185
10	0xbd92237f	-0.071356766
11	0xbc909471	-0.017648907
12	0xbc64c0e5	-0.013962005
13	0x3ca6f54e	0.020380642
14	0x3d89a56a	0.06721003
15	0xbd6c69b6	-0.057718
16	0x3dfb2861	0.12263561
17	0x3d95cd55	0.073145546
18	0x3d4929f7	0.049112286
19	0xbda6f036	-0.08151285
20	0xbdbab2eb	-0.09116157
21	0xbb529d23	-0.0032137118
22	0xbd14f0c6	-0.036362432
23	0xbd059548	-0.03261307
24	0xbd6ab6c3	-0.0573032
25	0xbdaf5282	-0.08560659
26	0xbdd6d3a8	-0.10489589
27	0xbcc60df1	-0.02417657
28	0x3e729acd	0.23691864
29	0x3d85d02b	0.065338455
30	0xbd242a3e	-0.040079348
31	0xbd3c4feb	-0.045974653
32	0x3d52e185	0.051484603
33	0xbd43bffd	-0.047790516
34	0xbd93c8a3	-0.07216003
35	0xbda16430	-0.078804374
36	0x3df9e5e9	0.12202055
37	0xbd7282af	-0.05920666
38	0xbc6ae481	-0.014336706
39	0xbd995e0c	-0.07488641
40	0xbd2ad816	-0.04170998
41	0x3cb8e621	0.022570672
42	0x3d5bcf09	0.05366424
43	0xbd6da3e3	-0.058017623
44	0xbc19088a	-0.009340415
45	0xbd8bd36a	-0.068274334
46	0x3dae29b6	0.085040495
47	0x3d80f9a4	0.06297615
48	0x3dece716	0.11567514
49	0xb9c5fba2	-0.0003776225
50	0xbd8e75e7	-0.06956082
51	0x3e26d5c5	0.16292484
52	0x3e3ad9f7	0.1824721
53	0x3dea755d	0.114481665
54	0x3da53cce	0.08068238
55	0xbc8e89b5	-0.017399648
56	0xbda9893d	-0.08278129
57	0x3be2c5a6	0.006920534
58	0xbcf790d2	-0.030220423
59	0x3bad31a3	0.005285458
60	0x3d85ba77	0.06529706
61	0x3d7eed2b	0.0622379
62	0x3d5594b7	0.05214378
63	0xbd840831	-0.06446875
64	0xbba710b2	-0.005098426
65	0xbd603791	-0.054740492
66	0x3d8e7857	0.06956547
67	0xbc662166	-0.014046049
68	0x3e04ff31	0.12987973
69	0xbda78f45	-0.08181623
70	0x3d4f25e4	0.050573245
71	0xbd9fcd29	-0.07802803
72	0xbd290b63	-0.041270625
73	0x3dffb6a1	0.124860056
74	0xbd56ded3	-0.052458595
75	0x3d39595e	0.045251243
76	0xbde3154d	-0.11088047
77	0x3e02847a	0.12745848
78	0x3d1149b7	0.03547069
79	0xbd33cb12	-0.043894835
80	0xbdbb6fb2	-0.091521636
81	0xbcfbe4fe	-0.03074884
82	0xbd9d7b4f	-0.07689535
83	0xbc6c9147	-0.014438934
84	0x3d547b04	0.05187513
85	0x3c620a3a	0.0137963835
86	0xbb7125b4	-0.0036796154
87	0x3ded6dca	0.11593206
88	0xbd5de391	-0.054172102
89	0x3d6d34d7	0.05791172
90	0xbd9924a7	-0.07477694
91	0xbcb94c42	-0.02261937
92	0xbd764742	-0.06012655
93	0xbdb6173d	-0.08891151
94	0xbde72634	-0.112865835
95	0xbd30ed01	-0.043194775
96	0x3d514f8f	0.051101264
97	0x3d4fcc6b	0.050732058
98	0xbcfb3887	-0.030666603
99	0x3d2f896d	0.04285567
100	0xbd2af82b	-0.041740578
101	0x3d258719	0.040412042
102	0xbdb16467	-0.08661728
103	0x3da30131	0.079592116
104	0xbdb929b7	-0.090411596
105	0xbc913daf	-0.017729608
106	0xbdd91532	-0.10599746
107	0x3d939c0e	0.072074994
108	0xbc95d4c0	-0.018289924
109	0xbde6bd31	-0.11266554
110	0x3d460ffa	0.04835508
111	0xbd936b9f	-0.071982615
112	0xbddf844a	-0.10913904
113	0xbb7a7852	-0.003821869
114	0x3ca3b6cf	0.01998463
115	0xbd70aa75	-0.05875631
116	0x3e17f926	0.14841136
117	0x3c1b2c49	0.009471008
118	0xbe1250d2	-0.14288643
119	0x3d4adb31	0.049525443
120	0x3e038552	0.12843826
121	0x3b78e5e0	0.0037978813
122	0x3dc62948	0.096758425
123	0x3d07f4ca	0.033192433
124	0x3b1680e2	0.0022965004
125	0x3d46cdd9	0.048536155
126	0xbcc3bd48	-0.023893967
127	0xbddbf5bb	-0.10740229

network_body.linear_encoder.seq_layers.4.weight f4 [128, 128]
0	0xbe02c618	-0.1277088
1	0x3ca99ed6	0.020705622
2	0xbdbf37fe	-0.093368515
3	0x3c1d9323	0.0096176
4	0x3d8ec8e2	0.06971909
5	0x3d538a7a	0.051645733
6	0x3d9ef36c	0.07761273
7	0xbdcd34e9	-0.100198574
8	0xbc2c15fb	-0.010503287
9	0xbe45f44a	-0.1933147
10	0xbcc85da2	-0.02445871
11	0xbde1b9ca	-0.110217646
12	0x3e6a2588	0.2286588
13	0x3d22c776	0.039741002
14	0x3dd1866a	0.102307156
15	0xbe9ed97c	-0.31025302
16	0x3da2573f	0.07926797
17	0x3d997c45	0.07494406
18	0xbe05e958	-0.13077295
19	0x3c8e1cfc	0.017347805
20	0x3d5a47e0	0.0532912
21	0xbc8c8ff0	-0.017158478
22	0x3d2306e4	0.039801493
23	0xbde45453	-0.11148896
24	0x3d24b2aa	0.04020945
25	0xbe0d7160	-0.1381278
26	0xbbd074f1	-0.0063615968
27	0xbc1dbc49	-0.00962741
28	0x3b910867	0.0044260505
29	0xbd928123	-0.07153537
30	0xbe55e8d2	-0.20889595
31	0x3db6e6bf	0.0893073
32	0x3d4cc3b1	0.049991313
33	0xbcaf5096	-0.021400731
34	0x3d6ea3f0	0.05826181
35	0x3e235348	0.15949738
36	0xbced09ba	-0.028935302
37	0x3da3b487	0.07993417
38	0x3b02488e	0.0019879672
39	0xbd58abc6	-0.05289819
40	0xbe65856f	-0.22414182
41	0xbd48d786	-0.049033664
42	0x3e8f9497	0.28043053
43	0xbdaba4e6	-0.08381061
44	0xbde28b2b	-0.110617004
45	0xbd25c83e	-0.04047417
46	0xbd2b7e6e	-0.04186862
47	0x3d7f81db	0.0623797
48	0x3e634609	0.22194685
49	0x3e1c4ef3	0.15264492
50	0x3e005985	0.12534149
51	0x3cbac074	0.022796847
52	0xbd4bc683	-0.049749862
53	0x3e366e32	0.17815474
54	0xbd2838b0	-0.041069686
55	0xbcd0c9d5	-0.025486866
56	0xbe0d6800	-0.13809204
57	0x3e475c56	0.19468817
58	0xbe355273	-0.17707233
59	0xbe9ce892	-0.30646187
60	0x3e498504	0.19679648
61	0xbdcb3880	-0.09922886
62	0xbda5b0ba	-0.080903485
63	0xbdb5ceb2	-0.088773146
64	0xbe124407	-0.14283763
65	0x3c801e6e	0.01563951
66	0x3e2bf50e	0.167927
67	0xbb1d158a	-0.0023969137
68	0x3debd182	0.1151457
69	0xbcddb2a9	-0.02706273
70	0x3cc51f07	0.024062647
71	0x3d268399	0.040652845
72	0xbe352a8b	-0.1769201
73	0x3d4e7a13	0.050409388
74	0xbdc30953	-0.09523263
75	0x3e02ce6f	0.1277406
76	0xbc92ecaa	-0.017935116
77	0x3d2fee36	0.042951785
78	0x3db90166	0.0903347
79	0x3b32cfde	0.0027284543
80	0xbe8fd89c	-0.28094947
81	0x3b5a0f2d	0.0033273206
82	0xbc662f0a	-0.014049301
83	0x3e515605	0.2044297
84	0xbd121f03	-0.035674106
85	0xbe38b745	-0.18038662
86	0xbd980274	-0.07422343
87	0xbe05d2df	-0.13068722
88	0xbc3b8778	-0.0114458725
89	0xbd38ff18	-0.04516515
90	0xbe8262c6	-0.25465983
91	0x3d9bd26a	0.07608493
92	0xbe0a1bba	-0.1348714
93	0xbbd2a02b	-0.006427785
94	0xbdceb172	-0.10092439
95	0x3d64cec8	0.055861264
96	0xbe6b4ab0	-0.2297771
97	0x3cb47b05	0.022031317
98	0xbd0159a4	-0.03157963
99	0xbd866f91	-0.06564248
100	0x3d8e55ae	0.06949936
101	0xbd8e5a2b	-0.06950792
102	0xbe161007	-0.14654551
103	0x3d213d83	0.039365303
104	0xbe070d7e	-0.1318874
105	0x3dbd2e69	0.09237368
106	0xbdb99f95	-0.09063641
107	0x3e3534c8	0.17695916
108	0x3d95aa8a	0.07307918
109	0xbdea4189	-0.11438281
110	0xbddbebe5	-0.10738353
111	0x3d429637	0.047506537
112	0xbd9e0829	-0.077164
113	0x3dfd09a3	0.12355354
114	0xbdb631e1	-0.088962324
115	0xbbcb4223	-0.0062029525
116	0xbd35972c	-0.04433362
117	0x3da5fcb0	0.08104837
118	0x3d04d1b3	0.032426547
119	0x3c8637cd	0.01638403
120	0x3dbb0a00	0.09132767
121	0xbc899897	-0.016796393
122	0x3dbc10c0	0.09182882
123	0x3e37244a	0.17884937
124	0xbb515564	-0.0031941766
125	0x3d9a0e82	0.075222984
126	0x3dd82e6e	0.10555731
127	0xbd14de71	-0.03634495
128	0xbd921c25	-0.071342744
129	0x3def4065	0.11682204
130	0x3c8811ca	0.016610045
131	0xbe0a6525	-0.13515146
132	0x3de81255	0.113316216
133	0x3cf0d0fb	0.029396525
134	0x3db93b23	0.090444826
135	0xbe317efb	-0.17333595
136	0xbd562fa6	-0.052291535
137	0x3dbf53a8	0.09342128
138	0xbdfeb3b9	-0.12436623
139	0x3cbf4cf3	0.023352122
140	0xbe1d4cc3	-0.15361314
141	0x3e00face	0.12595674
142	0x3d22a686	0.03970959
143	0xbdbdd443	-0.09269001
144	0x3dcc3a3d	0.099720456
145	0x3db2e3ae	0.08734833
146	0xbc6b0c6d	-0.014346224
147	0xbd1bf75b	-0.038077693
148	0xbdcf027d	-0.101078965
149	0xbd1327d2	-0.035926647
150	0xbe459bc4	-0.19297701
151	0xbe053f6f	-0.13012479
152	0xbdec52ba	-0.11539216
153	0x3d119952	0.03554661
154	0x3d8a3c76	0.06749813
155	0xbc972570	-0.018450469
156	0x3d9f7b60	0.07787204
157	0x3db084b2	0.086190596
158	0xbe0d2100	-0.1378212
159	0x3beb0644	0.007172378
160	0x3d85c19f	0.06531071
161	0xbd17f309	-0.03709701
162	0xbd5e562f	-0.05428141
163	0xbe1fc3ac	-0.15601987
164	0x3dd2ffe4	0.103027135
165	0xbd94e6e4	-0.072706014
166	0xbc8baff1	-0.017051669
167	0xbe40dd0a	-0.1883432
168	0xbc2ce8cf	-0.010553553
169	0xbd5d2036	-0.053985797
170	0x3c70f6f4	0.014707316
171	0x3c529418	0.012852691
172	0xbdb1429b	-0.08655282
173	0x3d898fde	0.067168936
174	0x3e0ca166	0.13733444
175	0xbc1b73ee	-0.009488089
176	0x3e8f04ae	0.27933258
177	0xbe0b9cf5	-0.13634093
178	0xbe364e6e	-0.17803356
179	0x3e344190	0.17603135
180	0xbd87d9ae	-0.06633316
181	0x3de90d96	0.113795444
182	0x3e3b529c	0.18293232
183	0xbda9f6f6	-0.08299057
184	0xbdfe68eb	-0.12422355
185	0xbe0908e6	-0.133823
186	0xbd848098	-0.0646984
187	0xbe0ae475	-0.13563712
188	0x3de876f2	0.11350812
189	0xbd6a2f53	-0.05717404
190	0xbda0e631	-0.078564055
191	0x3b2abdb9	0.0026053025
192	0xbc624206	-0.0138096865
193	0xbe2265fb	-0.15859215
194	0x3cffa721	0.031207623
195	0x3b1284fa	0.0022357092
196	0x3c24eb46	0.010065859
197	0x3cd63c79	0.026151882
198	0xbcc567a2	-0.024097268
199	0xbdb2bd4c	-0.08727512
200	0xbe9905a4	-0.29887116
201	0x3de9a97a	0.11409278
202	0xbe894eb0	-0.26817846
203	0x3dd78799	0.1052391
204	0xbcde66a9	-0.027148562
205	0x3e5916f8	0.21200168
206	0xbcefac4d	-0.029256964
207	0xbdf7813b	-0.12085196
208	0xbd22e406	-0.03976824
209	0x3d80b4f6	0.062845156
210	0xbe2114da	-0.1573061
211	0x3e3c21da	0.18372288
212	0x3dd60351	0.10449851
213	0xbdf00d07	-0.11721235
214	0x3e49d0ee	0.19708607
215	0x3e0851a0	0.13312387
216	0x3bf401b0	0.00744649
217	0x3dbccaf8	0.09218401
218	0x3d15e0fb	0.03659151
219	0xbcda48b9	-0.026646005
220	0xbc58b87b	-0.013227577
221	0xbd103ad0	-0.035212338
222	0xbd137667	-0.03600159
223	0x3c26135a	0.01013645
224	0x3e537445	0.20649822
225	0x3d988c90	0.07448685
226	0x3e1a7b39	0.15086068
227	0x3d94c5bf	0.072642796
228	0xbe099fac	-0.13439816
229	0xbdea5811	-0.114425786
230	0xbe3b51e0	-0.18292952
231	0x3a175698	0.00057730963
232	0xbe08b9ec	-0.13352174
233	0xbd9a8290	-0.07544434
234	0xbddc0706	-0.10743527
235	0x3d9d3736	0.07676546
236	0xbc7883e4	-0.015168164
237	0xbe5c2e16	-0.21501955
238	0x3d5e8bdd	0.054332603
239	0xbe09acce	-0.13444826
240	0xbca45bba	-0.02006327
241	0x3d67a275	0.056551415
242	0xbd829c96	-0.06377523
243	0xbe056a69	-0.13028874
244	0x3e773b82	0.24143794
245	0x3deb5f5e	0.11492799
246	0xbeb7136f	-0.35757014
247	0xbccdd74a	-0.025127072
248	0x3c6d5e4a	0.014487812
249	0x3df67c21	0.120353945
250	0x3b7875d1	0.003791202
251	0xbcc62cbe	-0.024191257
252	0xbd019f15	-0.031645853
253	0xbd682c63	-0.056682955
254	0xbc55110f	-0.013004555
255	0xbdc082ab	-0.09399923

network_body.linear_encoder.seq_layers.4.bias f4 [128]
0	0x3d47d369	0.0487856
1	0x3df85fd1	0.121276505
2	0xbdcbfdf2	-0.099605456
3	0x3d59c745	0.053168554
4	0x3d7372dc	0.05943571
5	0xbdb84f2a	-0.08999474
6	0xbd6cb295	-0.057787497
7	0x3dadac1c	0.08480093
8	0x3dad9a3f	0.08476686
9	0x3c2f372e	0.010694308
10	0xbd4bfe2d	-0.049802948
11	0xbbc46e25	-0.0059945756
12	0x3d370275	0.044680078
13	0xbd6c106d	-0.057632852
14	0xbd9ce379	-0.076605745
15	0x3be07f8f	0.0068511437
16	0x3cd40af1	0.025884124
17	0xbd56c035	-0.052429397
18	0x3b392a71	0.0028254057
19	0x3c824941	0.01590407
20	0x3de76aad	0.11299644
21	0xbd14cb67	-0.036326792
22	0xbdc84db0	-0.09780443
23	0x3c78c9a8	0.015184797
24	0xbd7749ef	-0.060373243
25	0x3cd91434	0.026498891
26	0x3dc25764	0.09489325
27	0x3e5fd125	0.21857126
28	0x3b150b87	0.0022742467
29	0x3b6f5934	0.0036521675
30	0x3c47ec7c	0.012202378
31	0xbd4af034	-0.04954548
32	0xbd7b4d29	-0.061352883
33	0x3dca7cb2	0.09887065
34	0x3db5a9a4	0.08870247
35	0x3d94c666	0.07264404
36	0xbd767607	-0.060171153
37	0x3be7bc88	0.007072035
38	0x3c204eb9	0.009784394
39	0xbcad1f1e	-0.021133002
40	0x3d135e80	0.035978794
41	0xbda2665b	-0.07929679
42	0x3d8bbbfd	0.06822965
43	0x3d0a9b83	0.033839714
44	0x3dddcf8e	0.108306035
45	0x3d4fb21f	0.05070698
46	0x3db9f476	0.0907983
47	0x3ca47764	0.020076461
48	0xbda91cc0	-0.08257437
49	0x3da79bf2	0.08184041
50	0xbad226fa	-0.0016033344
51	0x3d92eca2	0.071740404
52	0xbdb3ec46	-0.087853
53	0x3d8f966b	0.07011112
54	0xbcb93e60	-0.02261275
55	0x3d67d35b	0.05659805
56	0xbd900459	-0.07032079
57	0x3d44a118	0.048005193
58	0x3d231b7a	0.039821126
59	0x3ca19527	0.019724442
60	0xbc4314fc	-0.0119068585
61	0xbd4de7bd	-0.05026983
62	0x3d85cc16	0.06533067
63	0x3cde9733	0.027171707
64	0x3ce1fc83	0.027586227
65	0xbdb50317	-0.0883848
66	0xbd789408	-0.06068805
67	0x3dc3da29	0.09563095
68	0xbdbcc3c3	-0.09217026
69	0xbcf047aa	-0.029331047
70	0x3da7fc7d	0.08202455
71	0xbd3f1bfe	-0.046657555
72	0x3d555604	0.052083984
73	0x3df0f3d1	0.11765254
74	0x3caf7489	0.021417873
75	0xbc619dcc	-0.013770532
76	0x3db0fdac	0.08642134
77	0xbd283bdc	-0.04107271
78	0xbd529111	-0.051407877
79	0x3cb573a8	0.022149876
80	0x3dff009c	0.12451288
81	0xbcc6cb7f	-0.024266956
82	0xbd255135	-0.04036065
83	0x3da92774	0.08259478
84	0xbc3a2d64	-0.011363361
85	0x3d848217	0.06470125
86	0x3d49d2cd	0.0492733
87	0xbdaea020	-0.08526635
88	0x3dc8ad6f	0.09798705
89	0xbca18385	-0.019716034
90	0x3ddc5024	0.10757473
91	0xbc7c1f10	-0.015388265
92	0x3d476eed	0.04868977
93	0xbd211c68	-0.03933373
94	0x3e6e9a6d	0.23301096
95	0xbd7a05a4	-0.061040536
96	0x3e15678c	0.14590281
97	0x3d97f346	0.074194476
98	0x3c58c5e2	0.013230773
99	0x3b9c74ff	0.004774689
100	0x3dd0e028	0.101990044
101	0xbc66ab85	-0.014078979
102	0x3d81e0d0	0.06341708
103	0x3cbd717e	0.023125406
104	0x3ddc4f1f	0.10757279
105	0x3d282bc3	0.04105736
106	0xbd841adc	-0.064504355
107	0x3da8c870	0.082413554
108	0xbd9655c8	-0.0734058
109	0xbd99dfda	-0.075133994
110	0x3d92ca92	0.071675435
111	0xbdabcedb	-0.08389064
112	0xbcb7e1dc	-0.022446565
113	0xbda30f5a	-0.079619125
114	0x3d4b249c	0.04959546
115	0x3cc83907	0.024441255
116	0x3d98fbe0	0.07469916
117	0x3dbaf891	0.091294415
118	0x3d85fcfb	0.06542393
119	0xbd8a67cb	-0.06758078
120	0xbcf5cc5f	-0.030004678
121	0x3bcacffe	0.0061893454
122	0x3cd1115d	0.025520975
123	0x3d3dd459	0.04634509
124	0xbcf31526	-0.02967317
125	0xbb9a66a4	-0.0047119427
126	0x3d02ea2d	0.03196161
127	0xbd8a6699	-0.0675785

distribution.branches.0.weight f4 [2, 128]
0	0xbc86472d	-0.016391361
1	0xbde1e88c	-0.11030683
2	0x3d79afea	0.06095878
3	0xbbb61e52	-0.0055578137
4	0xbd48fa69	-0.049066935
5	0x3d9cfc6b	0.076653324
6	0x3d841848	0.06449944
7	0xbd7dc338	-0.061953753
8	0xbd667222	-0.05626119
9	0x3c2743f0	0.010209069
10	0x3d5a814d	0.053345967
11	0x3d839e0e	0.06426631
12	0xbd7e16e6	-0.062033556
13	0x3c501c00	0.012701988
14	0x3d0744f7	0.033024754
15	0x3d2832ac	0.04106395
16	0xbcb1fd47	-0.021727217
17	0x3d6c3f0d	0.057677317
18	0xbc79ab77	-0.015238634
19	0x3bbf89c8	0.005845282
20	0xbdc81472	-0.09769525
21	0x3cee6ded	0.029105151
22	0x3deffbcc	0.11717948
23	0xbd1b0103	-0.03784276
24	0x3c9df306	0.019280922
25	0x3b94fb22	0.004546539
26	0xbd402d06	-0.046917938
27	0xbe11d72c	-0.14242238
28	0x3d58100c	0.05274968
29	0x3cff2199	0.03114395
30	0x3c65017b	0.013977404
31	0x3cb1c7bf	0.021701692
32	0x3c9a6f72	0.01885197
33	0xbda49a4b	-0.080372415
34	0xbccfebab	-0.02538093
35	0xbc8b2968	-0.016987517
36	0x3d9288a6	0.0715497
37	0xbc80f101	-0.01573992
38	0x3c4333df	0.0119142225
39	0xb9b69aec	-0.0003482917
40	0x3c054b0f	0.008135571
41	0x3d511909	0.051049266
42	0xbc42c88f	-0.011888637
43	0xbc39ad3d	-0.011332807
44	0xbd850a19	-0.064960666
45	0xbd1c5092	-0.038162775
46	0xbd8e9a66	-0.06963043
47	0xbc97300b	-0.018455526
48	0x3d7b72b5	0.06138869
49	0xbd388236	-0.045046054
50	0x3baf749e	0.005354478
51	0xbb2df545	-0.0026543897
52	0x3d224a57	0.039621677
53	0xbc3f1e34	-0.011664916
54	0x3c8d0aaf	0.017217008
55	0xbd579ffa	-0.0526428
56	0x3dea1857	0.11430424
57	0xbcc9bb7a	-0.024625529
58	0xbce137c8	-0.027492419
59	0x3bc8f3e1	0.0061325883
60	0x3d1dce16	0.038526617
61	0x3d853ae3	0.065053724
62	0xbd2580e1	-0.04040611
63	0xbc3ef8af	-0.0116559705
64	0xb8fbc568	-0.000120053825
65	0x3db3b314	0.08774391
66	0x3da1899c	0.07887575
67	0xbd48e5d7	-0.049047317
68	0x3d7d3f4f	0.061827954
69	0x3cfaf63a	0.030634988
70	0xbca1142d	-0.01966294
71	0x3cfdbdf5	0.030974368
72	0x3bd37719	0.0064534065
73	0xbdc90d62	-0.09817006
74	0x3aaa6de8	0.0013002725
75	0xbbddd9f7	-0.006770368
76	0xbd9fd39b	-0.078040324
77	0x3cd7d67e	0.026347395
78	0x3d9dc3a0	0.07703328
79	0xbb35151c	-0.002763099
80	0xbe037aed	-0.12839861
81	0x3cf9eaae	0.030507412
82	0x3d7bd3e8	0.061481386
83	0xbd267e71	-0.040647928
84	0x3cab777f	0.020931004
85	0xbc947376	-0.018121462
86	0xbc92e0cf	-0.017929463
87	0x3d9afb6d	0.07567487
88	0xbd3c1152	-0.045914955
89	0xbb46900c	-0.003029826
90	0xbd1c1a54	-0.038111046
91	0x3c53d92f	0.012930199
92	0xb9ddcc5c	-0.00042304664
93	0x3da09aaf	0.078420036
94	0xbe46c0b2	-0.19409445
95	0x3d524280	0.05133295
96	0xbe06aee2	-0.1315265
97	0xbcfee3ba	-0.031114448
98	0x3c0edb60	0.008719295
99	0x3cc0aa05	0.023518572
100	0xbd8de4a2	-0.06928374
101	0x3d8d650f	0.06904041
102	0xbd862429	-0.06549866
103	0xbbf47f9c	-0.0074615013
104	0xbd91f609	-0.071270056
105	0xbca3e927	-0.020008637
106	0x3dea5d04	0.114435226
107	0xbd895136	-0.06704943
108	0x3b1eb235	0.0024215106
109	0x3d9141b1	0.07092608
110	0xbcc5ed85	-0.02416111
111	0x3d0f7f6c	0.03503363
112	0x3c9c1d37	0.0190569
113	0x3d648ff1	0.055801336
114	0xbd26bfcb	-0.04071025
115	0x3cf01439	0.029306518
116	0xbc546133	-0.012962627
117	0xbd43b520	-0.047780156
118	0xbd950a40	-0.07277346
119	0x3d9e048a	0.077157095
120	0x3c942d20	0.018087924
121	0x3c998066	0.018737983
122	0x3be4761f	0.006972089
123	0xbc8a9aa6	-0.016919445
124	0x3c5d2950	0.013498619
125	0x3cc74d03	0.024328714
126	0xbd3618b2	-0.044457145
127	0x3db49379	0.08817191
128	0x3ce3a8a6	0.027790379
129	0x3dfb018f	0.12256157
130	0xbd873c92	-0.0660335
131	0x3cc60eaa	0.024176914
132	0x3d0bfff1	0.03417963
133	0xbd977e57	-0.07397144
134	0xbd5b8819	-0.05359659
135	0x3d6c4a18	0.05768785
136	0x3cfb74ed	0.030695403
137	0xbc151785	-0.009099846
138	0xbd5194d6	-0.05116733
139	0xbd7fbf33	-0.0624382
140	0x3d5781b9	0.052613948
141	0xbc5fdb5c	-0.013663139
142	0xbcd062f9	-0.025437819
143	0xbd049428	-0.032367855
144	0x3ce419ef	0.027844397
145	0xbd24657e	-0.040135853
146	0x3c965ae7	0.018353892
147	0xbbb14c86	-0.0054107336
148	0x3dbca01d	0.09210227
149	0xbd025951	-0.03182346
150	0xbe019437	-0.12654196
151	0x3d047df5	0.032346684
152	0xbd2213fc	-0.03956984
153	0xbbbd18e9	-0.005770792
154	0x3d1b9633	0.037985038
155	0x3e18eec6	0.14934835
156	0xbd6bb242	-0.057543047
157	0xbd0ecea7	-0.034865048
158	0xbc9614ec	-0.018320523
159	0xbccb56a2	-0.024821583
160	0xbd023481	-0.031788353
161	0x3dc4874c	0.09596118
162	0x3cff63e7	0.031175567
163	0x3cdeacf2	0.027182076
164	0xbda2bd5e	-0.07946275
165	0x3c718788	0.014741786
166	0xbcbcce76	-0.023047667
167	0xbc611ff2	-0.0137405265
168	0x3c282a17	0.010263941
169	0xbd83ec02	-0.06441499
170	0x3c897120	0.016777575
171	0x3c7482b0	0.014923736
172	0x3da8b510	0.0823766
173	0x3cedc912	0.029026542
174	0x3d85a874	0.065262705
175	0x3c9ad84d	0.018901968
176	0xbd521f53	-0.051299404
177	0x3d2b3603	0.041799556
178	0x3ba107dc	0.004914267
179	0x3ce7a1d2	0.028275404
180	0xbd573d2b	-0.05254857
181	0xba802f5e	-0.0009779742
182	0xbc32d5c2	-0.010915222
183	0x3cf1aed8	0.029502317
184	0xbdf6d544	-0.12052396
185	0x3d0c2d33	0.034222793
186	0x3c9a9b7b	0.018872967
187	0xbc5fff08	-0.013671644
188	0xbd2c38f7	-0.042046513
189	0xbd7803d4	-0.060550526
190	0x3d16b3f3	0.036792707
191	0x3cb690c0	0.022285819
192	0x3b87553e	0.0041300347
193	0xbdc6e38c	-0.0971137
194	0xbd86fc39	-0.065910764
195	0x3d16e0b3	0.036835384
196	0xbd953b58	-0.072867095
197	0xbc20c2f5	-0.009812106
198	0xbbeb82fe	-0.0071872463
199	0xbd4da5c8	-0.05020693
200	0xbb0593c0	-0.0020382255
201	0x3d890db5	0.066920675
202	0x3b0dbb26	0.0021626442
203	0xbc36e474	-0.011162866
204	0x3d944221	0.072391756
205	0xbc0ede1a	-0.008719945
206	0xbd7c5296	-0.061602198
207	0xbca29e17	-0.019850774
208	0x3dfc3ec7	0.12316661
209	0xbd1ac9a2	-0.03778995
210	0xbcc6f743	-0.024287825
211	0x3d679778	0.056540936
212	0xbce4e370	-0.027940482
213	0x3bca598b	0.006175225
214	0x3d357335	0.044299323
215	0xbd8514cb	-0.064981066
216	0x3d72526a	0.059160627
217	0xbbb26df2	-0.0054452354
218	0x3d1199c4	0.035547033
219	0xbbb2395c	-0.0054389667
220	0x3c916ef3	0.0177531
221	0xbd96ebbe	-0.07369183
222	0x3e5c18e9	0.21493877
223	0xbd951910	-0.07280171
224	0x3deb7bdd	0.114982344
225	0x3d33c469	0.043888483
226	0x3c2b8f79	0.010471218
227	0xbc5bff52	-0.013427572
228	0x3d7dd545	0.061970968
229	0xbd8a0338	-0.06738895
230	0x3d363983	0.04448844
231	0xbc11e294	-0.008904118
232	0x3d95ae28	0.07308608
233	0x3d08d5f1	0.033407155
234	0xbe03f51f	-0.12886475
235	0x3d817108	0.06320387
236	0xbb6c16e4	-0.0036024386
237	0xbd96e848	-0.07368523
238	0x3c91e518	0.017809436
239	0xbcc9c993	-0.02463225
240	0xbcdaa351	-0.026689203
241	0xbd80cccb	-0.06289061
242	0x3d1085c6	0.035283826
243	0xbc7e4100	-0.015518427
244	0x3d0400dd	0.032227386
245	0x3d985f23	0.07440021
246	0x3d9cbeba	0.07653566
247	0xbda2c964	-0.079485685
248	0xbcd89fb3	-0.026443338
249	0xbcc0276e	-0.023456302
250	0xbaa2c774	-0.0012419061
251	0x3cb5bc01	0.022184374
252	0xbb8a0d33	-0.0042129993
253	0xbd157dc5	-0.036496896
254	0x3cbcb219	0.023034142
255	0xbda09bdc	-0.07842228

distribution.branches.0.bias f4 [2]
0	0xbdbb2c47	-0.091393046
1	0x3dbb2c47	0.091393046

distribution.branches.1.weight f4 [3, 128]
0	0x3c75dfc5	0.015006964
1	0x3994b1e0	0.00028361287
2	0xba137193	-0.0005624529
3	0xbd08bbc3	-0.03338219
4	0xbc35d8b5	-0.01109903
5	0xbc9362fb	-0.017991534
6	0x3cb32974	0.021870352
7	0xbbb91f50	-0.0056494847
8	0xbd06571e	-0.032797925
9	0xbcfc6059	-0.03080766
10	0x3d36c08d	0.044617224
11	0xbd6a3b03	-0.057185184
12	0x3afdacd5	0.0019353876
13	0xbc193896	-0.00935187
14	0xbce7fdcc	-0.028319262
15	0x3d341bbe	0.04397177
16	0x3ccb129e	0.02478915
17	0xbc946111	-0.018112691
18	0xbcaf14c3	-0.021372205
19	0xbc1551b1	-0.009113715
20	0xbbf57e66	-0.0074918745
21	0x3c0192f4	0.0079085715
22	0x3d42ef5d	0.047591556
23	0x3b63dad4	0.0034767883
24	0xbc90bbdb	-0.017667701
25	0xbbe01606	-0.006838563
26	0x3ce1d08c	0.027565263
27	0x3cda083e	0.026615258
28	0xbb4233dd	-0.0029632964
29	0x3c654b1e	0.01399496
30	0xbbe3f049	-0.0069561345
31	0xbc36ff47	-0.011169261
32	0xbcff1c89	-0.031141536
33	0x3c927ed2	0.017882738
34	0x3c9a3088	0.01882197
35	0x3bd31e0b	0.0064427904
36	0x3d1db2da	0.038500644
37	0xbd3f525c	-0.046709403
38	0xbcf010f0	-0.029304951
39	0xbcf1bd81	-0.029509308
40	0x3ab2fadf	0.0013655088
41	0x3b3e8ffa	0.0029077516
42	0xbc7dac53	-0.01548298
43	0x3a7878c1	0.0009478443
44	0x3caa4e45	0.020789275
45	0x3d4368f2	0.047707506
46	0xbb996103	-0.004680754
47	0xbd206aa1	-0.03916419
48	0xbc35a934	-0.011087704
49	0xbc7bbc2f	-0.015364691
50	0xbc3fcc10	-0.011706367
51	0x3cd2cca7	0.025732351
52	0xbc5ac537	-0.013352684
53	0xbcda58f4	-0.026653744
54	0xbba8a960	-0.005147144
55	0xbc1131f7	-0.00886201
56	0x3d281571	0.041036073
57	0x3d1e9efd	0.03872584
58	0xbb8fda1b	-0.004390014
59	0x3b8024c0	0.003910631
60	0xbcbb846c	-0.022890292
61	0xbc1d21fd	-0.009590623
62	0x3b1140cb	0.0022163864
63	0xbc5d674c	-0.013513397
64	0xbbb4c1e4	-0.0055162776
65	0x3c956a7b	0.01823925
66	0x3d69cfc5	0.05708291
67	0xbc6f92e4	-0.014622424
68	0x3c13e924	0.009027753
69	0xbca70b01	-0.02039099
70	0xbcdbb83c	-0.026821248
71	0xbd971e79	-0.07378859
72	0xbda99478	-0.08280271
73	0x3ce77bcb	0.028257271
74	0x3cf94db4	0.03043256
75	0xbce8b944	-0.028408654
76	0xbc886bff	-0.016653059
77	0xbb856f78	-0.004072126
78	0x3d193c57	0.03741106
79	0xba942b1b	-0.001130435
80	0xbc3f6a7e	-0.011683105
81	0xbba6b92c	-0.005087992
82	0xbbd1cb43	-0.0064024045
83	0x3c26cd45	0.010180776
84	0x3bb87197	0.0056287753
85	0x3ce5ee9a	0.028067876
86	0xbd1b817d	-0.037965287
87	0xbc0d0863	-0.008607957
88	0x3d68b841	0.056816343
89	0xbcaf1029	-0.02137001
90	0x3b7ade53	0.0038279488
91	0x3cc70f95	0.024299422
92	0x3d3cb304	0.04606916
93	0x3d92cafe	0.07167624
94	0x3c8b35d3	0.016993439
95	0xbc2287ea	-0.0099201
96	0xbbb96294	-0.0056575034
97	0xbc24d109	-0.0100596035
98	0xbcdf8589	-0.027285354
99	0x396993f0	0.00022275723
100	0xbcdbf302	-0.026849274
101	0x3d96f28b	0.0737048
102	0xbc23e10b	-0.010002385
103	0xbcf95790	-0.03043726
104	0x3d33074b	0.043708127
105	0xbca76ca5	-0.020437548
106	0x3d6479dc	0.055780277
107	0x39fecd99	0.00048599837
108	0xbca2fe36	-0.019896608
109	0xbd2e0bfd	-0.0424919
110	0xbc9e9275	-0.019356946
111	0xb9d47c6f	-0.000405285
112	0x3c2d283b	0.010568674
113	0x3cdc4285	0.026887188
114	0xbc8cc6df	-0.017184673
115	0x3b8d05c6	0.0043036668
116	0x3d1cc3ee	0.03827279
117	0xbd30a165	-0.043122668
118	0xbc5b28c6	-0.01337642
119	0x3c89e9fb	0.016835203
120	0x3d1ab419	0.03776941
121	0xbb884b6a	-0.0041593807
122	0xbccbf050	-0.024894863
123	0xba993d0d	-0.0011691168
124	0xbc871c3c	-0.016492955
125	0xbd03eb6b	-0.032206934
126	0xbc91d0e6	-0.017799806
127	0x3d89b0e3	0.067231916
128	0x3de0abb4	0.1097025
129	0x3a2f380b	0.0006684071
130	0xbdb20b2f	-0.08693539
131	0x39b34b55	0.00034197667
132	0xbcdebf4b	-0.027190825
133	0x3ce1e0de	0.027573045
134	0x3a8aad2e	0.0010580176
135	0xbdfb1d3b	-0.12261435
136	0xbc0c7b26	-0.008574283
137	0x3d184cd1	0.037182633
138	0x3bddabfc	0.006764887
139	0x3a77fe0b	0.00094601576
140	0x3d4cd853	0.05001099
141	0xbd334a08	-0.043771774
142	0xbd4b7f47	-0.049681928
143	0x3dbd793f	0.092516415
144	0xbe24ef85	-0.16106994
145	0xbe2239d3	-0.1584237
146	0xbe2b4b30	-0.167279
147	0x3db6b33f	0.08920907
148	0x3d5a695d	0.05332314
149	0xbe0f6cff	-0.14006422
150	0xbcd23d15	-0.025663892
151	0x3daafcf9	0.08349032
152	0xbd4037f5	-0.046928365
153	0xbde1a625	-0.11018018
154	0x3d9113e8	0.07083875
155	0x3d4f97d2	0.050681897
156	0x3dc0050a	0.09375961
157	0x3d900e67	0.07033997
158	0xbd9fa3a7	-0.07794886
159	0xbdccd690	-0.10001862
160	0xbd79e961	-0.061013583
161	0x3dbe30c0	0.09286642
162	0xbdd91a34	-0.10600701
163	0xbd800416	-0.06250779
164	0x3d5d4db0	0.054029167
165	0x3da9fa2c	0.082996696
166	0x3da3aa79	0.079914995
167	0xbdd6daf4	-0.10490981
168	0xbdd268aa	-0.10273869
169	0xbd1a8602	-0.037725456
170	0xbd53424a	-0.05157689
171	0xbde88cd3	-0.11354985
172	0xbd18220f	-0.037141856
173	0x3d649b8e	0.05581241
174	0xbd716265	-0.058931727
175	0x3d3bbbd9	0.045833442
176	0xbab83369	-0.0014053407
177	0x3c7e0ddb	0.015506233
178	0xbe08a716	-0.13344988
179	0x3e05aad8	0.13053453
180	0xbc3a788a	-0.011381278
181	0xbdc80476	-0.09766476
182	0xbe33b37d	-0.17548938
183	0x3dc683b6	0.096930906
184	0x3c1a6c4f	0.009425237
185	0x3daa0fb4	0.083037764
186	0x3d561f74	0.05227609
187	0xbde602e1	-0.11231018
188	0xbd69effc	-0.057113633
189	0x3d41431b	0.047183137
190	0xbdedc3cc	-0.11609611
191	0xbd90b42c	-0.07065615
192	0x3dcfb7f1	0.10142506
193	0x3d021ad0	0.03176385
194	0xbd7c6be0	-0.061626315
195	0xbdf9b446	-0.121925876
196	0xbcdb06e4	-0.026736684
197	0xbe00ac68	-0.12565768
198	0xbd715b16	-0.058924757
199	0x3d70ca73	0.05878682
200	0x3d16f413	0.03685386
201	0x3dd5d172	0.10440339
202	0xbe09733a	-0.13422862
203	0xbdafeac6	-0.08589701
204	0x3dc5b698	0.096539676
205	0xbcceb440	-0.025232434
206	0x3d38e355	0.045138676
207	0xbe50725a	-0.20356122
208	0x3d7aed0c	0.06126122
209	0x3e191009	0.14947523
210	0xbdc2d8c4	-0.09514001
211	0xbdb3149f	-0.087441675
212	0x3db75f1c	0.089536875
213	0xbe1cc39e	-0.15308997
214	0xbdfef0a6	-0.12448244
215	0xbcfb9f3d	-0.03071558
216	0x3da6aadd	0.08138058
217	0xbd7c73e6	-0.061633967
218	0xbdc302ec	-0.09522042
219	0x3d7263f4	0.059177354
220	0x3dddc03b	0.10827681
221	0x3c15f21f	0.009151964
222	0x3d4d605d	0.050140727
223	0x3d097c82	0.033566006
224	0xbb692573	-0.00355753
225	0xbdefed73	-0.11715212
226	0xbe204aef	-0.15653585
227	0xbe124a14	-0.14286071
228	0xbcaae59d	-0.020861441
229	0xbd616022	-0.05502332
230	0x3cd30460	0.025758922
231	0xbcc6d115	-0.02426962
232	0x3d414e29	0.04719368
233	0x3ce1ade4	0.027548738
234	0x3c713324	0.0147216655
235	0x3db3670d	0.0875989
236	0xbd24271b	-0.040076356
237	0x3def2d47	0.11678558
238	0xbd860714	-0.06544319
239	0xbe10ea57	-0.14151894
240	0xbe18968b	-0.14901178
241	0x3b556c36	0.003256572
242	0x3d1d2c89	0.03837255
243	0x3e05f95a	0.13083401
244	0xbe05d667	-0.13070069
245	0xbcca2127	-0.024674011
246	0x3aa08c8d	0.0012248919
247	0x3d58a128	0.052888066
248	0xbe0c4514	-0.13698226
249	0x3e0b7cdc	0.13621849
250	0xbd5112a4	-0.051043168
251	0x3ddf7646	0.10911231
252	0xbc3c101a	-0.011478448
253	0x3db05618	0.08610171
254	0x3d3b417b	0.045716744
255	0xbd5c7aff	-0.053828236

distribution.branches.1.bias f4 [3]
0	0x3cd0c358	0.025483772
1	0xbd2e2d17	-0.04252347
2	0x3c428277	0.011871926

critic.network_body.vector_processors.0.normalizer.running_mean f4 [9]
0	0x417fe48a	15.993296
1	0x3fbdecb4	1.4837861
2	0xbd04c9d4	-0.03241904
3	0x4024b130	2.5733147
4	0x3f88b1ac	1.0679221
5	0x3eae37f7	0.34027073
6	0x4104700f	8.277358
7	0x3de3afd2	0.111175194
8	0x3e8ee9fc	0.2791289

critic.network_body.vector_processors.0.normalizer.running_variance f4 [9]
0	0x4a21653e	2.6443035e+06
1	0x48b8ba9d	378324.9
2	0x4a7dc382	4.1576645e+06
3	0x4c0f0f40	3.750221e+07
4	0x4909e89e	564873.9
5	0x49be1301	1.5570881e+06
6	0x4b560dbb	1.4028219e+07
7	0x4a1fbac0	2.617008e+06
8	0x4a24478a	2.6915545e+06
