results/BallJumpNN/BallAgent/BallAgent-999974.onnx (onnx, 143300 bytes, 12 tensors)

82 f4 [9]
0	0x4012dd22	2.2947469
1	0x3f5e5cb5	0.8686021
2	0x4038d553	2.8880203
3	0x410a3ea2	8.640291
4	0x3f91dda6	1.1395767
5	0x3fbd61c7	1.4795464
6	0x40a5fc95	5.187083
7	0x40177df3	2.3670623
8	0x4007d2ae	2.1222339

distribution.branches.0.bias f4 [2]
0	0xbde7b79a	-0.11314316
1	0x3de7b79a	0.11314316

distribution.branches.0.weight f4 [2, 128]
0	0xbba6af67	-0.0050868276
1	0xbe2e7f1c	-0.17040676
2	0x3da1348b	0.0787135
3	0x3b91e4ce	0.0044523245
4	0xbd1c03d6	-0.038089596
5	0x3dece244	0.11566594
6	0x3dc6f245	0.09714178
7	0xbd968b2b	-0.07350763
8	0xbd8bef05	-0.06832699
9	0x3cdffdeb	0.027342757
10	0x3da2819b	0.079348765
11	0x3d83a443	0.06427815
12	0xbdca0352	-0.098639145
13	0x3aeb475e	0.0017950346
14	0x3d0a20f2	0.033722825
15	0x3d6c2a4f	0.057657536
16	0xbcdfceb9	-0.027320253
17	0x3da807ac	0.08204588
18	0xbca6c316	-0.020356696
19	0x3cc18c90	0.023626596
20	0xbe13f914	-0.14450485
21	0x3d07218a	0.03299097
22	0x3e158c7c	0.14604372
23	0xbcf27141	-0.02959502
24	0x3cbb8ecb	0.022895237
25	0x3b3cbd20	0.002879925
26	0xbd10dbeb	-0.03536598
27	0xbe36f4b5	-0.17866786
28	0x3d9cf477	0.076638155
29	0x3d6f48f8	0.058419198
30	0x3c89bd49	0.016813891
31	0x3c8956ca	0.016765017
32	0x3cbef4dd	0.02331012
33	0xbdec2518	-0.115305126
34	0xbd1cc6cf	-0.038275536
35	0x3c03d8a3	0.008047256
36	0x3dc3b809	0.09556586
37	0x3bbc1727	0.0057400647
38	0x3d12fbac	0.035884544
39	0xbb92b7c3	-0.0044774725
40	0x3c1e020d	0.009644044
41	0x3da4bc4e	0.08043729
42	0x3a20a003	0.0006127359
43	0xbc72f169	-0.0148280645
44	0xbdc2aaee	-0.095052585
45	0xbd60369d	-0.054739583
46	0xbd6b2b7e	-0.057414524
47	0xbc23534d	-0.009968591
48	0x3d6daeda	0.05802808
49	0xbd77d199	-0.060502622
50	0x3bcae2a1	0.006191567
51	0x39c0e71b	0.0003679328
52	0x3d5ae9e0	0.053445697
53	0xbc1a999b	-0.009436036
54	0x3ca964d6	0.020677965
55	0xbd6a137a	-0.05714748
56	0x3e17cae9	0.14823498
57	0xbcf00638	-0.02929984
58	0xbce2196d	-0.027600015
59	0x3c140fd5	0.009036978
60	0x3d5f7bf0	0.054561555
61	0x3dca4934	0.09877244
62	0xbd0d21af	-0.03445595
63	0xbbed8d79	-0.007249531
64	0x3bcb09b9	0.0061962274
65	0x3dbaecf1	0.09127224
66	0x3dbe7689	0.092999525
67	0xbd59d53b	-0.053181868
68	0x3d949f1d	0.07256911
69	0x3cb80a92	0.022465978
70	0x3c1aa7c9	0.009439417
71	0x3d7490aa	0.059708275
72	0x3ce64abe	0.028111812
73	0xbdf8e643	-0.12153294
74	0x3b2c968c	0.002633485
75	0xbc8cf7f6	-0.01720808
76	0xbde77855	-0.113022484
77	0x3d455bd4	0.048183277
78	0x3dd0e422	0.10199763
79	0xbbbe54ea	-0.0058084624
80	0xbe2d0eab	-0.16900127
81	0x3d4b5697	0.049643125
82	0x3d85a79b	0.06526109
83	0xbcf670a3	-0.030083006
84	0x3d34ca23	0.044138085
85	0xbcafc55c	-0.021456413
86	0xbcd73011	-0.026268037
87	0x3dba0c9a	0.09084435
88	0xbd51aefe	-0.051192276
89	0xbb9709d9	-0.004609328
90	0xbd2ad860	-0.041710258
91	0x3d2f3396	0.042773806
92	0x3c6c9cb9	0.0144416625
93	0x3db92b01	0.090414055
94	0xbe6d7330	-0.23188472
95	0x3d59cba8	0.053172737
96	0xbe4d34ee	-0.20039722
97	0xbc8681ff	-0.016419409
98	0x3c834395	0.016023437
99	0x3cdf06c6	0.02722491
100	0xbda7abe1	-0.0818708
101	0x3db8a3c0	0.09015608
102	0xbd7d6311	-0.061862055
103	0x3d051c9d	0.03249799
104	0xbd88bbeb	-0.066764675
105	0x3b14116f	0.00225934
106	0x3e10e859	0.14151134
107	0xbda42289	-0.080143996
108	0x3cd64733	0.026156997
109	0x3d9bb417	0.07602709
110	0xbd3d6d8c	-0.04624705
111	0x3d64ced1	0.055861298
112	0x3ca472ea	0.020074327
113	0x3d9def12	0.07711615
114	0xbd1c8bd6	-0.038219295
115	0x3d59343a	0.053028323
116	0xbc9210d3	-0.017830288
117	0xbdab0da5	-0.08352212
118	0xbdd1ae1f	-0.10238289
119	0x3dd44ef4	0.103666216
120	0x3cc53810	0.024074584
121	0x3d3b1442	0.045673616
122	0xbb0ae9b2	-0.0021196422
123	0xbbdcf5d3	-0.0067431717
124	0xbbe20a78	-0.0068982206
125	0x3d5a0630	0.053228557
126	0xbc9e5ed4	-0.019332327
127	0x3dd5edd9	0.104457565
128	0x3c870d58	0.016485855
129	0x3e3b0ba9	0.18266167
130	0xbdab9929	-0.08378822
131	0x3c681b50	0.014166668
132	0x3cbe1374	0.023202635
133	0xbde76430	-0.11298406
134	0xbdb09e0d	-0.08623896
135	0x3d8dce91	0.06924165
136	0x3d2f266f	0.042761263
137	0xbcd6e79f	-0.026233492
138	0xbd9e0b5b	-0.0771701
139	0xbd7fcba4	-0.062450066
140	0x3db6b89b	0.089219294
141	0xbb34a0e9	-0.002756173
142	0xbcd61b20	-0.026135981
143	0xbd488bc4	-0.048961416
144	0x3d08f5d6	0.033437572
145	0xbd841b16	-0.06450479
146	0x3cc0482e	0.023471918
147	0xbcbdfd42	-0.023192052
148	0x3e0e3ee2	0.13891175
149	0xbd1243e8	-0.03570929
150	0xbe1f22c3	-0.15540604
151	0x3cc56b0e	0.0240989
152	0xbd30e19d	-0.04318391
153	0xbb867c4b	-0.0041041723
154	0x3cd88a26	0.026433062
155	0x3e3e0c4f	0.18559383
156	0xbda6c58a	-0.08143146
157	0xbd7e86f6	-0.062140428
158	0xbcad519d	-0.02115708
159	0xbca2e5ac	-0.019884907
160	0xbd14771d	-0.036246408
161	0x3e060923	0.13089423
162	0x3d3482f8	0.044070214
163	0x3b0cb927	0.0021472664
164	0xbdd3ecc1	-0.103478916
165	0xbbdccc36	-0.006738211
166	0xbd4095f5	-0.04701801
167	0xbc1d789c	-0.009611275
168	0x3c0f7308	0.008755453
169	0xbdc01bcd	-0.093803026
170	0x3b8c1ecc	0.004276132
171	0x3c96e36e	0.018418994
172	0x3de655e5	0.11246852
173	0x3d3aca8e	0.045603327
174	0x3d59477b	0.053046685
175	0x3c2aa3b8	0.01041501
176	0xbd445b41	-0.04793859
177	0x3d6a855d	0.05725609
178	0x3b8599f1	0.004077189
179	0x3ccedf59	0.025252985
180	0xbd87ee59	-0.06637258
181	0xbb522a91	-0.0032068829
182	0xbc6b89ee	-0.014376147
183	0x3d0b4af3	0.034007024
184	0xbe1e2954	-0.15445453
185	0x3d1f5291	0.0388971
186	0x3c9b7d1a	0.018980552
187	0xbc87ca91	-0.016576083
188	0xbd6de6d1	-0.05808145
189	0xbdc11032	-0.09426917
190	0x3cfca9b8	0.030842647
191	0x3c9277ef	0.017879454
192	0xbb0f4739	-0.002186252
193	0xbdce1d69	-0.10064203
194	0xbda3e926	-0.08003454
195	0x3d27d000	0.04096985
196	0xbdab3ace	-0.083608255
197	0xbad75b49	-0.0016430403
198	0xbd14a45d	-0.03628956
199	0xbda1abaf	-0.07894074
200	0xbcc21f84	-0.023696668
201	0x3db8e696	0.09028356
202	0x3a596d68	0.0008294196
203	0xba3e19c3	-0.00072517636
204	0x3ddbe6db	0.107373916
205	0xbcfa5028	-0.0305558
206	0xbdb149c7	-0.0865665
207	0xbc89ab93	-0.016805446
208	0x3e27b31f	0.16376923
209	0xbd692adc	-0.05692564
210	0xbce5edb5	-0.02806745
211	0x3d3c5154	0.045975998
212	0xbd518000	-0.05114746
213	0x3c1bd075	0.009510149
214	0x3d579aaf	0.052637752
215	0xbda425f8	-0.080150545
216	0x3d83f80e	0.06443797
217	0xbb7d584f	-0.0038657372
218	0x3d2057d6	0.039146267
219	0xbd108466	-0.035282515
220	0x3b3d4adc	0.002888373
221	0xbdaf7c10	-0.08568585
222	0x3e81659c	0.25272834
223	0xbd98ddec	-0.07464203
224	0x3e3c43f6	0.183853
225	0x3cef26cb	0.029193303
226	0x3b4f8eda	0.003167084
227	0xbc8c5c55	-0.017133871
228	0x3d98b1f8	0.0745582
229	0xbdb541e9	-0.08850462
230	0x3d27541b	0.040851694
231	0xbd482532	-0.048863597
232	0x3d8c740b	0.06858071
233	0x3c3680de	0.011139123
234	0xbe1faed8	-0.15594041
235	0x3d9c425b	0.07629844
236	0xbcdff3c4	-0.027337916
237	0xbda15aae	-0.07878624
238	0x3d236951	0.03989536
239	0xbd3a341e	-0.04545986
240	0xbce2f91d	-0.027706677
241	0xbdac73d1	-0.08420528
242	0x3d0651ce	0.03279286
243	0xbd20ba56	-0.039240204
244	0x3d17f0fc	0.037095055
245	0x3de19221	0.110142
246	0x3dd96299	0.10614509
247	0xbdd913ce	-0.105994806
248	0xbd04d566	-0.032430075
249	0xbd4e67b3	-0.050391864
250	0x3c009c8b	0.007849823
251	0x3c44bd3d	0.012008009
252	0x3c84940b	0.016183874
253	0xbd85eeae	-0.06539665
254	0xbb090399	-0.0020906685
255	0xbdc1f63c	-0.094707936

distribution.branches.1.bias f4 [3]
0	0x3d200973	0.03907151
1	0xbd51fe97	-0.051268186
2	0x3c0a5295	0.008442541

distribution.branches.1.weight f4 [3, 128]
0	0x3c4791d8	0.012180768
1	0xbbde547b	-0.006784973
2	0x3bc27471	0.005934291
3	0xbd3cbff1	-0.046081487
4	0xbd1a0972	-0.037606664
5	0x3c5bc908	0.013414629
6	0x3cd22643	0.02565301
7	0x39414dd6	0.0001843491
8	0xbd4541a3	-0.0481583
9	0x3bccc5a2	0.0062491456
10	0x3d4b0f99	0.049575422
11	0xbd59954e	-0.053120904
12	0xbc6e66e5	-0.014550899
13	0x3d141798	0.036155313
14	0xbcd3f01f	-0.025871335
15	0x3d640767	0.055671122
16	0x3d0b369d	0.03398763
17	0xbce3f2ff	-0.02782583
18	0xbc9eb562	-0.0193736
19	0xbc54d32d	-0.012989801
20	0xbc824299	-0.015900897
21	0x3c98bd1c	0.018644862
22	0x3d488587	0.048955467
23	0x3b942e05	0.0045220875
24	0xbc1d7133	-0.009609508
25	0x3a7234e9	0.00092394516
26	0x3ccd2d8a	0.025046129
27	0x3c4f0f2d	0.0126378955
28	0xba20176f	-0.00061070075
29	0x3cc4ad94	0.02400855
30	0x3c00eb14	0.007868547
31	0x3c2796aa	0.010228792
32	0xbc63cd40	-0.013903916
33	0x3c28c5c6	0.010301059
34	0x3d2e685e	0.04258
35	0xbbfc1f4a	-0.0076941596
36	0x3d3a6d7c	0.04551457
37	0xbd92b76d	-0.07163892
38	0xbcb10790	-0.021610051
39	0xbbda8223	-0.0066683455
40	0x3b278ce8	0.0025566164
41	0x3c4a6e8e	0.01235546
42	0xbd171593	-0.03688581
43	0x3c5d6d24	0.013514791
44	0x3cc50cda	0.02405398
45	0x3d651260	0.055925727
46	0xbc8b00db	-0.016968181
47	0xbd83a6f5	-0.06428329
48	0x3b4dd496	0.0031407229
49	0xbcbf3849	-0.023342269
50	0xbbfe492c	-0.0077601876
51	0x3d0f3576	0.034963094
52	0xbc82a32f	-0.015946953
53	0xbca01d5d	-0.019545252
54	0xbc858484	-0.01629854
55	0xbb1e3064	-0.002413773
56	0x3d1a78c1	0.037712816
57	0x3d0dfdb3	0.034665775
58	0x39b46abd	0.00034411802
59	0x3bda15e0	0.0066554397
60	0xbc5210d1	-0.012821392
61	0xbb352c88	-0.002764495
62	0x3c0d0ccd	0.008609009
63	0xbc853dad	-0.01626476
64	0xbc67132f	-0.014103695
65	0x3d252897	0.040321913
66	0x3d839eb3	0.06426754
67	0x3a791306	0.0009501431
68	0x3d1ea3ab	0.038730305
69	0xbd22857d	-0.039678086
70	0xbd33b80a	-0.043876685
71	0xbdd78d1a	-0.1052496
72	0xbd985bbb	-0.07439371
73	0x3cb68c06	0.022283565
74	0x3d15bb4d	0.036555577
75	0xbc1d1f4a	-0.009589979
76	0xbd159816	-0.036521994
77	0x3cd13e89	0.025542514
78	0x3d540968	0.051766783
79	0xbb8d4ee3	-0.0043123825
80	0xbcb25590	-0.021769315
81	0x3b55e41b	0.0032637182
82	0x3c105d6a	0.008811334
83	0x3c0784ac	0.0082713775
84	0x3c7d4f52	0.015460806
85	0x3d0eafde	0.03483569
86	0xbd2eb9f2	-0.0426578
87	0x3c896929	0.016773777
88	0x3d87787e	0.06614779
89	0xbc288266	-0.010284996
90	0x3ad97a5c	0.0016592252
91	0x3cc1595c	0.02360218
92	0x3d62ea36	0.055399142
93	0x3da390e0	0.07986617
94	0x3c1ca241	0.009560169
95	0x3c405e88	0.011741288
96	0xbc3e1cab	-0.011603515
97	0xbc33e607	-0.010980136
98	0xbc7422b0	-0.014900848
99	0x3c57d331	0.013172911
100	0xbcea891f	-0.028629838
101	0x3d91edd0	0.07125437
102	0xbd4cd3bf	-0.050006624
103	0xbdca97a8	-0.098922074
104	0x3d3d5d60	0.046231627
105	0xbd34b79f	-0.044120427
106	0x3d615687	0.05501416
107	0x3af188fa	0.0018427663
108	0xbd35bbc1	-0.04436851
109	0xbd1e8e48	-0.03870991
110	0xbc65feb8	-0.01403778
111	0xbc74984e	-0.01492889
112	0x3c8af915	0.016964475
113	0x3d17b541	0.03703809
114	0xbd651259	-0.0559257
115	0x3aefd40a	0.0018297445
116	0x3d3f9569	0.046773348
117	0xbd5f17a6	-0.054465912
118	0xbcec0b3a	-0.028813947
119	0x3cc95550	0.024576813
120	0x3d281503	0.041035663
121	0xbbbd2641	-0.0057723825
122	0xbc0d19d7	-0.008612118
123	0x3a6ae59e	0.0008960607
124	0x3d50ece0	0.05100715
125	0xbd1dc9d3	-0.038522553
126	0xbd86cc5d	-0.06581948
127	0x3da640de	0.08117841
128	0x3e12a9f6	0.14322647
129	0x3b9b24a2	0.0047345916
130	0xbdbaed5c	-0.09127304
131	0xbcacc632	-0.0210906
132	0xbcb70453	-0.02234093
133	0x3c85074e	0.016238835
134	0x3c669cc4	0.014075462
135	0xbe1dfdd1	-0.15428855
136	0xb9b3f17c	-0.0003432146
137	0x3cd9f799	0.026607322
138	0x3b871767	0.004122663
139	0xbb82c501	-0.00399077
140	0x3da0e3b7	0.07855933
141	0xbd7e1170	-0.06202835
142	0xbd8b8371	-0.0681218
143	0x3dc59c9c	0.096490115
144	0xbe40a30d	-0.18812199
145	0xbe304151	-0.17212416
146	0xbe602053	-0.2188733
147	0x3de3cc3f	0.11122941
148	0x3d8dc454	0.06922212
149	0xbe2b8fa4	-0.16754013
150	0xbcdb7f02	-0.02679396
151	0x3dde4112	0.10852255
152	0xbd4d4d92	-0.050122805
153	0xbe1aef42	-0.15130332
154	0x3dbc9f31	0.09210051
155	0x3d7ea861	0.062172297
156	0x3de039a1	0.10948492
157	0x3d92c018	0.07165545
158	0xbde81417	-0.11331957
159	0xbe04357a	-0.12911025
160	0xbdc8377f	-0.0977621
161	0x3df28869	0.118424244
162	0xbe0c7647	-0.13716994
163	0xbd8e8cf8	-0.069604814
164	0x3d55b00b	0.05216984
165	0x3dcae577	0.09907048
166	0x3d9fd1bf	0.07803678
167	0xbdf4b1bc	-0.11947963
168	0xbe03f760	-0.12887335
169	0xbd3f3b92	-0.04668767
170	0xbd7ec575	-0.06220003
171	0xbe00c792	-0.1257613
172	0xbd395284	-0.04524471
173	0x3d994225	0.07483319
174	0xbd9b3ee2	-0.07580353
175	0x3d54d8e9	0.051964674
176	0xbcb9518e	-0.022621896
177	0x3c819ed2	0.015822802
178	0xbe1c3e54	-0.15258151
179	0x3e175033	0.14776687
180	0x3b9509c8	0.004548285
181	0xbdf8fade	-0.12157224
182	0xbe527006	-0.20550546
183	0x3de4f416	0.11179368
184	0x3c97f208	0.018548027
185	0x3ddc2ef0	0.1075114
186	0x3d814b89	0.06313235
187	0xbe0a4646	-0.1350337
188	0xbdac4e16	-0.08413331
189	0x3d2b455b	0.04181419
190	0xbe170668	-0.14748538
191	0xbdb088ee	-0.08619867
192	0x3e003ff1	0.12524392
193	0x3c2cafa5	0.010539924
194	0xbd8dd00b	-0.06924447
195	0xbe264dec	-0.16240662
196	0xbd434ae2	-0.047678836
197	0xbe0c69c9	-0.13712229
198	0xbd98df95	-0.0746452
199	0x3d89530b	0.06705292
200	0x3c42b20c	0.01188327
201	0x3e03571e	0.12826201
202	0xbe1bb851	-0.1520703
203	0xbdb9c8b6	-0.09071486
204	0x3e02357e	0.12715718
205	0xbd8ee953	-0.06978097
206	0x3d2bf3f9	0.041980717
207	0xbe766c85	-0.24064834
208	0x3da61006	0.08108525
209	0x3e266995	0.16251214
210	0xbdeac530	-0.11463392
211	0xbdcfe535	-0.1015114
212	0x3dcf86b8	0.101331174
213	0xbe36a2eb	-0.17835586
214	0xbe13b0e2	-0.14422944
215	0xbd211f26	-0.039336346
216	0x3dc63c69	0.09679491
217	0xbde2a7c0	-0.11067152
218	0xbdfa9de5	-0.12237147
219	0x3db0ab80	0.08626461
220	0x3dfa6f85	0.12228302
221	0x3b7ed796	0.0038885823
222	0x3d610662	0.054937728
223	0x3c59749e	0.013272433
224	0x3c84fe54	0.016234554
225	0xbdfdd7c9	-0.123946734
226	0xbe4d5e77	-0.20055567
227	0xbe2c88a9	-0.16849007
228	0xbd2396f8	-0.039938897
229	0xbd83e657	-0.06440418
230	0x3d6f52b6	0.05842849
231	0x3c80b793	0.015712535
232	0x3d5f2d7a	0.05448673
233	0x3cf0bd75	0.029387215
234	0x3c3971b6	0.011318615
235	0x3ddb1e53	0.10699143
236	0xbd2f688f	-0.042824324
237	0x3de842de	0.11340879
238	0xbdce6a03	-0.10078814
239	0xbe1390bc	-0.1441068
240	0xbe360f83	-0.17779355
241	0x3b918181	0.004440487
242	0x3dacac1c	0.08431265
243	0x3e1c6598	0.1527313
244	0xbe1910d8	-0.14947832
245	0xbc8afcb7	-0.016966207
246	0x3af0559c	0.001833606
247	0x3d555946	0.05208709
248	0xbe26d712	-0.1629298
249	0x3e231a9c	0.1592812
250	0xbda3b96d	-0.079943515
251	0x3e010705	0.12600334
252	0xbd4606af	-0.048346218
253	0x3dda03e2	0.10645272
254	0x3d87307a	0.06601043
255	0xbd7cffe2	-0.061767466

network_body.linear_encoder.seq_layers.0.bias f4 [128]
0	0xbd314446	-0.043278
1	0x3dc17284	0.0944567
2	0x3e053561	0.13008644
3	0x3c15d299	0.009144449
4	0x3dfa73e2	0.12229134
5	0xbda3821c	-0.07983801
6	0xbbad49f0	-0.005288355
7	0x3e126852	0.14297608
8	0x3cf0573b	0.02933847
9	0x3e33726d	0.17524119
10	0xbccb2c5c	-0.024801426
11	0x3dc778c4	0.09739831
12	0xbd9f6be9	-0.07784254
13	0xbdc9669e	-0.09834026
14	0xbce60e21	-0.028082909
15	0x3dcca831	0.099930175
16	0xbda99658	-0.08280629
17	0x3d3a3f60	0.045470595
18	0x3d6fa701	0.058508877
19	0xbd1d285a	-0.03836856
20	0xbd15d00b	-0.03657536
21	0xbd6e99ef	-0.05825227
22	0x3db6155b	0.08890792
23	0xbd68a683	-0.056799423
24	0xbd14b65a	-0.036306717
25	0x3dfc3501	0.12314797
26	0xbd088b90	-0.033336222
27	0xbd6950d4	-0.05696185
28	0x3d93fef1	0.072263606
29	0xbd9eedb6	-0.077601835
30	0xbca0ed0a	-0.019644279
31	0x3e15516e	0.14581844
32	0x3d8c1552	0.06840004
33	0x3d481f82	0.048858173
34	0xbc1490ae	-0.009067697
35	0xbd1c7f3a	-0.03820727
36	0xbc089b30	-0.008337781
37	0xbce469a6	-0.027882408
38	0x3d040dcf	0.03223973
39	0x3ae5847a	0.0017510795
40	0xbd3951bf	-0.045243975
41	0x3df9b614	0.12192932
42	0xbdedab1e	-0.11604904
43	0x3d9b8032	0.07592811
44	0xbd0fe6a9	-0.035132084
45	0x3da5ba7b	0.08092209
46	0x3dff2796	0.12458722
47	0xbcd527b3	-0.026019907
48	0xbd215fad	-0.039397884
49	0xbdca3e7d	-0.098752
50	0xbe022e32	-0.12712935
51	0x3dd3eb9b	0.103476726
52	0x3d5e4ceb	0.054272573
53	0x3e3ec4a1	0.18629695
54	0x3d1b95aa	0.037984528
55	0x3e236033	0.15954666
56	0xbda799bf	-0.081836216
57	0x3c8b8688	0.017031923
58	0x3b493f79	0.0030707999
59	0x3d337dc0	0.043821096
60	0xbbc67a0c	-0.0060570296
61	0xbd4c1c29	-0.049831543
62	0x3da05a11	0.07829679
63	0x3d06c39c	0.03290139
64	0xbccbbecc	-0.024871252
65	0xbd1566d2	-0.03647501
66	0xbd1844b5	-0.0371749
67	0xbe165e8e	-0.14684507
68	0xbd0145ef	-0.031560834
69	0x3e183be5	0.14866598
70	0x3e3a68d5	0.18204053
71	0xbdae4004	-0.08508304
72	0xbde05733	-0.10954132
73	0x3c431d41	0.01190883
74	0xbd8082bf	-0.06274938
75	0xbe0862b9	-0.1331891
76	0xbbf82b32	-0.0075735087
77	0xbd8f7795	-0.0700523
78	0x3c96bd4d	0.018400813
79	0xbd277c8d	-0.040890265
80	0x3aac9110	0.0013165791
81	0xbc84db09	-0.016217725
82	0x3c74b26c	0.014935117
83	0x3d92ad85	0.071620025
84	0x3dffdda4	0.124934465
85	0xbd8c4c03	-0.068504356
86	0xbd228d1b	-0.03968535
87	0xbcc75ca7	-0.024336172
88	0x3e079ef8	0.13244236
89	0x3b2700e6	0.0025482713
90	0x3d80c005	0.06286625
91	0xbc97461c	-0.018466048
92	0x3e457a79	0.19285001
93	0xbd59ffe4	-0.053222552
94	0xbdb7ce26	-0.089748666
95	0xbcfc08c0	-0.030765891
96	0x3dfbdce6	0.122979924
97	0xbc9d6b7a	-0.019216288
98	0x3da8eff0	0.082488894
99	0x3ce6b54d	0.028162623
100	0x3d93a3da	0.072089866
101	0x3c4cb753	0.01249488
102	0xbdff7f5d	-0.124754645
103	0xba12ccff	-0.0005600005
104	0x3e2047fa	0.15652457
105	0x3da8a1ee	0.08234011
106	0x3d5f2b5c	0.05448471
107	0xbd87207e	-0.06597994
108	0xbe1a8b78	-0.15092266
109	0xbddbbe67	-0.10729676
110	0x3e97b604	0.29631054
111	0xbcb7d8b0	-0.022442192
112	0x3dac9167	0.08426171
113	0xbca53596	-0.020167153
114	0xbd9cfe07	-0.07665639
115	0xbca67303	-0.020318514
116	0x3d89b1ac	0.06723341
117	0xbbd22151	-0.006412663
118	0x3c4e4f0b	0.0125920875
119	0xba6b79fa	-0.00089827145
120	0x3d78b60b	0.060720485
121	0x3bd56ebb	0.0065134442
122	0xbca44db1	-0.020056577
123	0x3e2adfb9	0.16686906
124	0x3e839ce7	0.25705644
125	0xbc25dada	-0.010122979
126	0x3da921d5	0.08258406
127	0x3e22f390	0.15913224

network_body.linear_encoder.seq_layers.0.weight f4 [128, 9]
0	0x3f372ef1	0.71556
1	0xbf094bec	-0.5363147
2	0x3ebb8739	0.36626604
3	0x3ec4d3e8	0.38442922
4	0x3e67ef49	0.22649874
5	0xbdaa409c	-0.083131045
6	0xbb99462f	-0.004677556
7	0x3f02a6b5	0.51035625
8	0xbd909cc1	-0.070611484
9	0x3f05e3f0	0.5230093
10	0x3e983406	0.2972719
11	0x3cce9e4a	0.025221962
12	0xbe8fa25f	-0.28053567
13	0xbdf6802d	-0.12036166
14	0xbd629050	-0.05531341
15	0x3f27e786	0.6558765
16	0x3dcf8aad	0.10133872
17	0xbe13c1ad	-0.1442935
18	0x3f4fe9d7	0.81216186
19	0xbefc15ac	-0.49235284
20	0xbee506d2	-0.44731766
21	0xbe8656d9	-0.26238135
22	0xbe1b17c7	-0.15145789
23	0xbf5e9abe	-0.8695487
24	0xbd452722	-0.048133023
25	0x3ece8929	0.4033902
26	0x3e235670	0.15950942
27	0xbf27c1c5	-0.65530044
28	0x3e9b2c0d	0.30307046
29	0xbd66d7bb	-0.05635808
30	0xbf14f50f	-0.5818643
31	0x3c63632e	0.013878627
32	0x3dd6c0d4	0.10485998
33	0x3efb01b7	0.49024746
34	0xbe7eae5e	-0.24871203
35	0xbf682677	-0.9068369
36	0xbe9e5451	-0.30923703
37	0xbec430b6	-0.38318413
38	0x3e9b9cbe	0.30393022
39	0xbda969e3	-0.082721494
40	0xbee920c4	-0.4553281
41	0x3d836ae3	0.064168714
42	0xbe94c012	-0.29052788
43	0x3f061528	0.5237603
44	0x3efa7be8	0.48922658
45	0xbea71a8e	-0.32637447
46	0xbe355aa7	-0.17710362
47	0x3db28cbc	0.08718249
48	0x3ee9246a	0.45535594
49	0xbe79b560	-0.24385595
50	0xbdd7a305	-0.105291404
51	0x3efac123	0.48975477
52	0xbe39b754	-0.1813634
53	0x3f04a22c	0.51809955
54	0xbec31199	-0.38099363
55	0x3eab9f1e	0.33519834
56	0x3f0606c7	0.5235409
57	0x3dcd5be8	0.10027295
58	0x3d94503f	0.07241868
59	0x3d3dbe5f	0.04632413
60	0x3ec468d7	0.38361236
61	0xbdfebefb	-0.124387704
62	0x3f27a6b1	0.65488726
63	0x3e92cf0e	0.28673595
64	0xbea8be5b	-0.3295773
65	0x3efad873	0.48993263
66	0xbee34b64	-0.44393456
67	0xbea171c2	-0.31532103
68	0x3a964567	0.0011464775
69	0xbf0c2aa9	-0.54752594
70	0xbe95eb20	-0.2928095
71	0x3f20e503	0.62849444
72	0xbd9557d3	-0.07292142
73	0x3e274b22	0.16337255
74	0xbdf1f991	-0.11815179
75	0xbe1e5f70	-0.15466094
76	0xbec0cc13	-0.37655696
77	0xbf2fd814	-0.68689084
78	0xbe1fd3c4	-0.15608126
79	0xbeab2b7b	-0.3343161
80	0xbefcf2b3	-0.49403915
81	0x3f0167ce	0.5054902
82	0x3e7fb42d	0.24971075
83	0x3f02ed34	0.51143193
84	0xbeea6822	-0.45782572
85	0xbe3a02bf	-0.1816511
86	0x3e47c4e0	0.19508696
87	0x3e6eb7ce	0.23312303
88	0xbe8f8c9c	-0.28036964
89	0x3e946407	0.28982565
90	0x3f0c644e	0.5484055
91	0x3f12da7f	0.5736465
92	0xbe0c2a36	-0.13687977
93	0xbcc89fa5	-0.024490187
94	0x3e8e4093	0.2778364
95	0x3eab2671	0.33427766
96	0xbeab5a51	-0.33467343
97	0xbe60ae4f	-0.21941493
98	0xbdf2011c	-0.11816618
99	0x3ed491d5	0.4151751
100	0x3ea6923a	0.32533437
101	0xbebac92a	-0.364816
102	0x3e24e1d3	0.1610177
103	0x3dbfe924	0.0937064
104	0x3f458433	0.77154845
105	0xbeb6cbf4	-0.3570248
106	0x3f353f70	0.7079992
107	0xbcb1c305	-0.021699438
108	0xbd0a5848	-0.033775598
109	0x3dd04f1d	0.1017134
110	0xbe1ec6e3	-0.15505557
111	0x3f0ab9e9	0.54189926
112	0xbe22b48e	-0.15889189
113	0x3e81d619	0.25358656
114	0xbe4182fe	-0.18897626
115	0xbef65b4b	-0.48116526
116	0xbef26548	-0.47342896
117	0xbb044898	-0.002018487
118	0xbe3603ee	-0.17774937
119	0xbea38440	-0.31936836
120	0x3db0a237	0.0862469
121	0x3eab32c1	0.3343716
122	0xbf7ba9ab	-0.9830577
123	0x3e903c8f	0.28171203
124	0xbb98fc67	-0.0046687606
125	0x3ae36b84	0.0017350768
126	0xbf04b887	-0.51844066
127	0xbd61bedf	-0.05511367
128	0xbef6ac0f	-0.48178145
129	0x3ecd7b07	0.40132925
130	0xbe8c01b5	-0.27345052
131	0xbf14405e	-0.57910717
132	0xbf0f3160	-0.55934715
133	0xbf5f651b	-0.8726365
134	0x3b9f70c6	0.0048657386
135	0x3e94f7c0	0.29095268
136	0x3ed9e132	0.42554623
137	0x3f60bf9f	0.8779239
138	0x3f543dbc	0.829067
139	0xbed911f3	-0.42396507
140	0xbe4b019b	-0.19824831
141	0xbe5da7c9	-0.21646036
142	0x3e524345	0.20533474
143	0xbea74dea	-0.3267663
144	0x3dcee792	0.10102762
145	0xbf12d27a	-0.5735241
146	0x3e43bc92	0.19114903
147	0x3eb30e6b	0.34971938
148	0x3ed9107c	0.4239539
149	0xbd7724b0	-0.060337722
150	0x3e31ad1a	0.1735119
151	0xbf57e2aa	-0.84330237
152	0xbbff869c	-0.007798029
153	0xbdfe172f	-0.12406766
154	0xbda5c394	-0.08093944
155	0xbee97382	-0.45595938
156	0xbf07f27c	-0.53104377
157	0x3f066db9	0.52511173
158	0x3d86cea4	0.06582382
159	0xbee0aea5	-0.43883243
160	0xbbe125a5	-0.0068709427
161	0xbe8f1537	-0.27945873
162	0xbeceaca9	-0.40366104
163	0xbe06c93b	-0.13162701
164	0x3eb9bcc2	0.36276823
165	0xbe7b9478	-0.24568355
166	0xbd2c7888	-0.042107135
167	0xbec23eab	-0.37938437
168	0xbe9bb4b5	-0.30411306
169	0x3ebe4228	0.37159848
170	0xbeea3861	-0.4574614
171	0x3e983786	0.2972986
172	0x3dce3fdb	0.10070773
173	0xbdcf0808	-0.10108954
174	0xbebc791a	-0.36811143
175	0xbdf2beda	-0.11852808
176	0xbecf637b	-0.40505585
177	0xbe26072f	-0.16213678
178	0xbec50f21	-0.38488105
179	0xbea91240	-0.33021736
180	0xbd72a403	-0.059238445
181	0x3ddf18bd	0.1089339
182	0x3ddb921f	0.1072123
183	0x3f16cf1e	0.58909786
184	0xbe32a3a2	-0.17445233
185	0xbdfe0339	-0.124029584
186	0xbe36ae30	-0.17839885
187	0x3f0bf9a6	0.5467781
188	0xbe486df5	-0.19573195
189	0xbf0bd749	-0.54625374
190	0xbdee5639	-0.116375394
191	0xbeb02dea	-0.3441003
192	0x3e39a616	0.18129763
193	0xbe0bb1b8	-0.13642013
194	0x3e06ad2f	0.13152002
195	0x3f397e79	0.72458607
196	0xbd22cccb	-0.039746087
197	0xbea3a6b5	-0.31963125
198	0xbeb946bb	-0.36186776
199	0x3e1f332c	0.15546864
200	0xbf2c744d	-0.6736496
201	0xbe51c0d9	-0.20483722
202	0x3e3eb7e0	0.1862483
203	0xbde6c845	-0.11268667
204	0x3e931708	0.2872851
205	0x3e8978cd	0.26849976
206	0x3e40f761	0.18844368
207	0x3ee643c8	0.44973588
208	0xbc9de1e8	-0.01927276
209	0xbe70ab1c	-0.23502773
210	0xbe6f2143	-0.23352532
211	0x3dfc77f3	0.12327566
212	0xbd5536a3	-0.05205406
213	0xbf08aa8a	-0.5338522
214	0xbe0e552d	-0.1389968
215	0x3e307697	0.17232738
216	0x3e13e7c7	0.14443885
217	0x3efda0b6	0.49536675
218	0xbe9a34ba	-0.30118352
219	0x3e257a9a	0.1616005
220	0x3cbe93c4	0.02326382
221	0x3d8ee2d1	0.069768555
222	0xbd51c1f7	-0.05121037
223	0x3eed13c1	0.46304134
224	0xbf29d0b9	-0.6633411
225	0x3e6bbbb5	0.23020823
226	0x3df86836	0.12129252
227	0x3ea94d02	0.33066565
228	0x3d9818ba	0.07426591
229	0xbe1cce84	-0.15313154
230	0x3e761714	0.24032241
231	0xbef76920	-0.48322392
232	0xbf009888	-0.50232744
233	0x3e38a922	0.18033269
234	0x3f0bda39	0.54629856
235	0x3f188a7a	0.595863
236	0xbeda0d9a	-0.42588502
237	0x3ec9e4b0	0.39432287
238	0xbe15be27	-0.14623319
239	0xbded66c3	-0.11591866
240	0xbea596d4	-0.32341635
241	0x3e264ac6	0.16239461
242	0xbec14a31	-0.37751916
243	0xbca0a513	-0.019609964
244	0x3ec4f29e	0.38466352
245	0x3e5d39e3	0.21604113
246	0xbc806cee	-0.015676942
247	0xbd7b6efe	-0.061385147
248	0x3e9608ca	0.2930358
249	0xbe2f6f35	-0.17132266
250	0xbed529cc	-0.4163345
251	0x3f3932a9	0.72342926
252	0xbe4816eb	-0.19539993
253	0x3e4656d2	0.19369057
254	0x3eae5b7f	0.3405418
255	0xbf5166c7	-0.8179745

network_body.linear_encoder.seq_layers.2.bias f4 [128]
0	0x3d9abca4	0.075555116
1	0x3e575548	0.21028626
2	0xbd936172	-0.071963206
3	0xbc05cd93	-0.0081666885
4	0xbde8fddb	-0.11376544
5	0xba67adfa	-0.0008837875
6	0x3dcb005e	0.099121794
7	0xbdb99b9a	-0.09062882
8	0xbd8a4466	-0.06751327
9	0x3b91da59	0.004451078
10	0xbdbcaad1	-0.09212268
11	0xbd220f3b	-0.039565306
12	0xbd1bca46	-0.0380347
13	0x3bfe29c9	0.007756446
14	0x3d999fc0	0.07501173
15	0xbd605392	-0.0547672
16	0x3e0d3fe1	0.13793899
17	0x3d93d742	0.072187915
18	0x3d5d5afc	0.054041848
19	0xbdf8e80d	-0.12153635
20	0xbe0174b2	-0.12642172
21	0xbd493319	-0.049120996
22	0xbc97d0db	-0.018532207
23	0xbd314d3f	-0.04328656
24	0xbdbde59e	-0.09272312
25	0xbdb48941	-0.088152416
26	0xbe10f0f5	-0.14154418
27	0xbd052f50	-0.032515824
28	0x3e8cb985	0.2748529
29	0x3d9c82bf	0.07642125
30	0xbcea9db7	-0.028639657
31	0xbd82dda7	-0.06389933
32	0x3dc6a035	0.09698526
33	0xbd8b5ee1	-0.06805206
34	0xbdbf326d	-0.0933579
35	0xbdeeac41	-0.116539486
36	0x3e212fcb	0.15740888
37	0xbdbb6114	-0.091493756
38	0xbd2cf719	-0.04222784
39	0xbde23ddf	-0.11046957
40	0xbd5a8312	-0.053347655
41	0xbc16f196	-0.009212872
42	0x3d5992af	0.053118404
43	0xbd864cdf	-0.06557631
44	0x3cbe3a21	0.023221077
45	0xbda9086e	-0.08253561
46	0x3dd9e301	0.10639001
47	0x3dbb416c	0.091433376
48	0x3dfdb53b	0.123880826
49	0xbc834a02	-0.0160265
50	0xbd9faf44	-0.07797101
51	0x3e4e4143	0.20142083
52	0x3e51a5be	0.20473382
53	0x3e17618c	0.14783305
54	0x3dab413e	0.08362053
55	0xbcd79b4f	-0.026319174
56	0xbdbb0b57	-0.09133022
57	0xbc8718b6	-0.016491275
58	0xbd12654e	-0.035741143
59	0x39b582f7	0.00034620587
60	0x3d7abc38	0.061214656
61	0x3d634260	0.055483222
62	0x3d2f9750	0.042868912
63	0xbd8b2d8d	-0.067957975
64	0xbbc17908	-0.0059043206
65	0xbd881231	-0.06644095
66	0x3d8543c6	0.065070674
67	0xbd1cfc6e	-0.038326673
68	0x3e0f8fc1	0.14019682
69	0xbde146e4	-0.109998494
70	0x3d43419e	0.04767
71	0xbdc27be1	-0.09496284
72	0xbd26313a	-0.04057429
73	0x3e29b17f	0.16571616
74	0xbd484bdf	-0.04890048
75	0x3d3b4553	0.04572041
76	0xbe14f4be	-0.14546487
77	0x3e20f2c7	0.15717612
78	0x3cf0ba70	0.029385775
79	0xbd95bb0f	-0.07311069
80	0xbddfd335	-0.109289564
81	0xbd1ef746	-0.038810037
82	0xbdbb72c2	-0.09152748
83	0xbc239db2	-0.009986328
84	0x3d89281b	0.06697103
85	0xbad100ce	-0.0015945674
86	0xbb8d0010	-0.004302986
87	0x3e17f6f7	0.14840303
88	0xbda6a28c	-0.08136472
89	0x3d7d23b9	0.061801646
90	0xbd828102	-0.063722625
91	0xbd01503c	-0.031570658
92	0xbd97ba98	-0.07408637
93	0xbe07ddec	-0.1326825
94	0xbdffa9ff	-0.12483596
95	0xbd61bc91	-0.05511147
96	0x3db621dd	0.08893178
97	0x3d909666	0.07059936
98	0xbd9a4805	-0.07533268
99	0x3d914803	0.07093813
100	0xbd87cda5	-0.066310205
101	0x3da0e230	0.07855642
102	0xbde0f9f4	-0.10985175
103	0x3dc0c271	0.09412087
104	0xbddec4b3	-0.10877361
105	0xbd037e1b	-0.032102685
106	0xbe05970d	-0.13045903
107	0x3dab96a6	0.08378343
108	0xbd2656e4	-0.04061021
109	0xbe20a43d	-0.15687652
110	0x3d5d9278	0.05409476
111	0xbd91c210	-0.071170926
112	0xbdddaa2e	-0.10823475
113	0xbc916df6	-0.017752629
114	0x3cabfa95	0.02099351
115	0xbd727635	-0.059194762
116	0x3e404191	0.18775012
117	0xbb068533	-0.002052617
118	0xbe2bb2be	-0.16767403
119	0x3d32b3f6	0.043628655
120	0x3e0c811b	0.13721125
121	0xbc5692af	-0.0130964955
122	0x3dedab8d	0.11604986
123	0x3caab344	0.020837434
124	0x3c28119f	0.010258107
125	0x3cb652b3	0.022256231
126	0xbcd09f3b	-0.025466552
127	0xbe19ce30	-0.1502006

network_body.linear_encoder.seq_layers.2.weight f4 [128, 128]
0	0x3d1a6c5f	0.037701007
1	0x3e40787c	0.18795961
2	0x3e1e7781	0.15475275
3	0xbdd6332e	-0.104589805
4	0xbd704952	-0.058663674
5	0xbdba05c6	-0.090831324
6	0xbe49625b	-0.19666426
7	0x3dd039ab	0.10167249
8	0xbdc4ec98	-0.09615439
9	0x3dbf94c0	0.09354544
10	0x3ddebfe6	0.108764455
11	0x3d0b1063	0.033951174
12	0xbda59151	-0.080843575
13	0xbdca87c2	-0.09889175
14	0xbdb33651	-0.087505944
15	0xbd0c67b1	-0.034278575
16	0xbdbdca7c	-0.092671365
17	0x3d757adc	0.05993162
18	0x3c8679e4	0.016415544
19	0x3de88fcd	0.11355553
20	0xbd96a55b	-0.07355758
21	0x3e1e590a	0.15463653
22	0xbdd1a26e	-0.10236059
23	0x3d427662	0.04747618
24	0x3bb66469	0.005566169
25	0x3c44f85f	0.012022107
26	0x3e1450e6	0.14483985
27	0xbcdb53fc	-0.026773445
28	0x3ddb6c46	0.10714011
29	0xbc395cfa	-0.011313671
30	0x3e03485c	0.12820572
31	0xbd95a253	-0.073063515
32	0x3e4de812	0.20108059
33	0x3db538dd	0.088487364
34	0xbcbd825c	-0.02313345
35	0xbdbcd008	-0.09219366
36	0x3b7501a5	0.0037385013
37	0xbdd27dd7	-0.10277908
38	0xbcfee5d0	-0.031115443
39	0xbd2fe21a	-0.042940237
40	0xbe21dfc6	-0.15808019
41	0xbd428a3a	-0.047495104
42	0x3d9f688a	0.07783611
43	0xbe53d054	-0.2068494
44	0xbd3f6d28	-0.04673496
45	0xbbe501b6	-0.0069887294
46	0xbbcd9044	-0.0062733013
47	0xbcf8856e	-0.030337062
48	0xbd1f7c58	-0.038936943
49	0x3dc1dbe1	0.09465767
50	0xbb7972ca	-0.0038062804
51	0x3e31e53b	0.173726
52	0x3e2b27e5	0.16714437
53	0x3cd45cc4	0.02592314
54	0xbdd5d082	-0.1044016
55	0x3e1ae6ff	0.1512718
56	0xbe0591f2	-0.13043955
57	0x3bcd4441	0.00626424
58	0xbe098b6f	-0.13432096
59	0xbdfedcff	-0.124444954
60	0xbd4c7b2a	-0.049922146
61	0xbd8dec67	-0.06929856
62	0x3cd32842	0.025776032
63	0x3e33e686	0.17568406
64	0x3cb86ca7	0.022512747
65	0xbdb69c08	-0.08916479
66	0xbe061189	-0.13092627
67	0xbd84c499	-0.064828105
68	0x3d4b2647	0.04959705
69	0xbcd9c14b	-0.026581427
70	0x3d5ac81f	0.053413507
71	0xbd79e585	-0.061009903
72	0x3dc2a6b7	0.095044546
73	0xbded01d5	-0.11572615
74	0xbdc79bd3	-0.09746518
75	0x3d8ae470	0.06781852
76	0xbd2507d5	-0.040290672
77	0xbe25879a	-0.16165009
78	0xbaa4ae27	-0.0012564108
79	0xbdee2b35	-0.11629335
80	0xbe0ff435	-0.14058001
81	0xbbb4f1d6	-0.005521993
82	0xbcc36b5b	-0.023854902
83	0x3e5c23fe	0.21498105
84	0x3d38295d	0.044961322
85	0xbdf08c86	-0.11745553
86	0xbd95ce5a	-0.07314749
87	0xbd8bc13d	-0.06823967
88	0xbe1902dc	-0.14942497
89	0xbd983acf	-0.07433092
90	0xbe0af693	-0.13570623
91	0x3d2303b2	0.039798446
92	0x3d91933d	0.071081616
93	0xbd144568	-0.036199003
94	0xbd26bd85	-0.040708084
95	0x3dfae034	0.122497946
96	0xbd7ae075	-0.061249215
97	0x3be721c9	0.007053588
98	0x3da0cac8	0.078511775
99	0xbd616cde	-0.055035464
100	0x3ce0fcec	0.027464353
101	0x3e26c87b	0.16287415
102	0x3b8f442f	0.004372142
103	0x3ddf0e6b	0.10891422
104	0xbe0c6ad7	-0.13712631
105	0x3ca93aca	0.020657916
106	0xbb3636a7	-0.0027803571
107	0x3d0956f1	0.03353018
108	0xbd44f205	-0.04808237
109	0xbe7c69d9	-0.24649753
110	0x3e358484	0.17726332
111	0xbc95c141	-0.018280627
112	0x3ded9c3b	0.11602064
113	0xbd0b480c	-0.034004256
114	0xbc0d5162	-0.00862536
115	0x3e43696f	0.19083188
116	0x3cc02546	0.023455273
117	0x3e10e4c0	0.14149761
118	0x3e0bbb11	0.13645579
119	0x3da07063	0.07833936
120	0xbc7b48dc	-0.015337195
121	0x3daa7e6f	0.083248965
122	0x3d07c23c	0.03314422
123	0x3e5a4ef9	0.21319188
124	0x3e1e9a51	0.15488555
125	0xbe39ec93	-0.18156652
126	0x3b026e01	0.0019901993
127	0xbc2be787	-0.010492212
128	0xbd8daba6	-0.06917505
129	0x3e0d8b81	0.13822748
130	0xbe11b469	-0.14228977
131	0x3d8a98c2	0.067674175
132	0xbbc4520d	-0.0059912265
133	0xbdc3b030	-0.095550895
134	0xbccc367d	-0.024928326
135	0xbd6049e1	-0.054757956
136	0xbe4b1fee	-0.19836399
137	0x3dd4e378	0.10394949
138	0x3b666764	0.003515684
139	0xbdb2305f	-0.08700632
140	0xbdede182	-0.11615278
141	0xbd894df5	-0.06704322
142	0x3c2e2de7	0.010631061
143	0x3dc796da	0.097455695
144	0x3df183e0	0.11792731
145	0xbe90884c	-0.28228986
146	0x3d8ecc45	0.06972555
147	0xbdb802b3	-0.0898489
148	0xbdcf3ce1	-0.101190336
149	0x3d79b8ca	0.060967244
150	0x3d2d68f7	0.04233643
151	0xbe4a0f16	-0.19732317
152	0xbda5f028	-0.08102447
153	0xbd701a22	-0.058618672
154	0x3df72a3a	0.12068601
155	0xbdcfa131	-0.10138167
156	0x3debe421	0.115181215
157	0xbd189f71	-0.03726143
158	0xbd06707f	-0.03282213
159	0x3db2ccc4	0.08730462
160	0xbd21ad8c	-0.039472148
161	0x3d5e251f	0.05423462
162	0x3c63c1d8	0.013901196
163	0x3d31a6d3	0.043371987
164	0xbdeba6ed	-0.11506448
165	0xbdddd981	-0.10832501
166	0xbc835d1e	-0.016035613
167	0xbe23faed	-0.1601369
168	0xbd94c50f	-0.072641484
169	0xbcd57380	-0.026056051
170	0x3a6d75b1	0.000905837
171	0x3e345782	0.17611507
172	0xbe6a8b31	-0.2290466
173	0x3d410591	0.04712445
174	0xba5b75c0	-0.0008371733
175	0x3dd34161	0.103152044
176	0xbd1a4598	-0.037664026
177	0x3d443089	0.04789785
178	0xbe800b16	-0.25008458
179	0x3ce4b948	0.02792038
180	0x3e61a8ef	0.220371
181	0x3c7143f0	0.01472567
182	0xbd821767	-0.0635212
183	0xbca7f36f	-0.02050182
184	0x3ce4bf76	0.027923327
185	0x3d6dcb3d	0.05805515
186	0xbdc50b65	-0.09621314
187	0xbdc67a22	-0.09691264
188	0x3dc7f9da	0.09764452
189	0xbd66857f	-0.056279656
190	0x3e120b13	0.14262037
191	0x3da35846	0.07975821
192	0xbe6c86c3	-0.23098283
193	0x3dc02ef2	0.09383954
194	0xbdd54b6a	-0.10414775
195	0xbd70e766	-0.05881443
196	0xbe0894bb	-0.13337986
197	0x3e02fad9	0.12791003
198	0x3d830802	0.06398012
199	0x3cbafeae	0.022826519
200	0xbe503d54	-0.20335895
201	0xbd04bf44	-0.032408968
202	0xbd692b28	-0.056925923
203	0xbe187db8	-0.14891708
204	0xbd1d0661	-0.03833616
205	0xbd251bce	-0.04030972
206	0x3e1b2366	0.15150222
207	0x3b981eca	0.004642342
208	0xbdc11f9a	-0.09429856
209	0xbd015913	-0.03157909
210	0x3d42e3fb	0.0475807
211	0xbe150a4c	-0.14554709
212	0x3dfde916	0.12397973
213	0xbcc10731	-0.023563
214	0xbe8f9a05	-0.28047195
215	0xbc92e5f9	-0.017931925
216	0x3db97799	0.090560146
217	0xbdb82d43	-0.08993008
218	0x3c052e64	0.008128736
219	0x3cecf6bc	0.028926246
220	0x3d907e39	0.07055325
221	0x3d59743f	0.053089377
222	0xbd8ce988	-0.0688048
223	0xbc2092f1	-0.009800659
224	0xbd276db8	-0.04087612
225	0xbe2c7f07	-0.16845332
226	0x3d0d8007	0.034545925
227	0xbdf5797b	-0.11986061
228	0xbc3ef83c	-0.011655863
229	0xbd38f1bc	-0.04515241
230	0xbdb09392	-0.08621897
231	0x3d8e0cc9	0.06936032
232	0xbdd2a05f	-0.102844946
233	0x3ab31d60	0.0013665371
234	0xbd061eba	-0.032744147
235	0xbe353ee1	-0.17699768
236	0xbeb0f134	-0.34559023
237	0x3c6031e0	0.013683766
238	0x3e0ecf3b	0.1394624
239	0xbc42e7f3	-0.011896121
240	0xbe0639c7	-0.13107978
241	0x3cd0a881	0.025470974
242	0x3bd36bc7	0.006452057
243	0xbe2508a3	-0.16116576
244	0xbcec77f3	-0.02886579
245	0x3d1ae698	0.037817568
246	0x3c4f2fdf	0.012645691
247	0xbdc8b5fe	-0.09800337
248	0x3df15fd8	0.11785859
249	0x3cea2bc4	0.028585322
250	0xbe00ae1d	-0.12566419
251	0x3e06fb2d	0.13181753
252	0x3e3481d9	0.17627658
253	0xbc99c262	-0.018769447
254	0x3c2ffbb6	0.010741165
255	0x3e9aaa0f	0.3020787

network_body.linear_encoder.seq_layers.4.bias f4 [128]
0	0x3d56cecf	0.05244332
1	0x3e23d1ab	0.1599795
2	0xbdfbd1fc	-0.12295911
3	0x3d4c9ac5	0.049952287
4	0x3d934dea	0.07192595
5	0xbdc8a0c2	-0.09796287
6	0xbd9d663f	-0.076855175
7	0x3dd864a7	0.10566073
8	0x3dcb6e07	0.099330954
9	0xbc923618	-0.01784806
10	0xbdac5cb5	-0.0841612
11	0xbbe43af9	-0.006965038
12	0x3db4e0f8	0.08831972
13	0xbd8b5831	-0.068039306
14	0xbdd3324d	-0.103123285
15	0xbc9bc9d9	-0.019017147
16	0x3d0f69ed	0.035013128
17	0xbda3371b	-0.07969495
18	0xbc43af95	-0.0119437175
19	0xba757e73	-0.00093648507
20	0x3e22afec	0.15887421
21	0xbd460bd9	-0.048351143
22	0xbe0aa9d2	-0.13541344
23	0x3d241147	0.04005554
24	0xbda63d43	-0.081171535
25	0x3cc7f89d	0.02441054
26	0x3dcf961c	0.10136053
27	0x3e857add	0.260703
28	0xbcae4ac5	-0.021275887
29	0xbcecafe9	-0.028892474
30	0x3bb70bee	0.005586139
31	0xbd870c9e	-0.065942034
32	0xbdafbd71	-0.08581055
33	0x3e048128	0.12939894
34	0x3dc4c8f7	0.096086435
35	0x3d9d41cc	0.076785654
36	0xbdbdf2d5	-0.09274832
37	0xbc197dd5	-0.00936838
38	0xbcd42258	-0.025895283
39	0xbd11c9db	-0.035592895
40	0x3d143d53	0.036191296
41	0xbde50fcc	-0.11184654
42	0x3da579ce	0.08079873
43	0x3d104010	0.035217345
44	0x3e1be0ce	0.15222475
45	0x3d961b7a	0.073294595
46	0x3dc1ad6b	0.09456905
47	0x3ce46dab	0.027884325
48	0xbdd3c8df	-0.103410475
49	0x3de9ebd1	0.114219315
50	0xbc4f0a94	-0.012636799
51	0x3d9aaee8	0.07552892
52	0xbdbbde91	-0.091733105
53	0x3d810fb1	0.06301821
54	0xbcec547f	-0.028848885
55	0x3d91ecc8	0.071252406
56	0xbdef5bb5	-0.116874136
57	0x3d86be61	0.06579281
58	0x3d379a04	0.044824615
59	0x3c6c3aa6	0.01441828
60	0xbd01cb30	-0.031687915
61	0xbdb8632d	-0.09003291
62	0x3d95ead6	0.07320182
63	0x3d026eea	0.031844057
64	0x3cb12d09	0.02162792
65	0xbdd98fdc	-0.10623142
66	0xbd9bbf5b	-0.076048575
67	0x3dd09b20	0.10185838
68	0xbdeb3d24	-0.11486271
69	0xbd33abb0	-0.043864906
70	0x3db98222	0.09058024
71	0xbd4a7dec	-0.049436495
72	0x3d0b5001	0.034011845
73	0x3e139001	0.14410402
74	0x3cea4ffc	0.028602593
75	0xbcf79e25	-0.030226776
76	0x3e00f4a0	0.12593317
77	0xbd716d88	-0.058942348
78	0xbda560c5	-0.08075098
79	0x3c6f5f38	0.014610104
80	0x3e28b1b1	0.16474034
81	0xbd1fe798	-0.039039224
82	0xbd67c6c9	-0.05658606
83	0x3db8f790	0.09031594
84	0xbd3e33f6	-0.046436273
85	0x3d938b40	0.07204294
86	0x3d500e0c	0.050794646
87	0xbde74404	-0.1129227
88	0x3dea2620	0.11433053
89	0xbcaec89b	-0.02133589
90	0x3df9fbca	0.12206228
91	0xbcd8cd08	-0.026464954
92	0x3d3cf503	0.0461321
93	0xbd790fd0	-0.060806096
94	0x3e880c51	0.26571897
95	0xbdc3c695	-0.09559361
96	0x3e4571d5	0.19281705
97	0x3d97d0b5	0.074128546
98	0x3c726a3e	0.014795838
99	0xbc3304bc	-0.010926422
100	0x3e076dfc	0.1322555
101	0xbd080417	-0.033207025
102	0x3da77ff3	0.08178701
103	0x3d079602	0.033102043
104	0x3dd9d6eb	0.106366955
105	0x3d04bc38	0.032406062
106	0xbdd138af	-0.1021589
107	0x3dd714ae	0.10501991
108	0xbd98afd4	-0.074554116
109	0xbdeccfd9	-0.11563081
110	0x3da8b7bf	0.08238172
111	0xbdea6539	-0.11445088
112	0xbd100b83	-0.03516723
113	0xbdc462e1	-0.09589172
114	0x3d758ca7	0.05994859
115	0x3b87ab2a	0.0041402774
116	0x3dab7914	0.08372703
117	0x3de5b3a4	0.11215904
118	0x3dd35442	0.10318805
119	0xbdcce705	-0.10005001
120	0xbd23b8c8	-0.039971143
121	0xbb8ad729	-0.004237075
122	0x3c9ad2cd	0.018899346
123	0x3d28e671	0.04123539
124	0xba23fe97	-0.00062558934
125	0xbd06f4cd	-0.032948304
126	0x3d32ced4	0.043654278
127	0xbdb0925e	-0.08621667

network_body.linear_encoder.seq_layers.4.weight f4 [128, 128]
0	0xbe0e9417	-0.1392368
1	0x3d19a42c	0.037510082
2	0xbe066e00	-0.13127899
3	0x3c1c4a88	0.009539254
4	0x3d2af565	0.041737933
5	0x3d217b0f	0.039424
6	0x3d9ccb5d	0.07655976
7	0xbdbc6415	-0.09198777
8	0xbc39b596	-0.011334797
9	0xbe43f723	-0.19137244
10	0xbd2f7c17	-0.04284295
11	0xbde5de93	-0.11224093
12	0x3e79c32d	0.2439086
13	0x3cfb19e9	0.030652003
14	0x3e0d3a5b	0.13791792
15	0xbeb51841	-0.35370067
16	0x3db228a6	0.08699159
17	0x3d9faa59	0.07796163
18	0xbe2a980f	-0.16659568
19	0x3cd028bc	0.025410049
20	0xba9a4b0a	-0.0011771631
21	0xbd2d1784	-0.042258754
22	0x3cf53b81	0.0299356
23	0xbde8e5d3	-0.113719605
24	0x3d5319bc	0.051538214
25	0xbe217b1e	-0.15769622
26	0x3bf89728	0.0075863786
27	0xbcf46b38	-0.029836282
28	0x3c70fe9b	0.01470914
29	0xbda0a8d0	-0.078446984
30	0xbe848e3b	-0.25889763
31	0x3dbd1a5c	0.09233543
32	0x3cd43e0e	0.025908496
33	0xbc81258b	-0.015764972
34	0x3d3e86b2	0.046515174
35	0x3e2540bf	0.1613798
36	0xbcef466b	-0.029208383
37	0x3dab8330	0.083746314
38	0x3c088569	0.008332589
39	0xbd2adc77	-0.041714158
40	0xbe896c63	-0.26840505
41	0xbd8c98bd	-0.0686507
42	0x3ea42d3a	0.32065755
43	0xbdca9d9f	-0.09893345
44	0xbdfa888c	-0.122330755
45	0xbd3d6030	-0.04623431
46	0xbd02767d	-0.03185128
47	0x3d8d35fc	0.06895062
48	0x3e7e94ae	0.24861404
49	0x3e1fe873	0.15616016
50	0x3e08dc8d	0.13365383
51	0x3d0e9cbb	0.03481744
52	0xbd2ccd20	-0.04218781
53	0x3e467690	0.19381166
54	0xbd2afec2	-0.041746862
55	0xbd03425a	-0.0320457
56	0xbe1e13ae	-0.15437195
57	0x3e4e8df2	0.20171335
58	0xbe5248d0	-0.20535588
59	0xbeb3b19f	-0.35096452
60	0x3e6a2b8f	0.22868179
61	0xbdd602a6	-0.10449724
62	0xbdc7a562	-0.09748341
63	0xbe110c29	-0.14164795
64	0xbe199920	-0.14999819
65	0xbcb133fa	-0.02163123
66	0x3e46171f	0.19344757
67	0x3c8fe8b3	0.017567014
68	0x3e080c87	0.13286029
69	0xbcf3c24a	-0.02975573
70	0xbad706b4	-0.0016405196
71	0x3dbc43b7	0.09192603
72	0xbe3a79d0	-0.1821053
73	0x3d89f029	0.0673526
74	0xbdf7cd72	-0.120997325
75	0x3e33eb18	0.1757015
76	0xbbff8bb8	-0.007798638
77	0x3d5b8da7	0.053601887
78	0x3db1a1aa	0.08673413
79	0x3c2294b1	0.009923146
80	0xbe8c10f6	-0.2735669
81	0xbc894657	-0.016757173
82	0xbd4ebc0c	-0.050472304
83	0x3e75d7a6	0.24008045
84	0xbce09675	-0.027415494
85	0xbe415971	-0.18881775
86	0xbdad40e2	-0.08459641
87	0xbe0c1925	-0.13681467
88	0xbb8dfc83	-0.0043330803
89	0xbd22b484	-0.039722934
90	0xbe9f2c56	-0.31088513
91	0x3d82791f	0.06370758
92	0xbe2533db	-0.16133063
93	0xbb819491	-0.003954478
94	0xbe1d7891	-0.15378024
95	0x3d7e7700	0.062125206
96	0xbe641321	-0.22272922
97	0x3ccbb7d3	0.024867928
98	0xbd0699da	-0.032861568
99	0xbd8027be	-0.0625758
100	0x3d9bf2cc	0.07614669
101	0xbdcc9410	-0.09989178
102	0xbe114163	-0.141851
103	0x3d8521e2	0.06500603
104	0xbe2c625c	-0.16834396
105	0x3daa1420	0.0830462
106	0xbdb2f0c4	-0.08737329
107	0x3e5820e8	0.21106303
108	0x3ddcad28	0.107752144
109	0xbe234b5f	-0.1594672
110	0xbdf2d7be	-0.11857556
111	0x3d350f34	0.044203952
112	0xbde30c40	-0.11086321
113	0x3dc58d0a	0.09646042
114	0xbdb9e875	-0.09077541
115	0xbd57d5b9	-0.052694056
116	0xbce56a54	-0.028004803
117	0x3db40cca	0.08791502
118	0x3d273e40	0.04083085
119	0x3c9d1466	0.019174766
120	0x3dd458b0	0.10368478
121	0xbc6a314d	-0.014293981
122	0x3db6a6df	0.08918547
123	0x3e449c1a	0.19200173
124	0xbd06656d	-0.03281157
125	0x3da03f89	0.07824618
126	0x3de59f53	0.11212029
127	0xbd5e833a	-0.054324366
128	0xbd6deed0	-0.058089077
129	0x3e3389b7	0.17533003
130	0xbaebdadb	-0.0017994301
131	0xbe05b4ae	-0.13057205
132	0x3dc7cca5	0.0975583
133	0x3cffcdfe	0.031226154
134	0x3d90a8d9	0.07063455
135	0xbe73c6ca	-0.23806301
136	0xbe032d56	-0.12810263
137	0x3dbd24d0	0.09235537
138	0xbe0cce7a	-0.1375064
139	0xbc1a0e1e	-0.00940278
140	0xbe29de3d	-0.16588683
141	0x3ddf3f7c	0.109007806
142	0x3d211303	0.03932477
143	0xbddadc5f	-0.10686564
144	0x3dfaf5f5	0.12253944
145	0x3de5cc50	0.1122061
146	0xbd01048f	-0.031498488
147	0xbd3f4a88	-0.046701938
148	0xbe150681	-0.14553262
149	0xbd0f2e2e	-0.03495615
150	0xbe735ad1	-0.23765112
151	0xbe107262	-0.14106134
152	0xbdfa19ef	-0.12211978
153	0x3ccacc94	0.024755754
154	0x3d863ad4	0.06554189
155	0xbccd2182	-0.025040392
156	0x3db96dba	0.09054132
157	0x3db9185f	0.090378515
158	0xbe07be21	-0.13256122
159	0x3caa64b2	0.020799968
160	0x3d8ff376	0.07028858
161	0xbd2c629d	-0.042086232
162	0xbd822e1d	-0.06356452
163	0xbe2b37f9	-0.1672057
164	0x3dfd51bc	0.12369105
165	0xbda8f787	-0.08250337
166	0xbce5b98e	-0.028042581
167	0xbe48e988	-0.19620335
168	0xbc913aaf	-0.017728178
169	0xbd178835	-0.03699513
170	0x3ad89079	0.0016522548
171	0x3c3407fb	0.010988231
172	0xbdb582c6	-0.08862834
173	0x3d9431dc	0.072360724
174	0x3e12328b	0.14277093
175	0x3c4fac79	0.012675398
176	0x3e91c9f0	0.2847438
177	0xbe1d1300	-0.15339279
178	0xbe2e58f7	-0.17026125
179	0x3e38aa62	0.18033746
180	0xbd2b1ab1	-0.0417735
181	0x3e03d367	0.12873612
182	0x3e460fda	0.19341984
183	0xbdab586d	-0.08366475
184	0xbe0f2d5e	-0.1398215
185	0xbe12851e	-0.14308593
186	0xbd6c381a	-0.05767069
187	0xbe17da63	-0.14829402
188	0x3e27af8b	0.16375558
189	0xbd654963	-0.05597819
190	0xbd6f8b99	-0.05848274
191	0xbcf60aa1	-0.030034365
192	0xbc3ec3d8	-0.0116433725
193	0xbe2fc8f7	-0.17166506
194	0x3d88b479	0.066750474
195	0x3c4f71ca	0.012661407
196	0x3d3f025c	0.04663311
197	0x3b759132	0.0037470576
198	0x39bd62af	0.00036122414
199	0xbddc8716	-0.10767953
200	0xbeb24e66	-0.34825438
201	0x3e0c648d	0.13710232
202	0xbea77144	-0.32703602
203	0x3dfa0802	0.122085586
204	0xbd4a80d1	-0.049439255
205	0x3e671e6e	0.22570202
206	0xbd4bf650	-0.04979545
207	0xbe056230	-0.13025737
208	0xbd6b6908	-0.057473212
209	0x3cc105ed	0.023562396
210	0xbe32f266	-0.1747528
211	0x3e2d5ab7	0.16929136
212	0x3e011b9f	0.12608193
213	0xbe0d32cd	-0.1378891
214	0x3e653ba3	0.22386031
215	0x3e164589	0.14674963
216	0x3d010d16	0.03150662
217	0x3dce121d	0.100620486
218	0x3cbc2b2d	0.022969807
219	0xbd185c63	-0.03719748
220	0xbcd4f852	-0.025997315
221	0xbd485298	-0.048906893
222	0xbd6d08fd	-0.0578699
223	0xbbe7feec	-0.0070799496
224	0x3e7251b1	0.23663975
225	0x3dcc2179	0.09967322
226	0x3e28952e	0.16463158
227	0x3df3b21a	0.118992046
228	0xbe167ac3	-0.14695267
229	0xbdf0ec7d	-0.117638566
230	0xbe4f665f	-0.20253895
231	0x3cf1f58b	0.02953603
232	0xbe3407d7	-0.17581116
233	0xbdbad83a	-0.09123273
234	0xbdf7c6a3	-0.12098434
235	0x3db150d0	0.08657992
236	0xbd1539d4	-0.036432102
237	0xbe7599f1	-0.23984505
238	0x3d5ce65f	0.053930636
239	0xbe362268	-0.17786562
240	0xbdb4354f	-0.0879923
241	0x3d8e403e	0.06945847
242	0xbd7654bc	-0.060139403
243	0xbe118701	-0.14211656
244	0x3e8fe207	0.28102133
245	0x3def02a1	0.11670423
246	0xbecf8288	-0.40529275
247	0x3cb1c1d6	0.021698873
248	0x3caed7ae	0.021343078
249	0x3de6dd1f	0.11272644
250	0x3ce3d0e5	0.02780957
251	0xbcae2fed	-0.021263087
252	0xbd7cb590	-0.06169659
253	0xbd9ed4fe	-0.07755469
254	0xbc592bbc	-0.013255056
255	0xbe062b0d	-0.1310236

network_body.vector_processors.0.normalizer.running_mean f4 [9]
0	0x41808ac9	16.067766
1	0x3fbc61ea	1.4717381
2	0xbd0bb031	-0.034103576
3	0x4034f585	2.8274853
4	0x3f9bcc98	1.2171812
5	0x3e84131c	0.2579583
6	0x41083cf0	8.514877
7	0x3eac9a96	0.3371169
8	0x3e10c828	0.14138854
