results/BallJumpNN/BallAgent/checkpoint.pt (torch, 855727 bytes, 55 tensors)

network_body.vector_processors.0.normalizer.running_mean f4 [9]
0	0x4180dda8	16.10823
1	0x3fbbb7e1	1.466549
2	0xbc974c00	-0.018468857
3	0x403b8f32	2.930615
4	0x3fa66955	1.3000895
5	0x3e56f672	0.20992449
6	0x410a6e4b	8.651927
7	0x3ef52c0b	0.47885165
8	0x3d96b91b	0.07359525

network_body.vector_processors.0.normalizer.running_variance f4 [9]
0	0x4b210dc7	1.0554823e+07
1	0x49b6f458	1.498763e+06
2	0x4b7e6f94	1.6674708e+07
3	0x4d0d85e9	1.4839771e+08
4	0x4a291c01	2.7706882e+06
5	0x4a515e60	3.430296e+06
6	0x4c49daa2	5.2914824e+07
7	0x4b2ec859	1.1454553e+07
8	0x4b0018e4	8.39498e+06

network_body.linear_encoder.seq_layers.0.weight f4 [128, 9]
0	0x3f3665d2	0.71249115
1	0xbf091940	-0.53554153
2	0x3eb9fe10	0.36326647
3	0x3ec9c767	0.39409944
4	0x3e5aaa5b	0.21354048
5	0xbdbd3fc0	-0.09240675
6	0x3ad45246	0.0016198836
7	0x3f02b110	0.51051426
8	0xbdadf419	-0.084938236
9	0x3f041f2f	0.5161008
10	0x3e91ea14	0.284989
11	0x3d202033	0.039093208
12	0xbe97eea5	-0.2967426
13	0xbe0b548b	-0.1360647
14	0xbd92fae1	-0.071767576
15	0x3f27f017	0.65600723
16	0x3dc1b746	0.09458785
17	0xbe1296e4	-0.14315373
18	0x3f52efd2	0.82397187
19	0xbeffe79b	-0.49981388
20	0xbee4b69f	-0.4467058
21	0xbe8b61c7	-0.27223036
22	0xbe239d0a	-0.15977874
23	0xbf5c6959	-0.8609825
24	0xbd50e001	-0.050994877
25	0x3ecd2558	0.40067554
26	0x3e31ad79	0.17351331
27	0xbf25b28e	-0.6472558
28	0x3e957060	0.29187298
29	0xbd6ece1b	-0.058302026
30	0xbf1a0195	-0.60158664
31	0x3c8b013f	0.016968368
32	0x3dd43a75	0.10362712
33	0x3ef78d9d	0.4835023
34	0xbe7daa8d	-0.24772091
35	0xbf66c797	-0.901483
36	0xbe9940f4	-0.29932368
37	0xbec875da	-0.39152414
38	0x3e961159	0.2931011
39	0xbdc2d8cf	-0.09514009
40	0xbef164ab	-0.47147116
41	0x3d7cd624	0.061727658
42	0xbe93f665	-0.28898922
43	0x3f087820	0.53308296
44	0x3ef7141b	0.48257527
45	0xbea97686	-0.3309824
46	0xbe3731e9	-0.17890133
47	0x3dc1c19c	0.09460756
48	0x3ef2feb7	0.47459957
49	0xbe80246b	-0.25027785
50	0xbdd1d7c8	-0.10246235
51	0x3efd4847	0.49469206
52	0xbe41cb81	-0.18925287
53	0x3f05d6c0	0.5228081
54	0xbec7f30f	-0.39052626
55	0x3eaa0500	0.3320694
56	0x3f06ea9b	0.5270173
57	0x3db45546	0.08805327
58	0x3d389ebe	0.045073263
59	0x3d03f8ec	0.032219812
60	0x3ec9d0a6	0.39417
61	0xbe0c684a	-0.13711658
62	0x3f246973	0.642234
63	0x3e8dc0d2	0.27686173
64	0xbea6b350	-0.3255868
65	0x3ef9ec6b	0.48813185
66	0xbee97d26	-0.45603293
67	0xbe996526	-0.29959983
68	0xbc086f92	-0.008327382
69	0xbf0c940d	-0.5491341
70	0xbe90fe9e	-0.28319257
71	0x3f21041e	0.6289691
72	0xbd8628ec	-0.06550774
73	0x3e243b44	0.16038233
74	0xbe045d3b	-0.1292619
75	0xbe1d8eb4	-0.15386468
76	0xbebfd0bf	-0.37463948
77	0xbf2f28f9	-0.68421894
78	0xbe22cdd3	-0.15898828
79	0xbea9528c	-0.3307079
80	0xbefec208	-0.4975741
81	0x3eff729b	0.49892125
82	0x3e7c271f	0.24624299
83	0x3f03736e	0.51348007
84	0xbef6e85a	-0.48224145
85	0xbe43761d	-0.19088025
86	0x3e470a50	0.19437528
87	0x3e6f18f3	0.23349361
88	0xbe8e9be9	-0.27853325
89	0x3e92ba86	0.2865793
90	0x3f0a33de	0.53985393
91	0x3f13dcec	0.57758975
92	0xbe1d72d6	-0.15375838
93	0xbce1bc98	-0.027555749
94	0x3e8c346d	0.27383748
95	0x3eadeb91	0.33968785
96	0xbeaa9092	-0.33313423
97	0xbe6241d9	-0.22095431
98	0xbdf4eea0	-0.119595766
99	0x3ed9b475	0.4252049
100	0x3eaaccf8	0.33359504
101	0xbeb7ef94	-0.3592497
102	0x3e3115e5	0.17293508
103	0x3df63323	0.12021472
104	0x3f47c3a6	0.7803291
105	0xbeb4850c	-0.35257757
106	0x3f34c8bd	0.706188
107	0xbbad68b0	-0.0052920207
108	0xbd365f16	-0.044524275
109	0x3dcbf497	0.09958761
110	0xbe1c50fd	-0.1526527
111	0x3f0d3a4e	0.5516709
112	0xbe1d443f	-0.15358065
113	0x3e810835	0.25201574
114	0xbe41496d	-0.18875666
115	0xbef6dad4	-0.48213828
116	0xbef2818a	-0.47364455
117	0xbc5db590	-0.013532057
118	0xbe2e9ac0	-0.1705122
119	0xbea90af9	-0.33016184
120	0x3dcc0e08	0.09963614
121	0x3eb6ac5b	0.35678372
122	0xbf7d65a8	-0.9898324
123	0x3e8c2d37	0.27378246
124	0xbcc13855	-0.023586432
125	0xbba8c28c	-0.005150145
126	0xbf0573ba	-0.5212971
127	0xbd413bb1	-0.047176067
128	0xbef9b4af	-0.48770663
129	0x3ed11f61	0.40844253
130	0xbe85cdc3	-0.26133546
131	0xbf138ca4	-0.57636476
132	0xbf0fec94	-0.56220365
133	0xbf5d57ea	-0.8646227
134	0xbb084061	-0.0020790326
135	0x3e963431	0.29336694
136	0x3ed74ccf	0.42050788
137	0x3f6316de	0.8870677
138	0x3f567509	0.8377233
139	0xbee2119c	-0.4415406
140	0xbe4db0ed	-0.20087023
141	0xbe5834df	-0.21113919
142	0x3e502959	0.20328273
143	0xbeaa032a	-0.3320554
144	0x3db7e3b5	0.089789785
145	0xbf10d099	-0.56568295
146	0x3e4fc85f	0.2029128
147	0x3ebd3075	0.36951032
148	0x3ed55181	0.41663745
149	0xbd7696ee	-0.06020253
150	0x3e35320a	0.1769487
151	0xbf58e86a	-0.84729636
152	0x3bc6fe69	0.0060728085
153	0xbdfe8023	-0.12426784
154	0xbd99c1ba	-0.075076535
155	0xbeec3684	-0.46135342
156	0xbf0a0eb0	-0.5392866
157	0x3f0a0394	0.5391171
158	0x3d985102	0.07437326
159	0xbee02007	-0.43774435
160	0xbc0193f9	-0.007908815
161	0xbe8d3071	-0.2757602
162	0xbecef4d1	-0.40421155
163	0xbe0667d3	-0.13125543
164	0x3eb91e19	0.36155775
165	0xbe7d667f	-0.2474613
166	0xbd2b7da5	-0.04186787
167	0xbec4c98c	-0.38435018
168	0xbe9af74b	-0.30266795
169	0x3ebd34d7	0.36954376
170	0xbeed8cb9	-0.46396425
171	0x3e9c429e	0.30519575
172	0x3dd3bec7	0.10339122
173	0xbde47531	-0.11155165
174	0xbeba33fc	-0.36367786
175	0xbdeca321	-0.11554552
176	0xbecb9fdb	-0.39770398
177	0xbe1e3d35	-0.15453036
178	0xbec40589	-0.38285473
179	0xbeac5349	-0.33657292
180	0xbd899fd3	-0.06719937
181	0x3dcb654b	0.099314295
182	0x3dc60e1b	0.09670659
183	0x3f1886e6	0.5958084
184	0xbe596a35	-0.21231921
185	0xbde70e1e	-0.112819895
186	0xbe263648	-0.16231644
187	0x3f0d1168	0.55104685
188	0xbe4ecd87	-0.2019559
189	0xbf0c7c77	-0.5487742
190	0xbe01082b	-0.12600772
191	0xbead97e9	-0.3390496
192	0x3e472909	0.19449247
193	0xbe00540d	-0.12532063
194	0x3dfd44bf	0.12366628
195	0x3f39a569	0.7251802
196	0xbd005fc5	-0.031341333
197	0xbea0ba84	-0.313923
198	0xbeb6a73d	-0.35674468
199	0x3e194adb	0.14969961
200	0xbf2c9ac1	-0.67423636
201	0xbe4ad110	-0.19806314
202	0x3e3fdd74	0.18736821
203	0xbdc5587b	-0.09636017
204	0x3e94f99d	0.2909669
205	0x3e8ac4b5	0.271032
206	0x3e49c392	0.1970351
207	0x3ed8ce1e	0.42344755
208	0x3b33f74d	0.0027460635
209	0xbe770f4c	-0.24126929
210	0xbe6733f2	-0.2257841
211	0x3e0a1a29	0.13486542
212	0xbd32feef	-0.043700155
213	0xbf07c700	-0.53038025
214	0xbe104fc7	-0.14092933
215	0x3e36fe81	0.17870523
216	0x3e17d3ea	0.14826933
217	0x3ef615ae	0.48063415
218	0xbe9d8376	-0.3076436
219	0x3e2c1203	0.16803746
220	0x3d11283a	0.035438754
221	0x3d60663b	0.054784995
222	0xbd34d658	-0.044149727
223	0x3eedf9eb	0.46479735
224	0xbf2ae3eb	-0.66754025
225	0x3e556bdb	0.20841925
226	0x3df68a27	0.12038069
227	0x3eb09979	0.3449209
228	0x3dcb05d5	0.09913222
229	0xbdf686d3	-0.120374344
230	0x3e86d939	0.26337603
231	0xbefa4983	-0.4888421
232	0xbef24f86	-0.47326297
233	0x3e4701a5	0.19434221
234	0x3f0c3b22	0.5477773
235	0x3f1b7c9f	0.6073703
236	0xbed90631	-0.42387536
237	0x3ecdfe5a	0.40233117
238	0xbe0eb1d3	-0.13935022
239	0xbde4ed1e	-0.11178039
240	0xbea4a712	-0.32158715
241	0x3e1713e5	0.14753683
242	0xbebcd42f	-0.36880633
243	0xbd027e3a	-0.03185866
244	0x3ec840cf	0.39111945
245	0x3e6b8bba	0.2300252
246	0x3bbe44ce	0.005806542
247	0xbd4b22a1	-0.04959357
248	0x3e9a0a95	0.30086198
249	0xbe3285a8	-0.17433798
250	0xbed33155	-0.41248575
251	0x3f3b3ad6	0.7313665
252	0xbe3be7d1	-0.1835015
253	0x3e2edc45	0.17076214
254	0x3ead827b	0.3388861
255	0xbf544b03	-0.8292696

network_body.linear_encoder.seq_layers.0.bias f4 [128]
0	0xbd191b85	-0.03737976
1	0x3dbedd13	0.0931951
2	0x3e113ddf	0.14183758
3	0x3c0a89e3	0.008455726
4	0x3df90a4c	0.12160167
5	0xbdae3c53	-0.085076
6	0xbbf969e8	-0.007611502
7	0x3e0cc7fa	0.1374816
8	0x3d07e9fa	0.03318212
9	0x3e3efc25	0.18650873
10	0xbcaa6533	-0.020800209
11	0x3dd12b8f	0.10213386
12	0xbd9e753b	-0.07737204
13	0xbdc67d1f	-0.09691834
14	0xbce7589e	-0.028240498
15	0x3dd7c54d	0.10535679
16	0xbdb28516	-0.087167904
17	0x3d277a26	0.040887974
18	0x3d54bed3	0.051939797
19	0xbcfabd69	-0.030607896
20	0xbd206452	-0.039158173
21	0xbd8f8488	-0.070077
22	0x3dbd1848	0.09233147
23	0xbd8490d8	-0.06472939
24	0xbd3b3db0	-0.045713127
25	0x3e0b94b7	0.13630949
26	0xbd02d378	-0.031939954
27	0xbd68fdbf	-0.056882616
28	0x3d98e540	0.07465601
29	0xbd9c7821	-0.076401
30	0xbc9a938c	-0.018869184
31	0x3e1e3251	0.15448882
32	0x3d905d66	0.07049064
33	0x3d544d98	0.05183181
34	0xbc28e448	-0.010308333
35	0xbd0cfaf0	-0.034419
36	0xbc43a6ba	-0.011941606
37	0xbd28a565	-0.041173358
38	0x3d283826	0.041069172
39	0x3c88487b	0.016636124
40	0xbcef978b	-0.029247066
41	0x3df946fc	0.12171742
42	0xbdf65fe9	-0.12030012
43	0x3dac10b0	0.084016204
44	0xbcd3aeec	-0.025840245
45	0x3db44e9e	0.088040575
46	0x3e04ad6c	0.1295678
47	0xbd01cde4	-0.031690493
48	0xbd4aa0d0	-0.04946977
49	0xbdd3f981	-0.103503235
50	0xbe0fdba5	-0.14048631
51	0x3dea2bf2	0.11434163
52	0x3d75c4ed	0.060002256
53	0x3e47ba00	0.19504547
54	0x3cfe8264	0.031068034
55	0x3e2b122b	0.1670615
56	0xbda3ba5f	-0.07994532
57	0x3c9a4cf2	0.018835519
58	0xbc26d45b	-0.010182465
59	0x3d1dda27	0.038538124
60	0xbb1feb93	-0.0024401888
61	0xbd6baa20	-0.05753529
62	0x3dd530a2	0.104096666
63	0x3d19c346	0.037539743
64	0xbcb28076	-0.02178977
65	0xbd42c490	-0.047550738
66	0xbca51fe5	-0.02015681
67	0xbe1a47b6	-0.15066418
68	0xbccf9eda	-0.025344301
69	0x3e20d32f	0.1570556
70	0x3e3c497c	0.18387407
71	0xbdb09e96	-0.08623998
72	0xbdd8a16a	-0.10577662
73	0xbb6ab21d	-0.003581173
74	0xbd8c746a	-0.06858142
75	0xbe02bd13	-0.12767439
76	0xbc26f114	-0.010189313
77	0xbd90e812	-0.07075514
78	0x3ca13196	0.019676965
79	0xbd2c6c67	-0.042095568
80	0xb951d092	-0.00020009492
81	0xbcaa23e2	-0.020769063
82	0x3ca0e92c	0.019642435
83	0x3da41c80	0.080132484
84	0x3e0ea623	0.13930564
85	0xbd711361	-0.05885637
86	0xbd23d8bd	-0.04000162
87	0xbd20b138	-0.03923151
88	0x3e0cde07	0.13756572
89	0x3c749992	0.014929192
90	0x3d807e79	0.06274123
91	0xbc9abcf2	-0.018888924
92	0x3e524e8a	0.20537773
93	0xbd839268	-0.06424409
94	0xbdc87d8e	-0.09789573
95	0xbcf68909	-0.03009464
96	0x3e0a8fc9	0.13531412
97	0xbb3f6208	-0.0029202718
98	0x3dc006d1	0.093763
99	0x3cdbba81	0.02682233
100	0x3da3d042	0.079987064
101	0x3c8f3a2f	0.017483799
102	0xbe07e2ef	-0.13270162
103	0x3b0fd545	0.0021947187
104	0x3e311dbd	0.172965
105	0x3dca4dc5	0.098781146
106	0x3d4082eb	0.046999853
107	0xbd4f2d62	-0.05058039
108	0xbe169943	-0.14706902
109	0xbde6c71a	-0.11268444
110	0x3e9e41bb	0.30909523
111	0xbc625403	-0.013813975
112	0x3dc64ef6	0.09683029
113	0xbcd41e9a	-0.025893498
114	0xbda7d78c	-0.08195409
115	0xbcb33c91	-0.021879466
116	0x3da4da87	0.08049493
117	0xbc28b943	-0.010298076
118	0x3ca9de12	0.020735774
119	0xbb34ff1f	-0.0027617884
120	0x3d70c7ac	0.058784172
121	0x3bd74160	0.0065690726
122	0xbcde9746	-0.027171742
123	0x3e387bf6	0.18016037
124	0x3e899b10	0.26876116
125	0xbc6956fe	-0.014241932
126	0x3db574b9	0.08860154
127	0x3e300d08	0.17192471

network_body.linear_encoder.seq_layers.2.weight f4 [128, 128]
0	0x3d49369a	0.049124338
1	0x3e4bda5b	0.19907515
2	0x3e224b96	0.15849146
3	0xbddceb40	-0.10787058
4	0xbd5e712a	-0.05430714
5	0xbda68814	-0.081314236
6	0xbe4ce4e1	-0.20009185
7	0x3dd620f5	0.10455505
8	0xbdba3ec6	-0.09094004
9	0x3ddf66ce	0.1090828
10	0x3dd86d68	0.105677426
11	0x3cdbebef	0.0268459
12	0xbda5889b	-0.08082696
13	0xbdc831b5	-0.09775106
14	0xbda88508	-0.08228499
15	0xbc5f3b00	-0.013624907
16	0xbdacb306	-0.084325835
17	0x3d62dbd3	0.055385422
18	0x3bfc5ff1	0.007701867
19	0x3dfabf88	0.12243563
20	0xbda85bd1	-0.082206376
21	0x3e1acb09	0.15116514
22	0xbdeccdcd	-0.11562691
23	0x3d0885d9	0.033330772
24	0xbbb981e7	-0.0056612375
25	0xbbe4923a	-0.0069754394
26	0x3e0fcc42	0.14042762
27	0xbd4f099b	-0.05054627
28	0x3ddc0932	0.10743941
29	0xbb21320e	-0.0024596485
30	0x3e127fb7	0.14306532
31	0xbda974c6	-0.08274226
32	0x3e5917e9	0.21200527
33	0x3dadae2d	0.08480487
34	0xbc24ac7c	-0.010050889
35	0xbde9764f	-0.11399519
36	0x3cb2ff0b	0.02185013
37	0xbdb879fb	-0.09007641
38	0xbd1091b3	-0.0352952
39	0xbd2bd216	-0.0419484
40	0xbe161b41	-0.14658834
41	0xbd65a097	-0.056061354
42	0x3d7bc84b	0.06147031
43	0xbe3785e1	-0.17922164
44	0xbd4a7398	-0.049426645
45	0xbc8ca7dd	-0.017169887
46	0xbc3dcefe	-0.011584995
47	0xbd33050c	-0.043705985
48	0xbcc67731	-0.024226757
49	0x3de63f60	0.112425566
50	0xbc4ade09	-0.012382039
51	0x3e2b5774	0.1673258
52	0x3e2fbbe6	0.17161521
53	0x3cb2492f	0.021763412
54	0xbdede510	-0.11615956
55	0x3e251b8a	0.16123787
56	0xbe1b1091	-0.15143038
57	0x3b790afd	0.0038000934
58	0xbe05c2da	-0.13062611
59	0xbdf15b5b	-0.11785003
60	0xbd061f94	-0.03274496
61	0xbd8f8539	-0.07007832
62	0x3d016b34	0.031596377
63	0x3e4a6a8d	0.19767208
64	0x3c9ae7a1	0.018909277
65	0xbdac27eb	-0.08406051
66	0xbe09fc23	-0.13475089
67	0xbd267489	-0.04063848
68	0x3d13a320	0.03604424
69	0xbc25a98f	-0.010111227
70	0x3d32d47b	0.04365967
71	0xbd6fdc4c	-0.0585597
72	0x3db640a7	0.0889905
73	0xbdf0e09a	-0.11761589
74	0xbdcfb562	-0.10142018
75	0x3d9ef844	0.07762197
76	0xbd24108e	-0.04005485
77	0xbe0de000	-0.1385498
78	0xbd00b9bd	-0.031427134
79	0xbdddf857	-0.10838383
80	0xbe1d299e	-0.15347907
81	0xbc5c7c68	-0.013457395
82	0xbc6a8b38	-0.014315419
83	0x3e5dbb1b	0.21653406
84	0x3d3e4999	0.046456907
85	0xbe0813bd	-0.1328878
86	0xbd82a063	-0.063782476
87	0xbd697b77	-0.05700251
88	0xbe1e9ffc	-0.15490717
89	0xbd924d1c	-0.07143614
90	0xbe1af680	-0.15133095
91	0x3d0396d2	0.032126255
92	0x3d93103b	0.0718083
93	0xbd0c863f	-0.034307715
94	0xbd35f3c0	-0.04442191
95	0x3dd36a09	0.10322959
96	0xbd91b434	-0.07114449
97	0xbb8d8944	-0.004319342
98	0x3d9cb088	0.07650858
99	0xbd5365bd	-0.051610697
100	0x3cbe4610	0.023226768
101	0x3e2a3ab1	0.16623951
102	0x3cf1a3d6	0.029497068
103	0x3df5e555	0.12006632
104	0xbe1667c2	-0.14688018
105	0x3c8e25cd	0.01735201
106	0x3b21a0d1	0.0024662504
107	0x3d1c8158	0.03820929
108	0xbd321fac	-0.043487236
109	0xbe867777	-0.2626302
110	0x3e33dfd9	0.1756586
111	0xbc68efd7	-0.0142173385
112	0x3de471c3	0.11154511
113	0xbcd80ff3	-0.026374793
114	0xbba8a884	-0.0051470418
115	0x3e373e99	0.17894973
116	0x3ccd7879	0.02508186
117	0x3df523a5	0.11969689
118	0x3e127a2f	0.14304422
119	0x3d593b28	0.05303493
120	0xbc4cb9ac	-0.0124954395
121	0x3da2f384	0.07956603
122	0x3d13cfd0	0.036086857
123	0x3e6032b1	0.21894337
124	0x3e288c33	0.16459732
125	0xbe41e435	-0.1893471
126	0x3c97feab	0.018554052
127	0xbcbcfbdc	-0.023069315
128	0xbd5e1237	-0.05421659
129	0x3e0d116d	0.13776179
130	0xbdee1547	-0.11625152
131	0x3da564b8	0.08075851
132	0x3b6d93f9	0.0036251529
133	0xbdc9f5e1	-0.09861351
134	0xbcc0c6d6	-0.023532312
135	0xbd70c3e2	-0.05878056
136	0xbe36e9b3	-0.17862587
137	0x3dd48c6e	0.10378347
138	0xbc7385f1	-0.014863477
139	0xbdac4335	-0.08411256
140	0xbdd71ac0	-0.10503149
141	0xbdb2b012	-0.08724989
142	0x3cc0daa4	0.023541756
143	0x3ddc2b8a	0.10750492
144	0x3de01cf2	0.10943021
145	0xbe93e37d	-0.28884497
146	0x3dadce1b	0.08486577
147	0xbdaa3916	-0.083116695
148	0xbdb7733f	-0.08957528
149	0x3d8f7c02	0.070060745
150	0x3d692179	0.056916688
151	0xbe5642aa	-0.20923868
152	0xbd90c301	-0.07068444
153	0xbd9cd360	-0.07657504
154	0x3dff712a	0.12472756
155	0xbde89522	-0.1135657
156	0x3dfc4bab	0.1231912
157	0xbd335658	-0.043783516
158	0xbce5a913	-0.028034722
159	0x3de9eb05	0.114217795
160	0xbcf1dd56	-0.029524487
161	0x3d539af4	0.051661447
162	0x3bbc4d78	0.0057465397
163	0x3d8089d9	0.06276292
164	0xbddc110a	-0.107454374
165	0xbdc826ba	-0.097730115
166	0xbc4bc8e8	-0.0124380365
167	0xbe276233	-0.16346054
168	0xbdb1597b	-0.08659645
169	0xbc0d4a0a	-0.008623609
170	0xbb3fdf89	-0.0029277524
171	0x3e37f61e	0.1796498
172	0xbe7048f2	-0.23465326
173	0x3d8f9ecf	0.07012712
174	0x3bb08008	0.0053863563
175	0x3dcda255	0.10040728
176	0xbd30d9d4	-0.043176487
177	0x3d93cfb2	0.07217349
178	0xbe7aef9e	-0.24505469
179	0x3d2bf123	0.041978013
180	0x3e7815f6	0.24227127
181	0x3ce27b54	0.027646698
182	0xbd6dc2ab	-0.058046978
183	0xbc552765	-0.013009881
184	0x3cd2b53d	0.025721187
185	0x3d6e6051	0.058197323
186	0xbdaa132b	-0.08304437
187	0xbdb75366	-0.08951454
188	0x3dc90d47	0.098169856
189	0xbd6d6b11	-0.057963435
190	0x3e0842df	0.1330676
191	0x3da1a4ee	0.07892786
192	0xbe68a466	-0.22718963
193	0x3dd06485	0.101754226
194	0xbde56713	-0.112013005
195	0xbd9e6e46	-0.07735877
196	0xbe0c284f	-0.13687252
197	0x3e05b45a	0.1305708
198	0x3dadec8e	0.08492385
199	0x3aee54bc	0.0018183212
200	0xbe6224ee	-0.220844
201	0xbd37b466	-0.044849776
202	0xbd4f0064	-0.050537482
203	0xbe31454f	-0.17311595
204	0xbd3982de	-0.04529082
205	0xbd477960	-0.048699737
206	0x3e28787b	0.1645221
207	0xbc0d3383	-0.008618238
208	0xbda1bbd8	-0.078971565
209	0xbcecf687	-0.028926147
210	0x3d5d47cd	0.054023553
211	0xbe0498d9	-0.12948932
212	0x3e0693f3	0.13142376
213	0xbd4ea2f7	-0.050448384
214	0xbe941212	-0.28920037
215	0xbbc0a23c	-0.005878715
216	0x3dd84e77	0.10561841
217	0xbdd07128	-0.10177833
218	0x3cc5c718	0.024142787
219	0x3d48854c	0.048955247
220	0x3db720c2	0.08941795
221	0x3d189bc6	0.037257932
222	0xbd9bd28d	-0.07608519
223	0x39e14bff	0.00042971966
224	0xbccbb680	-0.024867296
225	0xbe422a50	-0.18961453
226	0x3d272de5	0.040815253
227	0xbdece69d	-0.115674235
228	0x3c19bc45	0.009383266
229	0xbd33f786	-0.04393723
230	0xbdcc0d55	-0.099634804
231	0x3d7b6759	0.061377857
232	0xbd90872e	-0.070570335
233	0xbb74b814	-0.0037341164
234	0xbd1cb19c	-0.03825532
235	0xbe464326	-0.19361553
236	0xbeb84356	-0.35988873
237	0x3c84fab4	0.016232826
238	0x3e3118e3	0.1729465
239	0x3b0a8f70	0.0021142624
240	0xbdde576b	-0.108565174
241	0x3c727ef9	0.01480078
242	0x3b8bdbfc	0.0042681675
243	0xbe2c72ab	-0.16840617
244	0xbcfeeade	-0.031117853
245	0x3cf79c5d	0.030225927
246	0x3d0da6dc	0.034582958
247	0xbda56da0	-0.0807755
248	0x3e00958c	0.12557048
249	0x3d1f61a3	0.038911473
250	0xbdf7a851	-0.12092651
251	0x3e0dcfa2	0.13848737
252	0x3e3e150b	0.18562715
253	0xbc0666f9	-0.0082032615
254	0x3c230bb1	0.009951518
255	0x3e9d9318	0.30776286

network_body.linear_encoder.seq_layers.2.bias f4 [128]
0	0x3dc15526	0.09440069
1	0x3e6cd643	0.2312861
2	0xbd93e0a2	-0.0722058
3	0xbc797c68	-0.015227415
4	0xbe012405	-0.12611397
5	0xbbb43628	-0.00549962
6	0x3dbc1e60	0.09185481
7	0xbdb59660	-0.088665724
8	0xbd5384e0	-0.05164039
9	0xb98e1a20	-0.00027103815
10	0xbda22d87	-0.0791884
11	0xbd534927	-0.051583435
12	0xbd4732c9	-0.048632417
13	0xbafebcc0	-0.0019434914
14	0x3d98566a	0.07438357
15	0xbd1f882d	-0.038948227
16	0x3e0f4c49	0.13993944
17	0x3d9946b7	0.07484191
18	0x3d541376	0.051776372
19	0xbe09de83	-0.13463788
20	0xbe02fcd9	-0.12791766
21	0xbd6a01ba	-0.057130553
22	0xbc055104	-0.008136991
23	0xbd31c7b8	-0.043403357
24	0xbdc7b351	-0.09750999
25	0xbd87f997	-0.06639402
26	0xbe1db82d	-0.15402289
27	0xbd0b41a3	-0.033998143
28	0x3e9804e3	0.29691228
29	0x3d9dbf1c	0.07702467
30	0xbcf0826e	-0.029359069
31	0xbd8df27a	-0.06931014
32	0x3dd69994	0.104785115
33	0xbd98b3cf	-0.07456171
34	0xbde333f5	-0.110938944
35	0xbe04733f	-0.12934588
36	0x3e309726	0.17245159
37	0xbdd3a7f9	-0.103347726
38	0xbd68c78a	-0.05683092
39	0xbe049d90	-0.1295073
40	0xbd7ef3b3	-0.06224413
41	0xbc6c0195	-0.014404674
42	0x3d4a2403	0.04935075
43	0xbd8ee26a	-0.06976779
44	0x3ca5b180	0.02022624
45	0xbdbf84af	-0.09351479
46	0x3de058fa	0.10954471
47	0x3dd9e36e	0.10639082
48	0x3e001288	0.12507069
49	0xbca16664	-0.019702144
50	0xbdb23be3	-0.08702829
51	0x3e56df5e	0.20983645
52	0x3e5f8168	0.21826708
53	0x3e23eb67	0.16007768
54	0x3db63d69	0.08898432
55	0xbd093e19	-0.033506487
56	0xbdcbfb04	-0.09959987
57	0xbc8ee933	-0.017445182
58	0xbd6fab16	-0.05851277
59	0x3bcce3c9	0.00625274
60	0x3d5eb878	0.05437514
61	0x3d96e998	0.07368773
62	0x3d213d42	0.03936506
63	0xbd87317a	-0.06601234
64	0xbc362f55	-0.011119683
65	0xbd94dac8	-0.07268292
66	0x3d74653e	0.059666865
67	0xbd29d95d	-0.04146706
68	0x3e19e017	0.1502689
69	0xbdf44ee3	-0.11929109
70	0x3d46f6d0	0.048575222
71	0xbdd0edfa	-0.102016404
72	0xbcad0cbf	-0.021124242
73	0x3e3bb908	0.18332303
74	0xbd22186b	-0.039574068
75	0x3d52b8d3	0.051445793
76	0xbe240c65	-0.16020353
77	0x3e2f8186	0.17139253
78	0x3d4ef86f	0.050529893
79	0xbdaa69ee	-0.08320986
80	0xbde72ca2	-0.1128781
81	0xbd33676d	-0.043799806
82	0xbdbd2cd5	-0.09237067
83	0xbc0bc66c	-0.008531194
84	0x3d9fe937	0.07808154
85	0x3c134aa8	0.008989967
86	0xba8c0508	-0.0010682652
87	0x3e28cdce	0.16484758
88	0xbda987ec	-0.08277878
89	0x3d7b7fa5	0.06140103
90	0xbd843fb1	-0.06457461
91	0xbd02eea5	-0.03196587
92	0xbda32643	-0.07966282
93	0xbe13d1b9	-0.14435472
94	0xbdef19b9	-0.11674828
95	0xbd7139e5	-0.058893103
96	0x3dd09f21	0.101866014
97	0x3da84338	0.08215946
98	0xbdae7b02	-0.08519556
99	0x3daaaf8e	0.08334266
100	0xbd97c9cd	-0.07411537
101	0x3d954c71	0.07289971
102	0xbdf31a6d	-0.11870275
103	0x3dc447f6	0.09584038
104	0xbdc6b2e9	-0.09702093
105	0xbd080086	-0.033203624
106	0xbe0dc305	-0.13843925
107	0x3db233fb	0.08701321
108	0xbd4cc56e	-0.04999297
109	0xbe1e30bd	-0.1544828
110	0x3d51d811	0.051231448
111	0xbd28ca8f	-0.0412088
112	0xbdd7d0b5	-0.105378546
113	0xbc884634	-0.016635038
114	0x3cc3bc7d	0.02389359
115	0xbd62a220	-0.055330396
116	0x3e55ce80	0.20879555
117	0xbbae1f8e	-0.00531382
118	0xbe2afc1d	-0.16697736
119	0x3d45b205	0.048265476
120	0x3e0e384f	0.13888668
121	0xbccd91d2	-0.025093947
122	0x3e03fb90	0.12888932
123	0x3c6f16b1	0.014592812
124	0x3ae099e7	0.001713571
125	0x3caf3d99	0.021391677
126	0xbce6b91e	-0.028164443
127	0xbe1b0964	-0.15140301

network_body.linear_encoder.seq_layers.4.weight f4 [128, 128]
0	0xbe0938d6	-0.13400587
1	0x3d1b4023	0.037902962
2	0xbe1dc4bd	-0.15407081
3	0x3c51bfdb	0.01280209
4	0x3d11914c	0.035538957
5	0x3d06c4d2	0.032902546
6	0x3d9db8e0	0.07701278
7	0xbdb1098a	-0.086443976
8	0xbaeaafc2	-0.0017905163
9	0xbe408d16	-0.1880382
10	0xbd41cd2a	-0.0473148
11	0xbdda25ca	-0.10651739
12	0x3e7f0446	0.24903974
13	0x3cdd89d0	0.027043253
14	0x3e1fd4c1	0.15608503
15	0xbebadfcd	-0.3649887
16	0x3db790b5	0.089631476
17	0x3da534ed	0.080667354
18	0xbe36b55c	-0.1784262
19	0x3d077a9a	0.033075906
20	0xbb678098	-0.003532445
21	0xbd308563	-0.043095957
22	0x3d295448	0.041340142
23	0xbdde2471	-0.108467944
24	0x3d69f057	0.05711397
25	0xbe35a441	-0.17738439
26	0x3c6423aa	0.013924519
27	0xbd1c0221	-0.038087968
28	0x3c773a1a	0.015089536
29	0xbda48ae3	-0.08034303
30	0xbe8cafd2	-0.2747789
31	0x3db57c4e	0.088616
32	0x3d09dab2	0.03365583
33	0xbc1ba7e8	-0.009500481
34	0x3d4a827a	0.04944084
35	0x3e2a790b	0.16647737
36	0xbcd66adb	-0.026174
37	0x3db53b70	0.088492274
38	0x3c813561	0.015772523
39	0xbd0f997a	-0.035058476
40	0xbe908c7e	-0.28232187
41	0xbd8b6909	-0.06807143
42	0x3eaee0e9	0.34155968
43	0xbde27c30	-0.11058843
44	0xbde926e9	-0.11384375
45	0xbd315ae4	-0.04329957
46	0xbce298ad	-0.027660692
47	0x3d9313a0	0.071814775
48	0x3e8750f5	0.26428953
49	0x3e2f15cf	0.17098163
50	0x3e246ac1	0.16056348
51	0x3d23a8e3	0.039955985
52	0xbd23a12a	-0.03994862
53	0x3e498a65	0.196817
54	0xbd223f36	-0.039611064
55	0xbd00938c	-0.03139071
56	0xbe2aa61c	-0.16664928
57	0x3e569f9d	0.20959325
58	0xbe3dbe33	-0.18529586
59	0xbead31a2	-0.3382693
60	0x3e78e18e	0.24304792
61	0xbddb765b	-0.10715934
62	0xbdb59009	-0.08865363
63	0xbe1e0856	-0.15432867
64	0xbe25e5d8	-0.1620096
65	0xbd30a4ea	-0.043126024
66	0x3e534894	0.20633155
67	0x3d05a9b2	0.032632537
68	0x3e07d048	0.13263047
69	0xbd00ecfe	-0.031476013
70	0x3bea3862	0.0071478346
71	0x3dcc1890	0.099656224
72	0xbe2295df	-0.15877484
73	0x3d98f35d	0.07468293
74	0xbe0767e6	-0.13223228
75	0x3e47c495	0.19508584
76	0xbc31679a	-0.010827923
77	0x3d62d9f6	0.055383645
78	0x3db9a4de	0.09064649
79	0x3c9e4015	0.019317666
80	0xbe8c8a91	-0.27449468
81	0xbc2e2aa3	-0.010630283
82	0xbd7476ff	-0.059683796
83	0x3e780b65	0.24223097
84	0xbcb5c968	-0.022190765
85	0xbe4c511d	-0.19952817
86	0xbda4af49	-0.080412455
87	0xbe074702	-0.13210681
88	0xbb56fcd3	-0.0032804504
89	0xbd17ec09	-0.037090335
90	0xbeaab28f	-0.33339354
91	0x3d92a927	0.071611695
92	0xbe30cfa5	-0.1726671
93	0x3b18cc94	0.0023315297
94	0xbe32337b	-0.1740245
95	0x3d7fac5c	0.062420234
96	0xbe60a7b1	-0.21938969
97	0x3d0829b6	0.033242904
98	0xbc9dfdc7	-0.01928605
99	0xbd33f341	-0.043933157
100	0x3da1e93c	0.07905814
101	0xbdbdd866	-0.0926979
102	0xbe0c76a5	-0.13717134
103	0x3da47c04	0.080314666
104	0xbe46e37e	-0.19422719
105	0x3da2ac22	0.07942988
106	0xbda53165	-0.08066062
107	0x3e650a0f	0.22367118
108	0x3dfd75ee	0.12376009
109	0xbe284a9d	-0.16434713
110	0xbdfcae9c	-0.123379916
111	0x3c8d1254	0.017220654
112	0xbdf9d8ca	-0.12199552
113	0x3dcedcf6	0.10100739
114	0xbdcac1dc	-0.09900257
115	0xbd73b441	-0.059498075
116	0xbcaa5ef4	-0.02079723
117	0x3daee8ce	0.08540498
118	0x3cb9f073	0.022697663
119	0x3d0a078c	0.033698604
120	0x3df8552f	0.121256225
121	0xbc02410c	-0.007950079
122	0x3dd56d25	0.10421208
123	0x3e587d14	0.21141464
124	0xbd0b5c01	-0.03402329
125	0x3db301df	0.08740591
126	0x3df8db52	0.12151207
127	0xbd3ed247	-0.046587255
128	0xbd2c61ab	-0.04208533
129	0x3e4901ae	0.19629547
130	0xba5b1bda	-0.0008358337
131	0xbe02f970	-0.12790465
132	0x3dd12dfb	0.10213848
133	0x3d20e521	0.039281014
134	0x3db9a1a7	0.09064036
135	0xbe8d3264	-0.27577507
136	0xbe1fa4bc	-0.15590185
137	0x3dc28449	0.09497888
138	0xbe051ee1	-0.1300006
139	0xbcb1e0b6	-0.021713596
140	0xbe2b8949	-0.16751589
141	0x3ddc1925	0.107469834
142	0x3d480b90	0.04883915
143	0xbdebe131	-0.11517561
144	0x3dfdcdd8	0.12392777
145	0x3dfddbea	0.12395461
146	0xbd47828f	-0.048708495
147	0xbd5e8a8a	-0.05433134
148	0xbe1a00b2	-0.15039328
149	0xbce45cd0	-0.027876288
150	0xbe780a94	-0.24222785
151	0xbe0efac6	-0.1396285
152	0xbdf82acc	-0.12117538
153	0x3c70fdc5	0.014708941
154	0x3d77a4a8	0.060459763
155	0xbca5fa49	-0.020260947
156	0x3dca0a10	0.098652005
157	0x3dc89cae	0.09795509
158	0xbe1068e2	-0.1410251
159	0x3ce08e8f	0.027411727
160	0x3d833fd6	0.0640866
161	0xbd226c4d	-0.039654065
162	0xbd8d521b	-0.06900426
163	0xbe29afef	-0.1657102
164	0x3e136d99	0.14397277
165	0xbdb72df0	-0.08944309
166	0xbcdb2960	-0.026753128
167	0xbe4c77ea	-0.19967619
168	0xbd01ed13	-0.031720232
169	0xbd95f106	-0.07321362
170	0x3b24ef94	0.0025167214
171	0xbb230cca	-0.002487945
172	0xbdbd58ab	-0.09245428
173	0x3d90dfa1	0.07073904
174	0x3e197224	0.14984947
175	0x3d0c44f2	0.03424544
176	0x3e9a6011	0.30151418
177	0xbe256b9c	-0.16154331
178	0xbe2e35a3	-0.17012648
179	0x3e3d9ba2	0.185164
180	0xbd029377	-0.031878915
181	0x3e1bfc6c	0.1523301
182	0x3e482934	0.19546968
183	0xbda0dfbf	-0.07855176
184	0xbe1abf44	-0.15112025
185	0xbe174729	-0.14773239
186	0xbd887856	-0.06663577
187	0xbe1998d1	-0.14999701
188	0x3e35f24e	0.17768213
189	0xbd5a80fe	-0.053345673
190	0xbd71aac8	-0.05900076
191	0xbcf0d413	-0.029398
192	0xbc71f9b3	-0.014769006
193	0xbe3b7aa0	-0.18308496
194	0x3dac97a4	0.08427361
195	0x3c3c2604	0.011483673
196	0x3d8af76d	0.06785474
197	0xbc4b2df6	-0.012401095
198	0x3b81a013	0.00395585
199	0xbdca9677	-0.0989198
200	0xbebc38bc	-0.36762035
201	0x3e1be805	0.15225227
202	0xbeb58873	-0.35455665
203	0x3e06bf08	0.1315881
204	0xbd630b4f	-0.055430707
205	0x3e7441f6	0.23853287
206	0xbd92c369	-0.07166178
207	0xbe01cd27	-0.12675916
208	0xbd605555	-0.05476888
209	0x3cbdca4e	0.023167755
210	0xbe3e03bd	-0.18556114
211	0x3e3eef6e	0.18646023
212	0x3e16b5ad	0.14717741
213	0xbe229f57	-0.15881096
214	0x3e678592	0.22609547
215	0x3e2c3744	0.16817957
216	0x3d26c122	0.04071153
217	0x3ddca0f9	0.107728906
218	0x3c7859a7	0.015158094
219	0xbd358332	-0.04431457
220	0xbce31e2b	-0.027724346
221	0xbd86b5e7	-0.06577664
222	0xbd8852e3	-0.066564344
223	0xbb3f54a5	-0.002919474
224	0x3e72316b	0.23651664
225	0x3de9d395	0.11417309
226	0x3e2bd5f8	0.16780841
227	0x3e0e2027	0.13879453
228	0xbe0dbfe0	-0.13842726
229	0xbdfab122	-0.12240817
230	0xbe5458a0	-0.20736933
231	0x3d211c56	0.039333664
232	0xbe3f7e5c	-0.18700546
233	0xbdb4595c	-0.088061064
234	0xbe00a527	-0.12563
235	0x3dc66b88	0.09688479
236	0xbd0c7aa2	-0.03429664
237	0xbe868002	-0.26269537
238	0x3d6f6d89	0.05845407
239	0xbe68707f	-0.22699164
240	0xbdf79255	-0.120884575
241	0x3d7632ec	0.060107157
242	0xbd8c193f	-0.06840753
243	0xbe0cfbd2	-0.13767937
244	0x3e9b18b1	0.30292276
245	0x3dedf541	0.11619044
246	0xbee5ebb3	-0.44906387
247	0x3cf4c9b6	0.02988134
248	0x3d0c0aa5	0.03418984
249	0x3dec6476	0.11542599
250	0x3d7b1f1c	0.061308965
251	0xbc91284f	-0.017719416
252	0xbd87be0c	-0.066280454
253	0xbd84a09b	-0.064759456
254	0xbc3d3743	-0.01154882
255	0xbe156a46	-0.14591321

network_body.linear_encoder.seq_layers.4.bias f4 [128]
0	0x3d4ff5ef	0.05077165
1	0x3e2f5289	0.17121328
2	0xbe178c5c	-0.14799637
3	0x3d1ca61f	0.038244363
4	0x3d9e4c0f	0.07729351
5	0xbdae98ca	-0.08525236
6	0xbd9eae60	-0.07748103
7	0x3de76967	0.11299401
8	0x3dcebd98	0.10094756
9	0xbcdf34bb	-0.027246824
10	0xbdc92b27	-0.09822684
11	0xb9fcb8e5	-0.00048202943
12	0x3dba63fe	0.09101103
13	0xbdbe06ff	-0.09278678
14	0xbdf45f50	-0.11932242
15	0xbcde75e2	-0.02715582
16	0x3d0e6b50	0.03477031
17	0xbdcfc8e0	-0.10145736
18	0xbbf940d1	-0.0076066037
19	0xbb2af583	-0.0026086278
20	0x3e2f827d	0.17139621
21	0xbd9cbb33	-0.07652893
22	0xbe16bde7	-0.1472088
23	0x3d56aea6	0.05241265
24	0xbdcba679	-0.099438615
25	0x3cad8433	0.021181202
26	0x3dcb2028	0.09918243
27	0x3e88caf1	0.26717332
28	0xbce0567b	-0.027384987
29	0xbd386668	-0.045019537
30	0xbc15e7f0	-0.0091495365
31	0xbdb836ed	-0.08994851
32	0xbde51d4d	-0.11187229
33	0x3e0b1df0	0.13585639
34	0x3db4ec0e	0.08834086
35	0x3d95bcf8	0.073114336
36	0xbdd12354	-0.102118164
37	0xbbdbfa9b	-0.006713224
38	0xbc806f62	-0.015678111
39	0xbd3c33b3	-0.04594774
40	0x3d047498	0.032337755
41	0xbe00b5c8	-0.12569344
42	0x3d8bdc08	0.06829077
43	0x3cee7ef4	0.02911327
44	0x3e2482b9	0.16065492
45	0x3d979e2d	0.074032165
46	0x3dd86566	0.10566215
47	0x3d10bc9f	0.035336133
48	0xbdf2fdca	-0.11864813
49	0x3e0341b9	0.1281804
50	0xbc9ec405	-0.019380579
51	0x3dac0a6e	0.08400427
52	0xbdae2f56	-0.08505122
53	0x3d734302	0.059390076
54	0xbd1aaf7b	-0.037765007
55	0x3da41bc9	0.08013112
56	0xbdf60364	-0.120123655
57	0x3d874ae6	0.066060826
58	0x3d50159d	0.050801862
59	0x3b6f4179	0.003650753
60	0xbd2c8bd4	-0.042125538
61	0xbdcaa7e6	-0.09895305
62	0x3da5173a	0.08061071
63	0x3d2236b3	0.039602946
64	0x3c955c88	0.018232599
65	0xbdb72e25	-0.08944348
66	0xbdc42fe0	-0.09579444
67	0x3dd1f56d	0.102518894
68	0xbe05ed01	-0.13078691
69	0xbd4adcc2	-0.049526937
70	0x3da60a86	0.08107476
71	0xbd1a75eb	-0.03771011
72	0x3c9c66b8	0.019091949
73	0x3e19984d	0.14999504
74	0x3c4542ca	0.01203985
75	0xbd1af850	-0.037834466
76	0x3e034a4a	0.12821308
77	0xbdb0a002	-0.08624269
78	0xbda720ff	-0.081605904
79	0x3b67383c	0.003528132
80	0x3e3a8cf7	0.18217836
81	0xbd544b98	-0.051829904
82	0xbdb51454	-0.08841768
83	0x3dd306ff	0.10304069
84	0xbd44d6de	-0.048056476
85	0x3d9837b7	0.07432502
86	0x3d829c30	0.06377447
87	0xbdff9ecd	-0.12481461
88	0x3dfb1049	0.122589655
89	0xbcbef1c8	-0.02330865
90	0x3e077385	0.13227661
91	0xbcbafbf2	-0.022825215
92	0x3d284ce3	0.04108895
93	0xbd8dba87	-0.06920343
94	0x3e8bc909	0.27301815
95	0xbdc5474a	-0.09632738
96	0x3e482100	0.19543839
97	0x3d9c5fbb	0.07635447
98	0x3c1d59fe	0.009603975
99	0xbc6e2396	-0.014534852
100	0x3e0cbd70	0.1374414
101	0xbd54d1a9	-0.05195776
102	0x3da85f06	0.08221249
103	0x3d14dd81	0.036344055
104	0x3ddd0640	0.10792208
105	0x3d342a60	0.043985724
106	0xbde5d65d	-0.11222527
107	0x3def950f	0.116983525
108	0xbd901ec9	-0.07037122
109	0xbddeff97	-0.10888594
110	0x3db1106f	0.086457126
111	0xbe03aa98	-0.12858045
112	0xbd73c03d	-0.059509505
113	0xbdc7010c	-0.097169966
114	0x3d465dbc	0.048429236
115	0xbbe8e1cb	-0.0071069947
116	0x3da86b8c	0.08223638
117	0x3df191af	0.11795365
118	0x3df1f728	0.118147194
119	0xbdda47bc	-0.106582135
120	0xbd53eb1b	-0.051737886
121	0xbc763ba0	-0.015028864
122	0x3b5d76f2	0.003379282
123	0x3d1d9cfd	0.038479794
124	0xbcbd1989	-0.023083465
125	0xbd439939	-0.047753546
126	0x3d3b26d8	0.04569134
127	0xbdcfc8a4	-0.10145691

distribution.branches.0.weight f4 [2, 128]
0	0xbbfc80a6	-0.007705766
1	0xbe504a61	-0.20340873
2	0x3db535d9	0.08848161
3	0x3b4abec0	0.003093645
4	0xbd312ed0	-0.043257535
5	0x3ddbaa87	0.10725885
6	0x3dd6e9ec	0.10493836
7	0xbda5f54f	-0.081034295
8	0xbd8e6977	-0.069537096
9	0x3c81dde9	0.015852885
10	0x3dc3c7a4	0.09559563
11	0x3d85c39d	0.06531451
12	0xbdda317b	-0.10653969
13	0x3bbe19ba	0.0058014067
14	0x3ce9d325	0.028543064
15	0x3d81d6fb	0.063398324
16	0xbd03b6ce	-0.032156758
17	0x3da0bfb0	0.078490615
18	0xbcf6938e	-0.030099656
19	0x3cdc8a5f	0.02692145
20	0xbe29e9d5	-0.16593106
21	0x3cc3dae5	0.023908088
22	0x3e2cf142	0.16888908
23	0xbd0de94d	-0.03464632
24	0x3ccbb4a6	0.024866413
25	0x39208734	0.00015309156
26	0xbd277200	-0.040880203
27	0xbe4d0449	-0.20021166
28	0x3db6ffc7	0.089355044
29	0x3d8ff557	0.07029217
30	0x3cb17b51	0.021665247
31	0x3c9be52b	0.019030174
32	0x3c709caf	0.014685794
33	0xbe0995ab	-0.13436
34	0xbd28091f	-0.041024324
35	0x3b49db7c	0.003080099
36	0x3de6ca5a	0.11269064
37	0x3bb20cd5	0.0054336586
38	0x3d40e1d8	0.04709038
39	0xbbf9e4e3	-0.0076261624
40	0x3c092838	0.008371405
41	0x3dc122c9	0.09430463
42	0xbc27a2d3	-0.010231691
43	0xbca4b94b	-0.020107886
44	0xbde33ee1	-0.110959776
45	0xbd8982be	-0.0671439
46	0xbd889d21	-0.06670595
47	0xbc55488a	-0.013017783
48	0x3d4c49fd	0.04987525
49	0xbda06495	-0.078316845
50	0x37be0bf1	2.2655326e-05
51	0x3ae05664	0.001711559
52	0x3d874288	0.06604487
53	0xbc8ba861	-0.017048063
54	0x3c0ef5a9	0.008725562
55	0xbd758b09	-0.059947047
56	0x3e2fe783	0.17178158
57	0xbcf08925	-0.02936227
58	0xbd06392d	-0.03276937
59	0x3c602c3e	0.013682423
60	0x3d649a79	0.05581138
61	0x3df58cef	0.119897716
62	0xbd194ff5	-0.03742977
63	0xbc0064b0	-0.007836506
64	0x3c16ca97	0.009203575
65	0x3dbb1b96	0.09136121
66	0x3dc78a79	0.097432084
67	0xbd581bd4	-0.052760914
68	0x3d9df7dd	0.07713292
69	0x3ca049b5	0.019566396
70	0x3c4311ce	0.0119061
71	0x3d7f8e54	0.062391594
72	0x3cca4af3	0.024693942
73	0xbe06f8f0	-0.131809
74	0xbb9c9cd1	-0.004779436
75	0xbc910faf	-0.017707674
76	0xbe098f0d	-0.13433476
77	0x3d42c94c	0.047555253
78	0x3df246f0	0.118299365
79	0xbc205823	-0.009786638
80	0xbe3f6300	-0.18690109
81	0x3d57a001	0.052642826
82	0x3d859dce	0.065242395
83	0xbd29b4e5	-0.04143228
84	0x3d59a523	0.053136002
85	0xbcc26b80	-0.0237329
86	0xbd14b37f	-0.036303993
87	0x3dc6cfb6	0.097075865
88	0xbd763880	-0.060112476
89	0x3afdb331	0.0019355771
90	0xbd4dd192	-0.05024869
91	0x3d40762b	0.046987694
92	0x3c6c4b15	0.014422198
93	0x3dcf7569	0.10129816
94	0xbe8121ac	-0.25221002
95	0x3d75306a	0.059860624
96	0xbe61aaa0	-0.22037745
97	0xbcd42c8a	-0.025900144
98	0x3c837c0f	0.016050367
99	0x3cfbe118	0.030746982
100	0xbdc5d2db	-0.09659358
101	0x3dd234cd	0.10263977
102	0xbd70907c	-0.05873154
103	0x3d0495a4	0.03236927
104	0xbda2c9ef	-0.07948672
105	0xbbba1d66	-0.005679774
106	0x3e26620d	0.16248341
107	0xbdb9fae4	-0.09081057
108	0x3cfbbc38	0.030729398
109	0x3d9e470f	0.07728397
110	0xbd5978ea	-0.05309383
111	0x3d77f8b7	0.060539927
112	0x3ca1d10e	0.019753005
113	0x3db7da93	0.089772366
114	0xbd00a927	-0.031411316
115	0x3d7aafd0	0.061202824
116	0xbc953217	-0.018212361
117	0xbdbcd597	-0.092204265
118	0xbe000945	-0.12503536
119	0x3dfceffa	0.123504594
120	0x3cb78c0e	0.02240565
121	0x3d4a9898	0.04946193
122	0xbb0e546b	-0.0021717797
123	0xbbee0de2	-0.0072648386
124	0xbaaf9a1d	-0.001339737
125	0x3d815784	0.063155204
126	0xbb632a5c	-0.00346627
127	0x3dda2393	0.106513165
128	0x3c9c81ae	0.019104805
129	0x3e5cd6ee	0.21566364
130	0xbdbf9a77	-0.09355634
131	0x3c7e5e5f	0.0155254295
132	0x3ce8695d	0.028370554
133	0xbdd62c73	-0.10457697
134	0xbdc095b4	-0.094035536
135	0x3d9d38b5	0.07676832
136	0x3d341b5b	0.0439714
137	0xbc718f40	-0.014743626
138	0xbdbf5164	-0.09341696
139	0xbd820532	-0.06348647
140	0x3dc6e6c4	0.09711984
141	0xbbdd9870	-0.0067625567
142	0xbcabac3f	-0.020956157
143	0xbd600fe1	-0.054702643
144	0x3d1cc51c	0.038273916
145	0xbd79a65e	-0.060949676
146	0x3d080c38	0.033214778
147	0xbcd8fb11	-0.026486905
148	0x3e242fa3	0.16033797
149	0xbcda1fa5	-0.026626417
150	0xbe368789	-0.1782514
151	0x3ceecc7d	0.029150242
152	0xbd38f48f	-0.045155104
153	0xbab48808	-0.0013773451
154	0x3d02db3b	0.031947356
155	0x3e541be3	0.20713763
156	0xbdc0d0da	-0.09414835
157	0xbd97947e	-0.074013695
158	0xbcd50fa5	-0.026008436
159	0xbcb5740d	-0.022150064
160	0xbce247dc	-0.027622156
161	0x3e198c2b	0.14994876
162	0x3d3fc546	0.046818994
163	0x3be9201e	0.0071144244
164	0xbdf6ff12	-0.120603696
165	0xbbd2c214	-0.0064318273
166	0xbd6e7c2a	-0.05822388
167	0xbbd3c42d	-0.006462595
168	0x3c244cf4	0.010028113
169	0xbddc8248	-0.10767037
170	0x3c77bc0a	0.015120516
171	0x3cc223e6	0.023698758
172	0x3e0374fe	0.12837598
173	0x3d6d98c2	0.05800701
174	0x3d7f565b	0.062338214
175	0x3c5c98ad	0.013464135
176	0xbd22f664	-0.039785758
177	0x3d99be83	0.0750704
178	0x3c27df53	0.010246116
179	0x3cc3ddcb	0.02390947
180	0xbda1bc11	-0.07897199
181	0x3b90590a	0.0044051455
182	0xbb1ed775	-0.002423731
183	0x3d16c289	0.036806617
184	0xbe3645ee	-0.17800114
185	0x3d1f9420	0.038959622
186	0x3cc5d61b	0.024149945
187	0xbcadd8c9	-0.021221535
188	0xbd730558	-0.059331268
189	0xbdec53ed	-0.11539445
190	0x3d0a8315	0.033816416
191	0x3c9746f5	0.018466452
192	0xbbaa2f3f	-0.0051936205
193	0xbdce4c0e	-0.100731
194	0xbdacfd16	-0.0844671
195	0x3d261699	0.040548895
196	0xbdb4938e	-0.08817206
197	0x3aa4b0f5	0.0012564944
198	0xbd1ebeca	-0.03875617
199	0xbda72a7e	-0.081624016
200	0xbca61fc6	-0.020278823
201	0x3dcdf287	0.10056024
202	0x3c070ad8	0.008242331
203	0xb96c706a	-0.00022548591
204	0x3e03c618	0.12868536
205	0xbcf52ae8	-0.029927686
206	0xbdd2ac95	-0.10286824
207	0xbc52295f	-0.012827246
208	0x3e3a0774	0.18166906
209	0xbd757437	-0.059925284
210	0xbce5c76a	-0.02804919
211	0x3d6acded	0.057325292
212	0xbd765b00	-0.060145378
213	0x3c411c8d	0.011786592
214	0x3d805b08	0.06267363
215	0xbdb0e914	-0.08638206
216	0x3d963cce	0.07335816
217	0xbc2a9143	-0.01041061
218	0x3d435108	0.0476847
219	0xbd21c708	-0.03949645
220	0x3b3e90cb	0.0029078003
221	0xbdc5c678	-0.096569955
222	0x3e8bce00	0.27305603
223	0xbda69065	-0.0813301
224	0x3e50b9a8	0.20383322
225	0x3d1e68c1	0.03867412
226	0x3b4dcd17	0.003140276
227	0xbca93745	-0.020656237
228	0x3db6d8f2	0.08928098
229	0xbdced2f6	-0.10098831
230	0x3d1a81a4	0.03772129
231	0xbd479e71	-0.048735086
232	0x3da6820f	0.081302755
233	0x3c9c4a11	0.019078286
234	0xbe35288c	-0.17691249
235	0x3db21ab6	0.08696501
236	0xbd02b44a	-0.03191022
237	0xbda3eda6	-0.08004312
238	0x3d3f74af	0.046742138
239	0xbd4d5e12	-0.05013854
240	0xbce05720	-0.027385294
241	0xbdc65f52	-0.0968615
242	0x3cd4ddd2	0.025984678
243	0xbd423602	-0.047414787
244	0x3d1981b0	0.037477195
245	0x3df35a13	0.11882415
246	0x3e03e35f	0.12879704
247	0xbe00da71	-0.12583329
248	0xbcfbff0e	-0.030761268
249	0xbd5dec09	-0.05418018
250	0x3c017755	0.007901986
251	0x3c4d4901	0.0125296125
252	0x3c2e1609	0.010625371
253	0xbd9a432c	-0.07532343
254	0xbc931a21	-0.017956795
255	0xbdc62bf6	-0.09676354

distribution.branches.0.bias f4 [2]
0	0xbdedcba5	-0.11611108
1	0x3dedcba5	0.11611108

distribution.branches.1.weight f4 [3, 128]
0	0x3bec3fc9	0.007209752
1	0xbb940b27	-0.004517931
2	0x3bfabf94	0.0076522324
3	0xbd4a4fee	-0.049392633
4	0xbd07a2e5	-0.033114333
5	0x3b93e984	0.004513921
6	0x3cc83db9	0.024443494
7	0xbbb0660d	-0.005383259
8	0xbd36ada1	-0.04459918
9	0x3c021c3a	0.0079413
10	0x3d6cb6eb	0.05779163
11	0xbd71f39c	-0.059070215
12	0x3a00430a	0.0004892802
13	0x3c42b204	0.011883263
14	0xbc16575d	-0.0091761025
15	0x3d7eaabe	0.06217455
16	0x3cfaf250	0.030633122
17	0xbc955e6d	-0.018233502
18	0xbc8fb683	-0.017543083
19	0xbcac299b	-0.021015933
20	0xbc364c5f	-0.011126607
21	0x3c706a5a	0.014673794
22	0x3d5b9575	0.05360933
23	0x3ba70813	0.005097398
24	0x387af192	5.9829625e-05
25	0xba79b6cc	-0.0009525835
26	0x3cd7dbc1	0.026349904
27	0x3c4dc7ac	0.0125598125
28	0xbb40063b	-0.0029300589
29	0x3cb06315	0.021531621
30	0x3c3b2759	0.011422955
31	0x3c0e2e20	0.008677989
32	0xbbc92209	-0.0061380905
33	0x3cca5841	0.024700286
34	0x3d303c3f	0.043026205
35	0xbc3b8e07	-0.011447436
36	0x3d501c5d	0.0508083
37	0xbda51d6a	-0.08062251
38	0xbd13e94a	-0.036111154
39	0xbbc99a9e	-0.006152465
40	0x39b075a3	0.00033656982
41	0x3c6b6982	0.014368417
42	0xbd159a5f	-0.036524173
43	0x3bc7c5b1	0.0060965647
44	0x3cf199e4	0.029492326
45	0x3d70c472	0.058781095
46	0xbc9c22b9	-0.019059526
47	0xbd73445e	-0.059391372
48	0xbb3f9d1f	-0.0029237939
49	0xbcf7d316	-0.03025202
50	0xbc4dc947	-0.012560195
51	0x3d25010f	0.040284213
52	0xbc6c8eb4	-0.01443832
53	0xbce7a3eb	-0.028276404
54	0xbcaa5e42	-0.020796899
55	0xbb0983fc	-0.002098321
56	0x3d199640	0.037496805
57	0x3cfe1705	0.031016836
58	0xbb5737b6	-0.0032839603
59	0x3c2ca2ff	0.010536908
60	0xbc00c3cf	-0.007859184
61	0xbc37b645	-0.01121289
62	0x3c0faeff	0.00876975
63	0xbc450dc9	-0.012027212
64	0xbc2320aa	-0.009956518
65	0x3cfd664d	0.03093257
66	0x3d7aab7a	0.06119869
67	0xbb2470ee	-0.0025091725
68	0x3cefb18f	0.029259471
69	0xbd3b5c5f	-0.04574239
70	0xbd435aba	-0.047693945
71	0xbdd1ee32	-0.1025051
72	0xbd75c18d	-0.059999038
73	0x3cdaf860	0.026729763
74	0x3d025792	0.031821795
75	0xbc55e688	-0.013055451
76	0xbcfa62ae	-0.030564632
77	0x3cf24048	0.029571667
78	0x3d67689a	0.05649624
79	0xbb95c28a	-0.00457031
80	0xbc9d7183	-0.019219166
81	0xbabff424	-0.0014644903
82	0x3c298327	0.010346211
83	0x3c2f0af9	0.010683768
84	0x3c8be57b	0.017077198
85	0x3d1c15f0	0.03810686
86	0xbd59c0b2	-0.053162284
87	0x3c3fe004	0.011711124
88	0x3d950442	0.07276203
89	0xbbac3cfc	-0.0052562933
90	0x3b9369c1	0.004498691
91	0x3cd03660	0.025416553
92	0x3d5669c8	0.052346975
93	0x3d9d3822	0.07676722
94	0x3c1c917a	0.009556169
95	0x3b856719	0.004071128
96	0xbc6b0e43	-0.014346662
97	0xbc31328d	-0.010815275
98	0xbc230217	-0.009949229
99	0x3c79fba8	0.015257753
100	0xbcd50fad	-0.026008451
101	0x3daa37fc	0.083114594
102	0xbd1fd789	-0.03902391
103	0xbdbfc674	-0.09364024
104	0x3d3c4ab4	0.04596968
105	0xbd29a8dc	-0.041420802
106	0x3d5a54f5	0.053303678
107	0xbb774569	-0.003773058
108	0xbcea137d	-0.028573746
109	0xbcc9a825	-0.02461631
110	0xbc75fa44	-0.015013281
111	0xbc30d672	-0.010793315
112	0x3ca3f32f	0.02001342
113	0x3d02cda0	0.03193438
114	0xbd31756c	-0.043324873
115	0x3bc89eb9	0.006122437
116	0x3d2fd204	0.042924896
117	0xbd4cd4cc	-0.050007626
118	0xbccc4628	-0.024935797
119	0x3cbb6483	0.022875076
120	0x3d57d598	0.052693933
121	0xbc2e5fbf	-0.010642945
122	0xbb7af312	-0.0038291854
123	0xb802f799	-3.122501e-05
124	0x3ce2150a	0.027597923
125	0xbd294234	-0.0413229
126	0xbd4ab871	-0.049492303
127	0x3d9eb3be	0.07749127
128	0x3e231b94	0.15928489
129	0xbaf5939d	-0.0018736009
130	0xbdbd0364	-0.09229162
131	0xbc76ee26	-0.015071427
132	0xbd116d4d	-0.035504628
133	0x3d4cffd8	0.05004868
134	0x3cbe8cc7	0.023260487
135	0xbe31c0aa	-0.17358652
136	0xbc493cac	-0.012282532
137	0x3c952ad9	0.018208908
138	0xbb2bc31e	-0.0026208828
139	0x3c7d627c	0.015465375
140	0x3d910b28	0.07082206
141	0xbd0d5290	-0.034502566
142	0xbdc8cf46	-0.09805159
143	0x3dcf5ab5	0.10124723
144	0xbe57f717	-0.21090351
145	0xbe5662f2	-0.20936182
146	0xbe855d80	-0.26047897
147	0x3df946a1	0.121716745
148	0x3d8c50d7	0.068513565
149	0xbe2f13d5	-0.17097409
150	0xbd08c611	-0.033392016
151	0x3de3477d	0.1109762
152	0xbd713d5d	-0.05889641
153	0xbe323fa4	-0.1740709
154	0x3dbcaa0e	0.09212123
155	0x3d7b353c	0.061330065
156	0x3df927b4	0.12165776
157	0x3da1963f	0.07889985
158	0xbe07f6eb	-0.13277785
159	0xbe0d1825	-0.13778742
160	0xbdeccd85	-0.11562637
161	0x3dd9abf3	0.106285
162	0xbe1e07b8	-0.15432632
163	0xbd9d9fd4	-0.076965004
164	0x3d51d4b4	0.05122824
165	0x3dd9ecfb	0.106409036
166	0x3dc0e431	0.09418524
167	0xbe0ca1e0	-0.13733625
168	0xbe1bcbbd	-0.15214439
169	0xbd52f9e2	-0.051507838
170	0xbd8e5799	-0.06950302
171	0xbe0d1527	-0.137776
172	0xbd6fc644	-0.05853869
173	0x3d9d75af	0.07688462
174	0xbdb9e578	-0.09076971
175	0x3d5da67d	0.054113854
176	0xbbc023af	-0.005863629
177	0x3c60c8c9	0.013719746
178	0xbe339ebf	-0.17541026
179	0x3e1d5920	0.1536603
180	0x3cad9a22	0.02119166
181	0xbe0a583a	-0.13510218
182	0xbe70a677	-0.23501001
183	0x3df24d8b	0.118311964
184	0x3c8b2851	0.016986998
185	0x3ded9b95	0.116019405
186	0x3d945e4b	0.072445475
187	0xbe1d374f	-0.1535313
188	0xbddd79e3	-0.10814264
189	0x3d4e345f	0.050342914
190	0xbe26eac1	-0.16300489
191	0xbdd44dd7	-0.10366409
192	0x3e03f6c1	0.12887098
193	0x3d43d8e1	0.047814254
194	0xbd7045b3	-0.05866022
195	0xbe3ad4e9	-0.18245281
196	0xbd11b5dd	-0.03557383
197	0xbe1fe869	-0.15616001
198	0xbd9f8d4e	-0.077906236
199	0x3d946c67	0.072472386
200	0x3b4dd537	0.0031407604
201	0x3e04e383	0.12977414
202	0xbe2672e1	-0.1625476
203	0xbdb777c2	-0.08958389
204	0x3dfec480	0.12439823
205	0xbda0f5e6	-0.078594014
206	0x3d358aba	0.044321753
207	0xbe8aff59	-0.2714794
208	0x3daaa348	0.08331925
209	0x3e344b1c	0.17606777
210	0xbdece2e4	-0.115667135
211	0xbdee6d35	-0.11641923
212	0x3dddab89	0.10823733
213	0xbe4d4e0e	-0.20049307
214	0xbe25984a	-0.16171375
215	0xbd0f2134	-0.034943774
216	0x3dcc881e	0.099869
217	0xbe0a3899	-0.13498153
218	0xbe0d67ae	-0.13809082
219	0x3dbd9784	0.09257415
220	0x3e0a1bd2	0.13487175
221	0x3c809c29	0.015699463
222	0x3d5ee26f	0.054415163
223	0x3ce55323	0.027993744
224	0x3c0372ab	0.008022944
225	0xbe05b93d	-0.13058944
226	0xbe666a34	-0.22501451
227	0xbe3d97e8	-0.18514979
228	0xbd3b4bf3	-0.045726728
229	0xbdaa6840	-0.08320665
230	0x3d4a5ac3	0.049402963
231	0x3cb088ad	0.021549547
232	0x3d7ac756	0.061225258
233	0x3cd7b379	0.026330696
234	0x3c5f4d81	0.013629318
235	0x3dec49c3	0.115375064
236	0xbd8b5210	-0.068027616
237	0x3dd97101	0.10617257
238	0xbe00f936	-0.12595066
239	0xbe31bd7b	-0.17357437
240	0xbe4a3e4a	-0.19750324
241	0x3c855372	0.016275141
242	0x3d9ca68a	0.07648952
243	0x3e2557f2	0.1614683
244	0xbe2d4274	-0.16919881
245	0xbce53418	-0.027978942
246	0xbbb503b3	-0.0055241226
247	0x3d6a6532	0.057225414
248	0xbe4b7485	-0.19868667
249	0x3e2f6c3f	0.17131136
250	0xbdce0978	-0.100604
251	0x3e097ecd	0.13427277
252	0xbbfdc2d0	-0.0077441707
253	0x3dee4ef7	0.11636155
254	0x3d55a450	0.052158654
255	0xbd337f53	-0.043822598

distribution.branches.1.bias f4 [3]
0	0x3ce523bf	0.027971147
1	0xbd07989d	-0.033104528
2	0x3b2ebb1e	0.0026661824

critic.network_body.vector_processors.0.normalizer.running_mean f4 [9]
0	0x4180dda8	16.10823
1	0x3fbbb7e1	1.466549
2	0xbc974c00	-0.018468857
3	0x403b8f32	2.930615
4	0x3fa66955	1.3000895
5	0x3e56f672	0.20992449
6	0x410a6e4b	8.651927
7	0x3ef52c0b	0.47885165
8	0x3d96b91b	0.07359525

critic.network_body.vector_processors.0.normalizer.running_variance f4 [9]
0	0x4b210dc7	1.0554823e+07
1	0x49b6f458	1.498763e+06
2	0x4b7e6f94	1.6674708e+07
3	0x4d0d85e9	1.4839771e+08
4	0x4a291c01	2.7706882e+06
5	0x4a515e60	3.430296e+06
6	0x4c49daa2	5.2914824e+07
7	0x4b2ec859	1.1454553e+07
8	0x4b0018e4	8.39498e+06
